data/videos/.working/embeddings/3_W6bGuTfzU.npy (npy, 33920 bytes, 1 tensors)

array f4 [11, 768]
-0.02359643 -0.029362805 -0.024014927 0.0369412 -0.03980221 0.011970588 -0.02008616 0.015999135
0.026712265 0.009417672 -0.04121419 -0.06329245 0.06174571 -0.004960673 -0.042200606 0.048463207
0.009103451 0.043497864 0.011208427 0.018338567 0.01963959 0.02539133 -0.0026443962 -0.053525735
-0.0284795 0.09198645 -0.0014187321 0.05200763 -0.017718635 0.0681024 -0.004373244 -0.031458806
0.050834607 -0.036878224 -0.0142139485 0.022792036 -0.054567296 -0.01906152 -0.013543047 0.020309795
-0.04396074 0.009974409 -0.100371435 -0.012254806 -0.0067517697 -0.012902948 -0.016378637 -0.09551027
0.0016031917 0.048937816 0.040990017 0.057267815 -0.051609118 -0.00947773 -0.0489236 -0.025905289
-0.07543253 0.013785196 -0.01521167 -0.006570551 -0.015438587 -0.0039411653 0.0072559025 -0.020955792
0.067677565 0.004345215 0.0017843086 0.051658213 0.02150212 0.074035324 -0.007908555 -0.031136107
-0.03813019 -0.01940988 0.06961924 -0.013697741 -0.019255485 -0.028242938 0.03535597 0.008670688
0.040542014 -0.016046803 0.025734052 -0.040271837 0.04741596 0.07831332 0.00024786938 -0.02148333
0.043167558 -0.04972505 0.019821195 -0.05943077 0.0532713 0.017761162 0.060334474 -0.0041474416
-0.0039156633 0.009811026 -0.0029967886 -0.019540258 0.049091518 -0.007135734 0.02866883 0.09907339
0.017268082 0.031546682 -0.010047853 0.030901192 -0.021304172 0.04878825 -0.0402514 0.039111305
-0.03121729 0.012262516 -0.039218124 0.020066474 -0.0008389878 -0.027717289 0.060939275 0.03932298
-0.03405445 -0.027989384 0.015555179 -0.050697837 -0.01516019 0.013068473 0.017436348 -0.04054901
0.03586207 -0.021572344 0.08256747 -0.04056881 -0.019293714 0.00716816 -0.025198484 0.03904692
0.017949902 -0.03779303 -0.012100989 0.026706567 -0.026250096 -0.109077655 -0.043895636 0.087109394
0.0011447457 0.02080568 -0.050454624 0.0259024 -0.037804574 8.090751e-05 0.030112986 -0.045015786
0.037839968 -0.028417414 -0.012998396 0.055725638 0.019842817 -0.008252132 -0.0019726697 0.008806444
0.007976007 -0.0035821793 -0.0042284415 0.029578313 0.016093751 0.011435717 0.024874784 0.064572774
0.010153423 0.039006595 -0.019337943 -0.015729465 0.04418884 -0.010870912 -0.08116556 -0.005549225
0.022012245 -0.0043232767 0.06164351 0.028846227 -0.00972077 -0.0025355464 0.011301418 0.008266494
0.00782948 -0.042134356 0.008284893 0.005101145 0.07222655 0.011302033 0.019578356 -0.01562956
-0.03711708 -0.018873293 0.051732223 0.05860317 0.04852472 0.050494324 -0.017727993 0.010021526
0.013195123 0.014092307 -0.05766713 -0.052673474 0.05969453 -0.02410681 -0.01096175 0.02686035
0.026176305 -0.04335997 -0.029519089 -0.014772976 0.034225542 0.046244882 0.026282148 -0.013404312
-0.032918226 -0.0153664285 0.0017703909 -0.0054280907 -0.027909357 0.025201138 0.003727682 -0.004361294
0.023774361 0.038129896 -0.04302543 -0.00235672 -0.02039333 -0.0357116 0.019781832 -0.0007810996
-0.029627189 -0.05694608 0.021790257 -0.05542905 -0.016710654 -0.0044571226 -0.05124234 0.0006203918
0.03246794 -0.04163467 0.01576545 0.0951115 0.010820923 0.036508776 0.06712883 0.004470205
-0.0075919996 -0.034927387 -0.012620573 0.042095866 0.026145125 0.009162285 -0.0022844714 -0.023166439
00000000: 4d4d c1bc 448a f0bc f4ba c4bc a84f 173d
00000010: a407 23bd 4920 443c bb8b a4bc 9e10 833c
00000020: aed3 da3c 944c 1a3c 36d0 28bd 799f 81bd
00000030: 12e9 7c3d 248d a2bb 8bda 2cbd 5b81 463d
00000040: a426 153c d12a 323d 8da3 373c c33a 963c
00000050: 35e3 a03c 7a01 d03c 9b4d 2dbb cd3d 5bbd
00000060: d74d e9bc 6463 bc3d c0f4 b9ba f405 553d
00000070: ac26 91bc 4579 8b3d 6e4d 8fbb f3da 00bd
00000080: f337 503d 9f0d 17bd 9fe1 68bc 5db6 ba3c
00000090: f581 5fbd e826 9cbc a8e3 5dbc ba60 a63c
000000a0: 2d10 34bd b46b 233c 8a8f cdbd 62c8 48bc
000000b0: f33d ddbb e366 53bc 7e2c 86bc e39a c3bd
000000c0: 3022 d23a 0573 483d 26e5 273d a891 6a3d
000000d0: 1564 53bd 7b48 1bbc 1d64 48bd 5437 d4bc
000000e0: 5f7c 9abd 4ddb 613c 5e3a 79bc c74d d7bb
000000f0: 21f2 7cbc e424 81bb ecc2 ed3b 7bab abbc
00000100: 899a 8a3d 4e62 8e3b 76df e93a 9097 533d
00000110: 3725 b03c d59f 973d e292 01bc 2611 ffbc
00000120: 672e 1cbd 7801 9fbc 8894 8e3d 7d6c 60bc
00000130: aebd 9dbc bc5d e7bc 6cd1 103d 800f 0e3c
00000140: 620f 263d 9674 83bc 38d0 d23c 15f4 24bd
00000150: 3d37 423d bc62 a03d 77f4 8139 cffd afbc
00000160: 77d0 303d 7eac 4bbd 0f60 a23c ae6d 73bd
00000170: 0233 5a3d db7f 913c 4821 773d 43e7 87bb
00000180: f74e 80bb 6dbe 203c c565 44bb e412 a0bc
00000190: 3014 493d e0d2 e9bb e5da ea3c fde6 ca3d
000001a0: cb75 8d3c 1837 013d c09f 24bc 7f24 fd3c
000001b0: 1686 aebc 30d6 473d a7de 24bd 2d33 203d
000001c0: 67bb ffbc b8e8 483c 2fa3 20bd 7262 a43c
000001d0: 85ef 5bba 5e0f e3bc 769b 793d 2211 213d
000001e0: ae7c 0bbd fe49 e5bc 26db 7e3c 89a8 4fbd
000001f0: 7262 78bc 261d 563c acd6 8e3c b816 26bd
00000200: 1be4 123d 7cb8 b0bc 2219 a93d 7b2b 26bd
00000210: da0d 9ebc e2e2 ea3b 0d6d cebc aaef 1f3d
00000220: ac0b 933c ddcc 1abd 3a43 46bc bbc7 da3c
00000230: 710a d7bc 1b64 dfbd e9cb 33bd 6966 b23d
00000240: 4b0b 963a ac70 aa3c 82a9 4ebd 4531 d43c
00000250: f8d8 1abd e4ac a938 82af f63c 7962 38bd
00000260: 15fe 1a3d a3cb e8bc 39f7 54bc 9140 643d
00000270: 678d a23c f333 07bc e847 01bb e748 103c
00000280: ccad 023c ffc2 6abb bd8e 8abb 384e f23c
00000290: 0bd7 833c e05c 3b3c 34c6 cb3c bb3e 843d
000002a0: 8b5a 263c 61c5 1f3d 9b6a 9ebc 14db 80bc
000002b0: 5bff 343d e91b 32bc 213a a6bd 46d6 b5bb
000002c0: 0653 b43c 46aa 8dbb e87d 7c3d ec4e ec3c
000002d0: dd43 1fbc 692b 26bb 9529 393c 3070 073c
000002e0: 3847 003c 1395 2cbd 5cbd 073c 8127 a73b
000002f0: 83eb 933d 2a2c 393c ca62 a03c 9009 80bc
00000300: 1408 18bd 2a9c 9abc 2be5 533d e109 703d
00000310: dbc1 463d 23d3 4e3d 4c3a 91bc 5431 243c
00000320: 5b30 583c 6be3 663c 5e34 6cbd 24c0 57bd
00000330: 4082 743d a57b c5bc e998 33bc 3d0a dc3c
00000340: b16f d63c 399a 31bd 04d2 f1bc 5a0a 72bc
00000350: 1530 0c3d 466b 3d3d a94d d73c c29d 5bbc
00000360: 43d5 06bd 79c3 7bbc 760c e83a 20de b1bb
00000370: 2aa2 e4bc 9e72 ce3c 204c 743b 30e9 8ebb
00000380: 73c2 c23c 182e 1c3d 6f3b 30bd 3373 1abb
00000390: ea0f a7bc 5446 12bd 820d a23c b5c2 4cba
000003a0: b8b4 f2bc 4b40 69bd 7b81 b23c 9209 63bd
000003b0: c8e4 88bc 0e0d 92bb 7de3 51bd caa1 223a
000003c0: 1afd 043d 1e89 2abd 8c26 813c d1c9 c23d
000003d0: 3e4a 313c 3a8a 153d d77a 893d cc7a 923b
000003e0: 4fc6 f8bb 0510 0fbd 85c6 4ebc b76c 2c3d
000003f0: 4d2e d63c 691d 163c 12b7 15bb 8bc7 bdbc
