data/videos/.working/embeddings/6_XMKmFQ_w8.npy (npy, 83072 bytes, 1 tensors)

array f4 [27, 768]
000000 31 96 02 bc 40 79 97 bc 0b 16 41 3b 20 94 7e 3c
       -0.007970379 -0.018490434 0.0029462602 0.015538245
000010 9b f1 0f bd d3 af 2e bc d8 1f 5d bd de 25 b4 bd
       -0.035142522 -0.010662037 -0.053985447 -0.08796285
000020 d1 52 00 3d 2e b7 86 bc 32 d9 1c 3d a6 22 14 bd
       0.03132898 -0.016444769 0.03829307 -0.036165856
000030 23 67 7b 3d 08 d6 40 bd 0e 9b 68 bd 5e 4d 10 3d
       0.061377656 -0.047079116 -0.056788497 0.035230033
000040 23 98 11 3d f4 b3 06 3d 31 ab ae 3c fb 15 53 bd
       0.03554548 0.03288646 0.021321865 -0.051534634
000050 50 0f c5 3c c7 a0 18 bc 90 ae 08 3d d7 1c 26 bd
       0.024055153 -0.009315676 0.0333696 -0.040554848
000060 83 58 73 bb b0 8b e0 bc bc 56 09 bd 34 c6 ec 3c
       -0.0037131615 -0.027410358 -0.033529982 0.028903104
000070 50 50 4d 3c 97 c4 d7 bc 26 85 0d bd 73 df 25 bc
       0.012531355 -0.026338859 -0.03455081 -0.010124075
000080 db 50 82 3d e7 e8 6c bb 6e ad c3 3c ee 9e 0c bd
       0.06363078 -0.0036149563 0.023886409 -0.034331255
000090 47 6f 19 bc f7 e6 ba ba 80 b8 73 bd 15 09 5e bd
       -0.0093649095 -0.0014259507 -0.059502125 -0.05420788
0000a0 7a 64 1f bd 42 5b c1 3b ee 8f 0c bd 05 32 63 3d
       -0.03891418 0.0059007714 -0.03431695 0.055467624
0000b0 25 fe 12 bd af 25 a8 bc 1b 32 07 bd bc 38 c5 3c
       -0.035886902 -0.020525781 -0.03300677 0.024074905
0000c0 4c f4 9e 3c 0e e8 5c 3d 36 36 90 3c 52 d0 19 bc
       0.0194036 0.053932242 0.017603975 -0.009388046
0000d0 0d 44 fe bd e6 92 55 3c 97 e5 ce 3b ad f3 6b bd
       -0.124153234 0.013035512 0.0063139903 -0.057605434
0000e0 03 01 28 bb 21 92 cb bc 81 e6 bd 3c 50 2b ff 3c
       -0.0025635369 -0.024849953 0.023181202 0.031148583
0000f0 63 fb ca bb d3 f7 22 3d ca ea c4 3c d2 77 b1 3c
       -0.0061945184 0.039787125 0.024037737 0.02166358
000100 68 e0 2d 3c fb 35 4c 3d da 29 b8 3c 0b b1 98 3c
       0.010612585 0.049856167 0.022480894 0.018639108
000110 05 57 0c 3d e6 96 aa 3d e2 98 73 3c d5 d9 07 bd
       0.034262676 0.08329563 0.014867993 -0.033166725
000120 f6 d4 8b bd 8d 65 27 3d 9d 64 a4 3d f3 f7 4b bd
       -0.068277285 0.04086833 0.08027003 -0.04979701
000130 8e 73 0c bd 58 fd 89 3c eb d0 36 bc 5a 73 2d 3d
       -0.03428989 0.016844437 -0.011158208 0.042346336
000140 55 8b 8a bc b8 4a f1 bb eb cb a9 bc 6f 57 f6 bb
       -0.016912142 -0.0073636435 -0.020727118 -0.007517747
000150 52 5e 18 3d 60 5a 9a 3d 79 09 72 bd 00 39 fb bc
       0.037199326 0.07536769 -0.059091065 -0.030666828
000160 ea ed 21 3d 8c 1d 93 bd e2 90 3e 3d 01 25 96 bd
       0.039533533 -0.0718337 0.04652489 -0.07331277
000170 83 4e 09 bd 7c db a8 3c 5a 13 5a 3c 90 fe d9 3c
       -0.03352214 0.02061247 0.013310278 0.026610643
000180 fc d1 a3 bc 1b d8 49 3b 83 2e ee 3c 28 dc c7 3d
       -0.01999759 0.0030798975 0.029074913 0.09758788
000190 d2 8f 16 3d 65 e8 b2 39 a6 ba a0 bc 98 73 b1 3d
       0.03675825 0.00034123953 -0.01962025 0.08664626
0001a0 e7 60 0c 3d 10 1a 99 bc 01 54 bc 3c 74 e2 b7 3c
       0.0342721 -0.018689185 0.022989275 0.022446848
0001b0 8e 70 65 bc 89 e9 96 3c f7 c1 9a bb 0a 55 f3 3c
       -0.014003886 0.018421905 -0.0047228294 0.029703636
0001c0 18 8e db 3b a5 3c b2 3c 0e fd 01 bc 00 e6 e7 3c
       0.0067002885 0.021757433 -0.007933868 0.028307915
0001d0 69 32 0e bd bf 42 e1 bb e5 7d 10 bd a6 23 1f bd
       -0.034716044 -0.006874412 -0.035276312 -0.038852356
0001e0 f5 86 2c bd 00 da 75 bc d6 eb 38 bd ee 55 a5 bc
       -0.042120893 -0.0150055885 -0.045146786 -0.020182576
0001f0 51 04 f8 3a bd d2 0a bd 42 26 c2 bb db 98 81 bd
       0.0018922185 -0.033892382 -0.005924971 -0.06327983
000200 67 c6 17 bb b4 23 71 bd c7 8f 69 3d 20 ce 09 bd
       -0.0023159028 -0.05887194 0.057021882 -0.03364384
000210 28 15 03 3c cb ee e1 bc 9d 2e ed 3c 0d fa c6 3a
       0.0080006495 -0.027579686 0.028952891 0.0015180722
000220 d2 d9 2b bd cf 2d 1b ba 78 e8 ad bc 40 94 bd bc
       -0.041955777 -0.0005919607 -0.021229014 -0.02314198
000230 97 26 8b bc 86 87 ff bd ec 68 03 3d 3d 7a 01 3d
       -0.016986175 -0.12477021 0.032082483 0.031610716
000240 5e 28 0e 3d da 50 b9 bc 51 8d 7b bd 79 ff 01 3d
       0.034706466 -0.02262156 -0.061414067 0.03173778
000250 22 05 1a bd 69 ea 77 3d 51 cd 54 bc 51 b9 d5 bc
       -0.03760255 0.060526285 -0.012988404 -0.026089342
000260 33 96 70 3d 20 0b 70 3c 50 2b 4f bd 28 e9 05 bb
       0.05873699 0.01465109 -0.050578415 -0.0020433161
000270 59 4a 55 3c 08 de 5f bd 20 11 21 3d 51 57 03 3d
       0.013018214 -0.054655105 0.039322972 0.032065693
000280 9a aa 13 bc 28 f1 99 bd aa fa b0 3c a4 68 d8 3c
       -0.009012843 -0.075167 0.021603901 0.026417084
000290 19 3f 17 3d 7f 55 45 bd 1f b1 39 bd aa 96 4b bd
       0.03692541 -0.04817724 -0.04533493 -0.04970423
0002a0 58 99 07 bb 1e 18 d6 3c 7a 85 44 3c 6d 44 19 3d
       -0.0020690765 0.026134547 0.011994714 0.03741877
0002b0 b7 36 72 bc 97 b3 40 bc a3 e7 71 3c eb 10 5b bc
       -0.014783553 -0.011761568 0.014764699 -0.013370733
0002c0 06 ae 6f bb 13 c4 9d 3b 74 09 38 3c b8 7d 39 3d
       -0.0036572232 0.0048146336 0.011232723 0.04528591
0002d0 c7 00 18 bc cc e3 33 3d 73 2b 82 3c 1a 55 0a 3d
       -0.009277529 0.043918416 0.015889859 0.033772565
0002e0 cc 12 38 bd 3e a7 1f bd 8d 68 2d bd 8a 5c ab 3c
       -0.0449398 -0.038977854 -0.042336036 0.02091815
0002f0 cd 04 92 ba 7d 7c 28 3c 1a af 2b bc 92 5c 67 3c
       -0.0011140347 0.010283587 -0.010478759 0.014121192
000300 29 04 04 bd 05 ef 24 bd e7 2d 3e 3d 22 08 8d 3d
       -0.03223053 -0.04026701 0.046430495 0.06886317
000310 bc fc df 3c f3 2a 15 ba 1f 69 06 bd ae 8d e5 bb
       0.027342193 -0.0005690299 -0.032815095 -0.007005415
000320 ff f0 a7 3c 8d 9b bc bb 59 6a a3 bc bf dc 95 bc
       0.020500658 -0.005755848 -0.019948171 -0.018293737
000330 c8 46 99 bb ee d1 16 3b 46 dd cf bc e0 28 ef 3c
       -0.0046776272 0.0023013311 -0.025374066 0.029194295
000340 56 25 0d 3d b5 37 11 bd 57 0e 04 bc 37 b4 4c 3c
       0.034459434 -0.035453517 -0.0080600595 0.012494138
000350 cd 9a 30 3b aa cd c7 3c 79 b2 77 3c 2d 5f 10 bd
       0.0026947737 0.02439006 0.015118235 -0.035247017
000360 f6 9f 86 3c 97 95 8b 3c 5e 78 b7 bb 1b c9 27 bd
       0.016433697 0.017039103 -0.0055990657 -0.040963273
000370 7f 9d a5 bb 9a 9b 5e 3b a3 85 f6 3c fc 6c 55 bd
       -0.0050541754 0.0033967257 0.03009302 -0.05210589
000380 1e ed 0a bd 53 36 68 3d 83 3f 82 bd a6 84 ec bc
       -0.03391754 0.056692433 -0.0635977 -0.028871845
000390 ce 49 28 bd 37 09 81 bc 92 2e a3 bc 59 b9 0a 3d
       -0.04108601 -0.015751464 -0.019919667 0.033868168
0003a0 81 fa 1c bc 94 2f a2 bc c9 e0 d0 3c 78 2f 66 3d
       -0.009581209 -0.019798078 0.02549781 0.056197613
0003b0 2f 1e 57 bc fa 0d 9e 3c b0 8a cd 3b 10 ab 46 bd
       -0.013129755 0.019293774 0.0062726364 -0.04850298
0003c0 29 a0 79 bc 77 66 b0 bc 65 7a 25 bd 8a c7 bc 3d
       -0.015235939 -0.021533234 -0.040399928 0.092177466
0003d0 be 1c fa bb 64 14 1e 3c 40 0f 5a 3d 7b f8 d6 3c
       -0.007632821 0.009648416 0.0532372 0.026241532
0003e0 e9 92 58 bd 9c bf 7a bb 74 34 01 3d 18 6f d0 3c
       -0.05287448 -0.003826118 0.031544164 0.025443599
0003f0 5b e8 25 3c 67 2a 95 bc 53 e9 1f bc f8 cb db 3b
       0.010126199 -0.018208696 -0.009760219 0.0067076646
