data/videos/.working/embeddings/8jV1SwpZ-W4.npy (npy, 89216 bytes, 1 tensors)

array f4 [29, 768]
00000000: 1e3d 7abd 4f85 6a3b 1d45 543d 2b2c 08bc
00000010: 0e81 eebd 6757 28bd 8046 50bd 82bf aebc
00000020: 84c0 363d e707 03bd 1ad8 21bc d945 16bc
00000030: a6e0 633d 917e 653c 7753 35bd 8a5b 423d
00000040: a54f ceba 0efa 10bc b671 663d 86e4 ddbc
00000050: cb81 08bd d047 2e3c 2f13 2fbc 625e 21bd
00000060: 11f0 8b3b 5d13 c6bb 5386 2f3d 4ee1 3ebb
00000070: 0aa3 6b3d bc2e a43c 7dc2 ba3c b9ce 6dbc
00000080: 9774 c13d f04e 2fbd 7ded bb3c e262 d6bc
00000090: 6166 923a 312f 223d 22b1 05bd 31ab 64bc
000000a0: e42d cc3c 1a0d a53d 36a8 40bd 6c2a ac3c
000000b0: a618 e339 c545 29bd f8df ab3c 172c 16bd
000000c0: ffa8 51bb b337 833d 4835 79bc e9c1 d7bc
000000d0: 72ac 94bc 832d a43b c483 183c 4139 fc3b
000000e0: 4466 553d 809b 073d c84f 03bc ecfa 563d
000000f0: 9df3 14bd 7123 eebb 3fd6 86bc d955 6ebd
00000100: afd2 0bbd 2b09 6f3c 28cd 9ebc 426e 873b
00000110: cb77 663c 8577 e63d c2cc bc3c f82c 35bc
00000120: b5cd 9cbc 8d5c 89bd b79f eb3d 73c4 3bbd
00000130: 1a3d 94bc 51d6 1d3d 847e 2bbc 09b4 403c
00000140: bed6 5fbc e6bf 9abd e90b c13c 75fc 18bc
00000150: 4716 34bc 0483 833d 4406 213d 8c95 b4bc
00000160: 22e5 7b3d e0db b1b9 4506 2c3c aa29 9abc
00000170: b793 0c3c 92ed bfbc 51bc 28bd 6353 5c3d
00000180: 0875 11bd 1dce aa3d d2bc 5f3d 1b1c 823d
00000190: 3dda 4f3b 01d6 c1bc 72f8 bd3c 2dc4 963c
000001a0: 0180 6abd e110 01bc c297 c63b 2359 00bd
000001b0: a146 5cbc 97da 933c 2f06 21bd 81da 103c
000001c0: 723c 70bc 710e 84bc 1e61 b9bc bcdd 1f3d
000001d0: 7a0c a33b dcaa a53d 2383 44bc 1490 803c
000001e0: 5e00 fc3c aadc e03b a71c 0c3d 3095 80bd
000001f0: 13dc 47bc ef4a 653d ca3d 42bd f8b3 fe3a
00000200: 54c2 b83d 6eb4 c63c 47f4 833c acdd fcbc
00000210: 91a6 6b3c b5a7 713c 5439 8abb 5d91 99bb
00000220: 83f1 4c3d 914c a0bb c5f0 21bc a26c 43bd
00000230: 3da5 053d 68ca dcbd 5cb6 743c 9457 813c
00000240: d5f7 133d 12a0 19bd c77e c0bd 8398 1cbc
00000250: 33d6 333d bb05 a93d ac90 0abd 07b5 9ebc
00000260: dff4 9e3a 9141 37bc 8a60 0039 d26d 5bbb
00000270: 5aa4 0a3d 9f42 99ba a9b9 74ba d555 d2bc
00000280: f14b 7cbb d19b afbc ab04 d0bb e8a6 93bb
00000290: 9507 0cbb f895 853c ad73 d4bc 0dd6 febc
000002a0: 0180 f43a adcc 98bc 5826 0abd 68b2 c4bb
000002b0: cb7b 64bd 9bd8 ce3c 5562 aabb 01b2 0ebd
000002c0: 92e6 1d3d 3caf d03c ea0e 46bc 6a12 0cbc
000002d0: 7f73 263d 5697 c2bc b20a 433c 4885 2ebc
000002e0: d49f 40bd 8026 84bc 73e7 a5bc 95d4 e13c
000002f0: ac43 f7bb bbd0 68bd b198 093d 2ac6 573c
00000300: 80d8 8cbc 3186 e03c 5592 3f3d ecd8 123d
00000310: a74e 8d3d 101c 0c3d 30e7 53bc 09fb 63bc
00000320: fbe6 073d 264b 2c3c 351b 92bc 5e9e 903c
00000330: e722 493d 64a0 c0bb ced5 44bd 3c0e 423d
00000340: 21f0 40bc 5b0f cf3b 0750 3d3d 8a38 30bc
00000350: 18c2 06bc 406e f03b 33ce 2d3c c1d7 6d3c
00000360: f0c6 15bc 3e0a 2f3d 73a7 043d 9e59 aa3b
00000370: 815b b5bc 1a8c b7bc 3373 4dbd d542 a1bc
00000380: 0fb4 d2bc b24f 9fbd d76b 24bd 090b 373c
00000390: 2a75 943c 0173 e1bc 8900 e5bc ff5b be3d
000003a0: 8e81 c1bc b633 57bc 4397 263d 6ffd 573d
000003b0: 9bda 8d3c b216 c1bc 2c98 dcbc 598d f7ba
000003c0: 8f63 b3bc f52b 22bd bb73 34bb dce3 563d
000003d0: 43f1 4dbb cda1 bfbc ee97 ff3c 550a c0bc
000003e0: f2c2 20bd e75c 24bd b7ee f1bb ba57 a33c
000003f0: 8cf4 553c f591 58bd 42f9 edbc 781d cebc
-0.061093442 0.0035785025 0.051823724 -0.008311312 -0.11645709 -0.04109898 -0.050848484 -0.021331552
0.04461719 -0.031989958 -0.009878183 -0.009171926 0.055634163 0.014007227 -0.04426905 0.04745058
-0.0015740289 -0.00884868 0.056260787 -0.027086508 -0.033326905 0.010637239 -0.010685726 -0.03939665
0.0042705615 -0.0060447888 0.04285271 -0.0029125991 0.057528533 0.020041816 0.022797817 -0.014514619
0.09446066 -0.04279989 0.022940392 -0.026170198 0.0011169427 0.039595786 -0.03263963 -0.013956831
0.024924226 0.080591395 -0.04703542 0.021016322 0.00043315178 -0.041326303 0.02098082 -0.03666314
-0.0031991599 0.06407108 -0.015210457 -0.02633758 -0.018148635 0.005010308 0.009308759 0.007697255
0.05209948 0.03310728 -0.008014627 0.05248539 -0.03636514 -0.0072674085 -0.016459582 -0.05818734
-0.03413647 0.014589588 -0.019384935 0.004133017 0.014066647 0.11253265 0.023046855 -0.011058085
-0.019141058 -0.06707106 0.115050726 -0.045841645 -0.018095542 0.038534466 -0.010467175 0.011761674
-0.013662038 -0.07556133 0.02356525 -0.009337534 -0.010991639 0.064214736 0.039312616 -0.022043966
0.061497815 -0.0003392389 0.010499542 -0.018818695 0.00858014 -0.023428712 -0.041195218 0.05379046
-0.035512 0.08340094 0.054623432 0.06353017 0.0031715774 -0.023661615 0.023189757 0.01840409
-0.05725098 -0.007877559 0.0060605714 -0.031335007 -0.013444574 0.018048568 -0.039312538 0.008841158
-0.014662849 -0.016120167 -0.022629317 0.03902982 0.0049758526 0.080892295 -0.011994156 0.015693702
0.030761894 0.0068622427 0.034207013 -0.06278455 -0.012198466 0.055979665 -0.047422208 0.0019432297
0.0902144 0.024255957 0.016107691 -0.03086742 0.014382974 0.014749457 -0.00421826 -0.004686518
0.05003501 -0.00489194 -0.009884064 -0.047711022 0.032628287 -0.107807934 0.014936056 0.01578883
0.036125023 -0.03750617 -0.09399181 -0.009557846 0.04390545 0.08253046 -0.033829376 -0.01937343
0.0012127421 -0.011185066 0.00012242995 -0.0033482206 0.033848144 -0.0011692828 -0.0009335527 -0.025675694
-0.0038497413 -0.021436604 -0.0063482127 -0.0045059808 -0.0021366824 0.016306862 -0.025934065 -0.031107927
0.0018653871 -0.018652285 -0.033727974 -0.006002713 -0.05578212 0.02524977 -0.0051997104 -0.034837727
0.038549967 0.025474183 -0.012088517 -0.008549312 0.04063749 -0.023753803 0.011904405 -0.010651894
-0.047027424 -0.01613164 -0.020251965 0.027567187 -0.007545909 -0.056839686 0.033592883 0.013169805
-0.017193079 0.027407737 0.046770412 0.035851404 0.06899767 0.03420645 -0.012933537 -0.013914832
0.033179265 0.010515964 -0.017835239 0.01765364 0.04910555 -0.005878495 -0.048055463 0.047376856
-0.011776001 0.006318969 0.0462189 -0.010755667 -0.0082249865 0.0073373616 0.010608244 0.014516772
-0.009141669 0.042734377 0.032386255 0.0051986715 -0.022138359 -0.022405673 -0.05015869 -0.019685188
-0.025720624 -0.077788725 -0.040141907 0.011172065 0.018122274 -0.027520658 -0.027954357 0.092948906
-0.023621347 -0.013134887 0.0406716 0.052731927 0.017316153 -0.023570392 -0.02692803 -0.0018886729
-0.02189806 -0.039592702 -0.00275348 0.052463397 -0.003142432 -0.023392582 0.031200375 -0.023442427
-0.039248414 -0.04012766 -0.0073831934 0.019939292 0.013058793 -0.05287357 -0.02904952 -0.025160536
