data/videos/.working/embeddings/b0MWwhxpIeU.npy (npy, 67712 bytes, 1 tensors)

array f4 [22, 768]
0.0016423926 -0.028951593 -0.009181414 0.021782245 -0.04466775 -0.02005137 -0.040174 -0.008070896
-0.02680223 -0.0058167214 0.0051451256 -0.042903513 -0.02369432 -0.0314721 -0.041352224 0.07289407
0.034011453 0.04100154 -0.044676725 0.02711691 0.0024442608 -0.026036894 0.038948778 -0.0018167715
-0.018855203 -0.024606524 0.010424689 0.018421281 -0.027857523 0.065892935 0.03877389 0.0108715035
0.008797031 -0.012367356 0.03741625 -0.006793319 0.010805363 -0.0044596205 -0.037573304 -0.026590472
-0.07238604 -0.011840297 -0.08029607 0.0457771 -0.013350824 0.026016794 -0.05230093 0.03285725
-0.009698935 0.051399913 0.015244672 -0.035345163 -0.0772287 0.007062804 -0.08707986 -0.022082191
-0.041759808 -0.009339346 -0.07709029 0.02678715 -0.061292894 -0.026027298 -0.018049765 -0.025705362
0.012067418 -0.004613003 0.0156050855 -0.004017279 -0.00075164915 0.08412963 0.0020640828 -0.0040409765
-0.0363411 0.023082439 0.057699393 0.0064354413 -0.0071803215 0.033552404 0.057830203 0.027568216
0.04054835 0.015210903 0.010567667 -0.0022263944 0.013150668 0.06628819 -0.0452498 -0.029786281
0.08055122 -0.13279721 0.043346036 0.01040541 -0.016621817 -0.052088834 0.037436523 0.0062441803
-0.03705022 0.10682399 0.019618824 -0.014530322 0.017969124 -0.01603628 -0.011450649 0.06826935
-0.052533098 0.021290427 -0.04173631 -0.024073523 -0.016223531 0.08230926 -0.004968671 0.0050525023
-0.07956225 0.018849852 -0.0477974 0.00686421 -0.016935203 -0.014639822 0.020883886 -0.019940738
0.035513725 -0.044615 -0.034464326 -0.072935894 -0.035881784 -0.05251399 -0.02697464 -0.03228614
0.0037139195 -0.0056553297 -0.012613729 -0.04071504 -0.025712498 0.008855698 0.020617414 0.036554668
-0.003707021 -0.032710273 -0.030187689 0.025549324 0.004864139 -0.14304024 -0.015771415 0.035189003
0.0039081722 -0.018392308 -0.06396868 0.04455126 -0.0020320574 0.04721618 0.016996227 0.0060726204
0.013144704 0.023632457 -0.016681805 0.031425636 -0.04351847 -0.049874023 0.0024792294 0.023198599
0.0055481168 -0.032863393 -0.007812277 0.01574981 -0.03223699 0.06569439 -0.0007165221 -0.031009205
-0.0021092338 0.05356647 0.006614405 0.0035074374 -0.0009052016 0.014855651 -0.03503616 -0.013288756
0.028032292 -0.030214304 0.025512045 0.008283835 0.013581191 0.033264518 0.0038219756 0.02136123
-0.007413194 0.013757935 -0.004958639 -0.0024902883 0.029450905 -0.014006499 0.03252438 0.018926628
-0.049689017 0.05071708 0.02827327 0.035697464 0.007378266 0.02644233 -0.09932572 0.024605826
-0.034472734 -0.016591864 -0.02377205 -0.010731729 0.023549616 0.0068987254 -0.018589469 0.08086595
-0.0004268874 0.04748751 -0.008196448 -0.0016913123 -0.025234245 0.02267603 0.057725023 -0.0143136475
-0.041338317 -0.018686019 -0.024135903 0.02066997 -0.016241377 -0.018019537 -0.0014238764 -0.022620253
0.01206752 0.024436379 -0.048748802 0.018758098 -0.03839798 0.00080848986 0.009821194 0.033035584
-0.051581644 -0.044226244 0.021475462 -0.0129795335 -0.031281106 -0.037619386 -0.033828422 -0.047173515
-0.018264536 0.026888696 0.03322818 0.10672618 0.031802278 0.020358805 0.06287231 0.055623837
0.030696249 0.008727878 -0.080415644 0.02438076 -0.0049664206 -0.0352627 0.04775259 0.025885224
00000000: 8d45 d73a e42b edbc a46d 16bc ae70 b23c
00000010: 88f5 36bd c542 a4bc 7e8d 24bd cb3b 04bc
00000020: 5a90 dbbc 329a bebb 7198 a83b 98bb 2fbd
00000030: 971a c2bc e4e8 00bd f360 29bd 7c49 953d
00000040: 984f 0b3d 3bf1 273d f1fe 36bd 4824 de3c
00000050: e42f 203b 534b d5bc c188 1f3d bc20 eeba
00000060: 3a76 9abc 9f93 c9bc 51cc 2a3c 3ae8 963c
00000070: 7635 e4bc e0f2 863d 5fd1 1e3d 641e 323c
00000080: 6c21 103c 73a0 4abc c841 193d 7d9a debb
00000090: fa08 313c 0222 92bb 77e6 19bd 43d4 d9bc
000000a0: 223f 94bd cefd 41bc 4472 a4bd c580 3b3d
000000b0: 6abd 5abc 2c21 d53c 8039 56bd 5395 063d
000000c0: 48e8 1ebc b788 523d cac4 793c 17c6 10bd
000000d0: 152a 9ebd 186f e73b ed56 b2bd b6e5 b4bc
000000e0: 550c 2bbd 0e04 19bc 84e1 9dbd ba70 db3c
000000f0: 420e 7bbd 3337 d5bc 1add 93bc 0d94 d2bc
00000100: 6bb6 453c ad28 97bb 79ac 7f3c 61a3 83bb
00000110: 520a 45ba 284c ac3d 9045 073b 2b6a 84bb
00000120: 68da 14bd 6217 bd3c 3356 6c3d 65e0 d23b
00000130: e748 ebbb 3f6e 093d 5ddf 6c3d bdd6 e13c
00000140: 0716 263d 2737 793c 0224 2d3c b3e8 11bb
00000150: e675 573c 1ac2 873d db57 39bd 5c02 f4bc
00000160: 0af8 a43d fefb 07be 9d8b 313d 747b 2a3c
00000170: 7a2a 88bc 1a5b 55bd 0a57 193d fb9b cc3b
00000180: f9c1 17bd 89c6 da3d a8b7 a03c 9610 6ebc
00000190: fc33 933c 845e 83bc 819b 3bbc cdd0 8b3d
000001a0: f22c 57bd 4369 ae3c b1f3 2abd d635 c5bc
000001b0: 36e7 84bc c291 a83d 3cd0 a2bb 768f a53b
000001c0: 88f1 a2bd 016b 9a3c 35c7 43bd 2bed e03b
000001d0: b2bb 8abc dddb 6fbc af14 ab3c c25a a3bc
000001e0: d776 113d 38be 36bd 772a 0dbd 6a5f 95bd
000001f0: c7f8 12bd e918 57bd ecf9 dcbc 793e 04bd
00000200: 3b65 733b 5850 b9bb d0a9 4ebc d0c4 26bd
00000210: 04a3 d2bc 7d17 113c dae5 a83c 59ba 153d
00000220: 7ef1 72bb 35fb 05bd 2c4c f7bc d14c d13c
00000230: 5b63 9f3b 2479 12be 0e33 81bc 5822 103d
00000240: 2010 803b 77ab 96bc 0302 83bd 627b 363d
00000250: 442c 05bb c165 413d ac3b 8b3c d5fc c63b
00000260: e25c 573c db98 c13c 48a8 88bc 2bb8 003d
00000270: 6c40 32bd b448 4cbd 917a 223b fd0a be3c
00000280: facc b53b c49b 06bd 21fe ffbb bf05 813c
00000290: ef0a 04bd c88a 863d fcd4 3bba 0407 febc
000002a0: 123b 0abb 8468 5b3d a7bd d83b 09dd 653b
000002b0: 0d4b 6dba 1e65 733c 1482 0fbd 15b9 59bc
000002c0: faa3 e53c fd83 f7bc a3fe d03c ecb8 073c
000002d0: a583 5e3c 6040 083d 1c7a 7a3b bffd ae3c
000002e0: 61ea f2bb f668 613c 147c a2bb 1b34 23bb
000002f0: 0643 f13c 847b 65bc 4938 053d 040c 9b3c
00000300: b686 4bbd b6bc 4f3d 589d e73c 8137 123d
00000310: 62c5 f13b 969d d83c 486b cbbd 2892 c93c
00000320: 4833 0dbd a9eb 87bc 9abd c2bc 22d4 2fbc
00000330: 20eb c03c b40e e23b f148 98bc 0c9d a53d
00000340: dbcf dfb9 4382 423d 654a 06bc 06af ddba
00000350: 0cb8 cebc 15c3 b93c 1371 6c3d ca83 6abc
00000360: 5e52 29bd 6c13 99bc a8b8 c5bc 1254 a93c
00000370: a30c 85bc b59d 93bc 5da1 baba 1c4e b9bc
00000380: d9b6 453c cd2e c83c d3ac 47bd 95aa 993c
00000390: 3347 1dbd d6f0 533a 13e9 203c 5250 073d
000003a0: 4647 53bd 9426 35bd 4fed af3c 1ca8 54bc
000003b0: 9e20 00bd c916 1abd ac8f 0abd 0439 41bd
000003c0: 829f 95bc af45 dc3c 461a 083d 4193 da3d
000003d0: 1b43 023d 82c7 a63c 33c3 803d d2d5 633d
000003e0: b376 fb3c 60ff 0e3c f5b0 a4bd 29ba c73c
000003f0: 5bbd a2bb 9f6f 10bd 3898 433d 400d d43c
