data/videos/.working/embeddings/b0U1NxbRU4w.npy (npy, 24704 bytes, 1 tensors)

array f4 [8, 768]
000000 10 71 2b bb 4e c4 80 bd a9 7c 21 3c 9f eb be 3b
       -0.002615992 -0.06287442 0.009856381 0.005826428
000010 12 55 79 bd 71 1f b3 3c 88 f2 5e bd 35 61 80 3c
       -0.060872145 0.021865578 -0.054430515 0.015671352
000020 e7 bd 24 3c 5c 25 0e 3c 66 10 5e 3b c0 fd c8 bc
       0.010055042 0.008675899 0.0033884286 -0.02453506
000030 0b 36 ef 3c ad 82 68 bc 8b b3 8d bd b4 fb 41 3d
       0.029200574 -0.014191312 -0.06919011 0.047359183
000040 f4 2d 17 3c 55 f7 cd 3c 77 0e 3b 3b 16 ff a5 bc
       0.009227265 0.025142351 0.0028542557 -0.020263236
000050 c7 9c 8b bc 5b b6 82 bb 86 a5 80 3c 0a cd 81 bd
       -0.01704253 -0.0039890236 0.015703928 -0.06337936
000060 0e d4 49 bb 63 c7 d4 3c a6 30 18 3c 5b 1f 84 3d
       -0.003079656 0.025973981 0.009288942 0.06451293
000070 25 13 a2 bc 66 1d ed 3c 42 6d 42 bc 72 32 67 bd
       -0.01978452 0.028944682 -0.011866869 -0.056444593
000080 49 8d 97 3d 6d 89 91 bc 21 61 93 3c c9 55 07 bc
       0.07399995 -0.017765725 0.01799065 -0.008260199
000090 60 db 5b bd 1a 7f 60 bc b8 5f 6d bd 22 83 40 bd
       -0.05367601 -0.013702178 -0.057952613 -0.047000058
0000a0 98 f2 a7 bd 4d 0f 68 3d 42 73 51 bd 21 2b 17 3d
       -0.08200568 0.056655217 -0.05113531 0.036906365
0000b0 fc bd 14 3c 8c a6 1f 3c 1c 11 37 bd 48 84 73 bd
       0.009078499 0.009744298 -0.04469405 -0.059452325
0000c0 60 de ac bc c1 c2 6f 3d 2d 22 23 bb 0c 7f 7a 3d
       -0.02110213 0.05853534 -0.0024892197 0.061156318
0000d0 fb 2e 11 bd 57 a3 a1 bc f5 f4 2d bd 0c b4 28 bd
       -0.035445195 -0.019731207 -0.042469937 -0.04118733
0000e0 9f b6 01 bc c3 73 01 bd 74 51 f8 bc 3f 68 87 bb
       -0.007917075 -0.03160454 -0.030312277 -0.0041323
0000f0 55 60 6c bd e4 37 a5 bc e4 76 fa bb ed 62 9b bc
       -0.057709057 -0.020168252 -0.0076435674 -0.01896807
000100 2c db 17 3d 04 21 7e bc 22 c4 f1 3c 84 ec d1 bc
       0.037074253 -0.015510801 0.029512469 -0.025625475
000110 ec 38 04 bd 31 ea bf 3d 68 df 01 bc 05 64 07 bd
       -0.032280847 0.0937084 -0.007926799 -0.03305437
000120 c0 19 89 bc bf ab b9 3c d2 3d 35 3d 0e 93 87 bd
       -0.016735911 0.022664903 0.04424841 -0.06619845
000130 d6 c0 5d 3c de bc db 3c 18 3c 65 bb 0a 2d 79 3b
       0.013534745 0.026823457 -0.0034978446 0.003802123
000140 51 b5 c1 3d c4 0f 46 bc 54 21 83 3d ac c6 82 ba
       0.094584115 -0.01208872 0.06402841 -0.0009977422
000150 43 7f 2c 3d 5f 25 1b 3c 92 47 83 3c 33 0c 02 bd
       0.042113554 0.009469359 0.016025338 -0.031749915
000160 25 21 6f 3d 29 5a 13 be 73 b7 98 3c 62 49 a7 bc
       0.05838122 -0.14389862 0.018642163 -0.020420734
000170 8d bc a9 3d 7a 23 1f 3c 16 12 db 3c b1 37 45 b9
       0.08287916 0.009713048 0.026742022 -0.0001880813
000180 c1 74 a1 3b a1 3b 8d 3d f2 2c bc b9 d7 a9 49 3d
       0.004927248 0.06896139 -0.0003589164 0.049234238
000190 9a b1 a0 3d d0 d5 58 bd 8d 66 b2 bc e2 05 a6 3d
       0.07846375 -0.052938282 -0.021777416 0.08106591
0001a0 e7 ee f6 bc cb ca 71 3d b2 e0 9a bd 76 45 a3 bc
       -0.030143214 0.05903129 -0.075623885 -0.019930582
0001b0 07 1f 1e 3d 63 ff 77 3d 3d 9f 61 3c d5 19 ae bb
       0.03860381 0.06054629 0.0137708755 -0.005313138
0001c0 f6 dd a5 3c cf 0e 46 3c 9e 86 f8 bc 1f f4 c0 bc
       0.02024744 0.012088492 -0.030337628 -0.023553906
0001d0 c9 95 05 bd b4 ac d2 3c e3 ca 35 3c 8d 85 5e bc
       -0.03261355 0.025717117 0.011095735 -0.013581646
0001e0 e3 f4 19 3d 1d eb 3e bc 64 da 7e 3c 48 95 30 bd
       0.037587058 -0.011652735 0.015554998 -0.043111116
0001f0 30 a0 db bc c7 19 2c bd 98 ba 09 bd f7 97 98 bd
       -0.026809782 -0.04201677 -0.033625215 -0.0745086
000200 53 47 7d 3d b6 92 08 bb 71 0b aa 3d bc 5a 3b 3c
       0.0618356 -0.00208394 0.083029635 0.011435207
000210 92 f2 82 bc 08 d1 3f 3a 48 af 43 bc 66 c7 d7 3c
       -0.015984807 0.000731722 -0.011943646 0.026340198
000220 69 ce 9a 3c 38 ab 4a 3c 41 62 13 3d 29 e5 a1 bc
       0.018897252 0.012369923 0.035982374 -0.019762592
000230 03 27 cf 3a 1d 99 ff bd 86 30 c4 bb fd 38 87 3d
       0.0015804473 -0.12480376 -0.0059872298 0.066026665
000240 24 69 d6 3c 94 77 a8 bc f7 ee 29 bd 72 a3 a0 bc
       0.026173182 -0.020564832 -0.04148766 -0.019609187
000250 fd 4b 4e bd 53 a6 25 3d 30 81 80 3d eb a9 45 bd
       -0.050365437 0.040441822 0.062746406 -0.04825775
000260 3f ac 1e 3d 56 03 0f 3d b9 c7 77 bd 26 3f 1c 3d
       0.038738485 0.03491529 -0.060493205 0.03814616
000270 9e 91 7e 3c 8c 07 53 3c d1 8a ad bc 2c 36 d5 3c
       0.0155376475 0.012880217 -0.021184357 0.026026808
000280 76 bd a0 bc f7 cd a7 3c 28 70 60 3a e7 5f 0e 3c
       -0.019621592 0.020483954 0.00085616345 0.008689857
000290 69 9d d8 3c 02 46 87 3a 6e 28 ad bb 95 d2 3e 3d
       0.026442247 0.0010320547 -0.0052843606 0.046587545
0002a0 21 4f ab 3b 98 f5 94 3d 9e af b2 bc 13 47 f2 bb
       0.0052279388 0.07273406 -0.021812256 -0.0073937266
0002b0 bc 4e 3d 3c 13 82 36 bd 36 d4 54 bd 33 c2 86 bc
       0.011554416 -0.044557642 -0.051960193 -0.016450023
0002c0 e2 c4 27 3d 76 23 2a 3c 6f b0 3b 3d 4d e7 29 3c
       0.040959246 0.010384431 0.045822557 0.010370088
0002d0 07 c3 b8 3b 01 89 93 bb 1b c5 37 3d 15 8a fc 3c
       0.0056384834 -0.004502416 0.04486571 0.030827561
0002e0 b3 c8 5d bd 9d 9b 6e 3b 72 58 57 3c 7d cc 03 3d
       -0.05414648 0.003640867 0.013143646 0.032177437
0002f0 60 27 be bc 3e b5 a2 bb 36 2e 07 3d 98 e1 28 3d
       -0.023212135 -0.0049654534 0.033003055 0.041230768
000300 0e 5d 10 bd c7 60 5a bc 9e da 83 3d 7c 88 6e 3d
       -0.035244994 -0.013328738 0.06438182 0.05823563
000310 f6 32 72 3c a7 df 25 3d 00 9b 50 bd 4d 0d e4 3c
       0.014782658 0.040496495 -0.05092907 0.027838374
000320 90 f4 32 3b 07 1a 51 3c fc 98 92 bc ff 05 bd bc
       0.0027306415 0.012762553 -0.017895214 -0.023074148
000330 4a 6c 60 3c 73 d2 28 3c af 93 80 bc 5c dd c6 3d
       0.013697693 0.010304081 -0.015695421 0.0971019
000340 9a 88 72 bc bb 62 ee bb 06 16 1e 3d 36 d7 0e bc
       -0.014803076 -0.007274953 0.038595222 -0.0087183025
000350 3b d8 51 bd 8c 10 a7 bc 1b 9c aa 3c 9d 0f 8f bc
       -0.051231604 -0.020393632 0.02082639 -0.0174635
000360 be 53 4a bd 95 c3 90 3c bf ba 0c 3c 9b f6 cd bc
       -0.04939627 0.017671386 0.008589446 -0.025142005
000370 a3 bf 52 bd 05 71 f3 3c 8d 90 52 3d 50 5e 84 3c
       -0.05145229 0.029716978 0.051407386 0.016158253
000380 d5 b9 b8 3c 55 b3 92 3b 34 2f a5 bd 16 2b 37 bc
       0.02254955 0.0044769445 -0.08065644 -0.011179706
000390 55 b2 9c bd 2d de 2f 3b 2b 67 11 bc 4a 9e 85 bb
       -0.07651202 0.0026835308 -0.008874695 -0.0040777074
0003a0 e9 fa 8f 3c 3a 41 1b bc 90 6d 61 bb 1c 96 39 bd
       0.017575698 -0.009476 -0.003439758 -0.04530917
0003b0 5a fe 32 bd 89 53 13 bd eb 8a 5d bd 79 50 a0 bb
       -0.0436996 -0.035968337 -0.05408756 -0.0048924056
0003c0 31 fd 10 3c 4b 23 c9 bc 62 3b 79 3a fc d9 c3 3d
       0.008849428 -0.024552962 0.0009507445 0.095630616
0003d0 8d ed ea 3b 6e 1d 70 bc 3b 2d 7b 3d 56 e2 e0 3c
       0.0071694315 -0.014655454 0.061322432 0.027451675
0003e0 4d 4b 2a ba 51 19 3a bd 2b 07 ce bc b1 65 6c 3d
       -0.0006496206 -0.0454343 -0.025149902 0.057714168
0003f0 8e 08 9b 3c 21 40 17 bc 19 f0 8d bc e8 4a 2b 3d
       0.018924978 -0.009231598 -0.017326402 0.041819483
