data/videos/.working/embeddings/B2pP02GEZL4.npy (npy, 30848 bytes, 1 tensors)

array f4 [10, 768]
00000000: 30e7 d03c 22bf c73c f506 41bd 5fc5 9c3d
00000010: b83d 55bd 7266 063c 335a 39bd f8fb 0abd
00000020: fd37 763c be10 1b3c 06fb c73b 8a05 70bc
00000030: 765f 1a3d 0aeb 24bd 0f43 86bd cd2f 183d
00000040: 9e47 b03c 0a4c 973d 586b 9bbc b91d 4ebd
00000050: 7dee e2bc d84a cc3c 6121 c33c c3a9 47bd
00000060: ab0c 2fbc 9c5b 883d 2893 17bb 393a 003c
00000070: a402 32bd 1156 0a39 b56d 493d 78d6 923c
00000080: 2853 8f3d acd6 e0bc 7b33 8b3d 54f2 45bc
00000090: 0757 debc 3b35 27bd e375 fbbb 670a 00bd
000000a0: 181d 44bc 1022 08bb fe74 afbd 23f1 8bbc
000000b0: 4f4c 23bd 7d76 11bc 0e93 24bd e018 21bc
000000c0: 0114 e53c b978 b83b a284 133d 9c45 c63c
000000d0: 0900 14bd 78ac 0b3c cb27 78bc d1a0 28bc
000000e0: 225e 3dbc 8327 65bb 2f01 70bd 9072 923d
000000f0: 963d 41bd 844c 2ebd 0e65 96bb 5593 c23c
00000100: f96d 163d ccf3 9fbc 7adb b93c 5f23 81bd
00000110: beba 293d 4974 d13d cdc8 6abd 5cf2 42bc
00000120: 2333 103d 78b2 2c3d 4ba5 823d 7ac8 7ebd
00000130: dabe 25bd ae30 123d cebc e6ba 5272 f4bc
00000140: 5e71 043c f6b0 223d 8e41 38bc 4fb1 e8bb
00000150: cade 283d 0c02 b03b 719f 9ebd 1bd0 303d
00000160: 0b94 7c3d 4d2b b7bd bc13 4f3d c943 0ebd
00000170: 82e2 62bb e9f6 483c 5d33 b8bc e50e 1f3d
00000180: 755a d2bb 262c 8c3d c0f3 d23c bb2d 463d
00000190: aed9 223d 0232 5bbd ae96 0f3d a64c 863d
000001a0: 5ece 1cbd 9706 cfbb 3ce6 43bd 755b 4cbd
000001b0: c6fd 6e3d a6c7 b039 a999 dabc a9e3 093c
000001c0: 40f9 30bd 68e4 063c 0edb db3b 9a52 5abc
000001d0: 4554 743c feb5 e7bb d637 083d d729 4a3d
000001e0: 8ad4 8abb c81d cebc a86b e63b d673 95bd
000001f0: f3f2 3a3d c860 f5bc b9dd 28ba db88 3f3c
00000200: 2ab5 1f3d 95e4 103c 2fd2 0c39 9df8 9abc
00000210: c041 b1bb f416 773c b6e7 03bc af2e 31bc
00000220: caba 29bd 5239 853c 502d 4d3c e93f 643b
00000230: c67b 90bb 7837 f7bd 9557 24bc 6422 a23c
00000240: ef71 59bc 17f2 003d 0a02 13bd b0a3 893b
00000250: 8c53 0fbd 7e4f ad3c 5d54 4abd c9db 0abd
00000260: e197 b0bb 91b2 14bd a051 cebc 0ce7 c6bc
00000270: 3fa2 f53b 9b4b 4c3d c53b b83b 12a1 943b
00000280: 3f6f 77bd 1c01 4b3c 0a6a 97bc 6d7a 873d
00000290: f6c7 8a3a 2f88 583c 2ef0 f5bc 5e6f 833c
000002a0: 3504 a63d 32a2 1ebd 1c26 923d c214 1abd
000002b0: 0bd5 1dbd 2a25 33bd c30e 593b 52b7 52bc
000002c0: 59e0 63bc 2f59 6c3c d8b5 f93c f541 713d
000002d0: 84fb 47bd e3e4 313d c3ea c7ba 066d e0ba
000002e0: 9fe8 aa3c f7dd 56bc 479c 81bc 9312 9d3c
000002f0: 15a1 e33b b8c7 16bc cf41 5c3d bec9 643d
00000300: 117a 16bc 7bb6 ce3c 1af2 d83c 585c e03c
00000310: 3ee9 a03c aee0 193b 2452 09bc b7f9 b53c
00000320: be12 603c 93b2 2fbc caaa 753c b9e9 45bd
00000330: 234a 813d 7092 dbbc 5fce 9cbb 64fd 3abc
00000340: 73ad 02bd 3407 8f3d b214 94bc c8bf 6a3c
00000350: 8a69 00bc 0b37 22bd b487 19bc abc1 18bd
00000360: 4f1a dfbc b024 393d e3dd 24bc 8720 d63b
00000370: b1b3 863d 285f 1c3d 0fde 7a3c ddb7 a43b
00000380: 1b82 683c e02f 85bc e525 1abd c02d 0cbd
00000390: 72d4 9fbc 0812 3dbd 056f 30bd 6d67 4f3d
000003a0: 3ace 833c b9e5 19bd 4f93 78bb ceb0 43bc
000003b0: 1b5d 9ebd 0a04 c0bc 975e 93bc 59f7 37bc
000003c0: dcd2 06bc 8b7a 363c aa4b 023d ad84 e83d
000003d0: a127 5a3c 9eb0 35bd d050 663d a3fe d0bc
000003e0: f1d6 a53b 2b52 9fbc 2d11 cb3c a07f 2a3c
000003f0: 584e c13c 2522 9e3b 094d 19bd d6b7 ec3a
0.025500864 0.024383131 -0.047125775 0.07654833 -0.052060813 0.008203136 -0.045252036 -0.033931702
0.015027997 0.009464441 0.0061029224 -0.014649758 0.037688695 -0.040263213 -0.06555759 0.03715496
0.021518525 0.0738755 -0.018972084 -0.050321314 -0.02770161 0.024938032 0.023819627 -0.04874588
-0.010684173 0.06658098 -0.0023128483 0.007826381 -0.04345955 0.00013192768 0.04917689 0.017924532
0.06998283 -0.027446114 0.067969285 -0.012081701 -0.027141107 -0.04082225 -0.0076739653 -0.03125992
-0.011969827 -0.0020772256 -0.08567236 -0.017082756 -0.039867695 -0.008878347 -0.040179305 -0.009832591
0.02796364 0.0056296256 0.03601516 0.024203114 -0.036132846 0.0085250065 -0.015146206 -0.010292248
-0.011558088 -0.0034966178 -0.05859488 0.07150757 -0.047177874 -0.04255344 -0.0045896834 0.023751894
0.03672597 -0.019525431 0.022687662 -0.063055746 0.041437857 0.10227258 -0.057320405 -0.011898603
0.035205018 0.04216239 0.063791834 -0.062202908 -0.040465213 0.035690956 -0.0017603876 -0.029839668
0.0080836695 0.039719544 -0.011246098 -0.007101215 0.041228093 0.0053713378 -0.07745255 0.043167215
0.061664622 -0.08943806 0.05055593 -0.034732614 -0.0034619872 0.012265899 -0.02248543 0.038832564
-0.0064194747 0.06844358 0.025750995 0.048383456 0.039758377 -0.053514488 0.03505581 0.06557588
-0.038282745 -0.0063179242 -0.04782699 -0.049891908 0.058347486 0.00033718086 -0.026684599 0.008416095
-0.043206453 0.008233167 0.006709463 -0.013325358 0.01491267 -0.0070712557 0.033256374 0.049356308
-0.0042367624 -0.025160685 0.0070318766 -0.072974846 0.04564185 -0.029953375 -0.00064417307 0.011690344
0.03899113 0.008843561 0.0001342974 -0.018917376 -0.0054094493 0.015081156 -0.00805085 -0.010814353
-0.0414379 0.016262684 0.01252301 0.0034828132 -0.004409286 -0.12071127 -0.010030647 0.01979179
-0.013271793 0.031480875 -0.035890616 0.0042004213 -0.034991786 0.021156069 -0.04939686 -0.03390101
-0.005389199 -0.036303107 -0.025185406 -0.024280094 0.007496148 0.04987679 0.0056223595 0.0045358026
-0.060408827 0.012390401 -0.01848318 0.06615148 0.0010588157 0.013216062 -0.030021753 0.016044315
0.08106271 -0.0387289 0.07136175 -0.037617452 -0.03853325 -0.043736614 0.003312037 -0.01286109
-0.013908469 0.01442556 0.030482218 0.058900792 -0.04882385 0.043431174 -0.001525246 -0.0017122335
0.020862876 -0.013114444 -0.01582159 0.019173896 0.0069466927 -0.00920289 0.053773697 0.05585646
-0.009184376 0.025233498 0.02648263 0.027387783 0.019642469 0.0023479867 -0.0083814 0.0222138
0.0136763435 -0.010723728 0.014994333 -0.0483186 0.063129686 -0.026803225 -0.0047853435 -0.011412952
-0.031903695 0.06983796 -0.018076275 0.014327951 -0.0078376625 -0.039603274 -0.009370733 -0.03729407
-0.027234225 0.045201004 -0.010062668 0.0065346393 0.06577242 0.038176686 0.015311732 0.005026801
0.014191176 -0.01625818 -0.037633795 -0.034223318 -0.019510482 -0.046159774 -0.043074626 0.050635744
0.016089547 -0.037572596 -0.00379296 -0.011944009 -0.07732602 -0.023439426 -0.01798944 -0.011228406
-0.008228984 0.011137615 0.03181044 0.11353431 0.013315112 -0.04435789 0.056229413 -0.025512045
0.0050610234 -0.01944836 0.024788463 0.010406405 0.023596928 0.0048258477 -0.037426982 0.0018060158
