data/videos/.working/embeddings/b3RaBB7IDZc.npy (npy, 3200 bytes, 1 tensors)

array f4 [1, 768]
00000000: 1127 dabb 347d 213c 0fba 813b f3eb fcbb
00000010: 09c0 90bd 2fcf 3fbd dd6e 70bb e845 80bc
00000020: 4e3c b6bc b1cf 88bb 5841 983c 68b5 b3bd
00000030: 46a1 4c3d 7eb9 0cbd 7aca 48bd b980 383c
00000040: 4a73 13bd 6cab 0a3d f966 77bd e797 4abc
00000050: 6e4e c83c dc7c cfba 5833 273d 92a5 7fbd
00000060: dc7e bf3c 9b9f 943b 7f36 4e3c 084b 333c
00000070: bcec 02bd e1ed 5bbd 6fbc da3c 5ae1 f5bc
00000080: 6f14 05bd 35a0 f23c 9ed5 ac3b 77a8 adbc
00000090: cea9 0cbd 6114 debb 5244 05bd e1b9 05bd
000000a0: f51d cebc dcb7 103d 21b3 63bd 7aa1 a2bc
000000b0: 089a 8f3c 96c4 c6bc c5a2 32bd 0d0f 4bbd
000000c0: 0d3e 1dbb e042 153d f841 a93b 7192 f7ba
000000d0: a341 06bd 89d6 563c 2577 f1bc dcfd d33c
000000e0: 43b8 7ebc f695 c2bb 5868 d8ba 5fa6 80bb
000000f0: 165c 94bc 5642 dc3b 2e86 94bc 777b 4f3c
00000100: 93b8 a3bc 7904 36bc 2d7b a4bb adde d1bc
00000110: 8428 0f3d 82ed c23d 0fb7 bf3c cee1 a33c
00000120: e66e 013d bf86 133c 1b44 af3d d03f 0dbd
00000130: 593f 51bd 1d17 333d daf2 70bb c7b8 b0bc
00000140: 796a 643c 682f 15bd 28cb dc3c eef3 233d
00000150: d43e 0b3d 4df0 053e eaff 16bc cc27 9a3b
00000160: 264e a43d 600f fdbc b525 bb3c f861 9cbd
00000170: 0217 56bd 536a 583c 444d 1ebd 9187 23bd
00000180: b7f1 cc3a 9790 ec3d b28b 1d3d 114f 593d
00000190: 5271 663d 4dc9 39bc 6774 273d d11a 103d
000001a0: e54f 353d d534 5f3d efb2 88bd 5b48 4dbd
000001b0: 8647 ec3b 9d73 fd3b e0a2 2a3c 22ca 36bc
000001c0: d15b cdbc 0c7a 923a 51da 8d3c 213d c53c
000001d0: 7ccc 1cbd 6ebe a33a 637c 0f3d 3b2e da3c
000001e0: 76fa 183d 53ea 28bc 844a 1dbd 797e 933c
000001f0: 99d4 19bd 226c 063d 8421 d7bc 1289 96bd
00000200: 9c29 dc3a 7c81 0cbd 58fd b93c 838d 1ebc
00000210: c9ff 6b3c 36fd 51bd cbbf 3c3d 046b f6bc
00000220: a32e 61bd feee d7bc 796c 9c3c 48b2 c33c
00000230: 0b59 a7bc 5eef 00be 464d d0bc fab9 19bc
00000240: 133b 933c 7bc4 6fbc 3ca9 abbd c5c3 6bbc
00000250: 1b68 87bc a9da 123d db16 d3bc 1480 d3bc
00000260: d231 8dbc 2d70 62bd 54ae 2bbd ce69 0e3d
00000270: a9a3 4bbc d2fa 27ba 57ba c2bc e563 a4bd
00000280: 3f85 543c 710d 63bd 1d1e 22bd 8ad2 6a3c
00000290: 01fa 753d 385a 133c 4a9d 0cbd a459 6d3c
000002a0: 5a59 9d3c dbd3 4abc abc4 303d ebf3 e43b
000002b0: 1356 6bbd ee8f 17bc fa80 43bd 3665 06bd
000002c0: bda8 efbc acdc 27bd 3444 953c 5c18 9e3c
000002d0: 72d2 823c b084 533c 9375 03bc 714f 443c
000002e0: 1813 32bd 63e5 61bc b8cb 453b ea5f 84bc
000002f0: 014a 3b3d 17c7 28bd e735 6b3d 7647 663d
00000300: 57d3 9abd 9624 4dbd 2576 fe3c afb1 1e3c
00000310: 530a 483d d311 98bb 5dd6 013d c100 553c
00000320: 9a5d 48bc f927 133c 9799 8cbd 50e7 4abd
00000330: 7b3f 433d 35b8 52bd 26af 113d e49c 1e3d
00000340: 3919 1ebd a364 a2bb 6d68 a6bd 09fc b8bc
00000350: 1b13 0dbd 5471 03bd e67e 81bc 6716 1ebd
00000360: dcde 2ebd c66d 11bd f610 643d 218c 84bc
00000370: 8777 a03d 3acc 83bb d25f c63b e418 c23c
00000380: 8426 f5bc 41c2 dbbb 4237 73bb c8b8 ecbc
00000390: 8ad9 283d 2771 26bd 0488 be3c 2600 693b
000003a0: 04ca 65bb 8bde a8bd 9acf 313d 82c3 bebb
000003b0: f29a 3ebd a9e3 423c a412 e03b 9bea 58bd
000003c0: 1452 30bd f230 e63c 409e 97bc 8122 d93d
000003d0: 2a79 d13c af65 c13c 077e 6c3b 4b67 72bd
000003e0: d47e 313c b216 d63b 50f2 d1bc 77ab 973d
000003f0: 4e59 64bc a5ea a8bc f14c b4bd e274 a5bb
-0.006657489 0.009856511 0.0039589475 -0.007718557 -0.07067878 -0.046828445 -0.0036687173 -0.015658334
-0.022245552 -0.0041751494 0.018585846 -0.08774835 0.04995849 -0.034356587 -0.04902122 0.011261159
-0.03599862 0.033854887 -0.060400937 -0.012365318 0.02445146 -0.0015830058 0.04082045 -0.06241376
0.023375921 0.004535628 0.012586235 0.010943182 -0.03196405 -0.053693656 0.02670118 -0.030014683
-0.03249019 0.029617408 0.0052744886 -0.021198494 -0.034341626 -0.0067773317 -0.03253586 -0.03264797
-0.025160769 0.035331592 -0.055590753 -0.019852389 0.017529503 -0.024263661 -0.04361226 -0.0495749
-0.0023993284 0.03644073 0.005165335 -0.0018888247 -0.03277744 0.013112673 -0.029475758 0.025877886
-0.015546861 -0.005938287 -0.0016510589 -0.003926083 -0.018110316 0.006721775 -0.018130388 0.012663714
-0.019985473 -0.011109465 -0.0050195665 -0.025618875 0.034950748 0.09517957 0.023402719 0.020005133
0.0315999 0.009004294 0.08557912 -0.034484684 -0.051085804 0.043723214 -0.0036765845 -0.021572484
0.013941401 -0.036422163 0.026952341 0.04002755 0.033995464 0.13079949 -0.009216288 0.004704451
0.08022718 -0.03089112 0.022845129 -0.076358736 -0.052268036 0.013208943 -0.038647905 -0.039924208
0.0015636001 0.11551016 0.038463302 0.05305392 0.056260414 -0.011339498 0.040882494 0.035181824
0.044265646 0.054493744 -0.06674754 -0.05011783 0.0072106747 0.0077347294 0.010414809 -0.011156591
-0.025068196 0.0011175289 0.017316015 0.024077 -0.03828095 0.0012492666 0.035030734 0.026633373
0.037348233 -0.0103097735 -0.03840114 0.018004643 -0.037556265 0.032817967 -0.026261099 -0.07350363
0.0016797069 -0.034303173 0.022703812 -0.009677294 0.014404246 -0.05126687 0.046081346 -0.030080326
-0.054976117 -0.026359078 0.019094693 0.023888722 -0.020428201 -0.12591311 -0.025427472 -0.009382719
0.017972505 -0.014634247 -0.08381888 -0.014389937 -0.016529134 0.03585306 -0.025767734 -0.025817908
-0.01723567 -0.05528276 -0.0419143 0.034768872 -0.012429156 -0.00064079196 -0.023770494 -0.08026866
0.0129712215 -0.05543274 -0.0395795 0.014332423 0.060052875 0.008993678 -0.03432969 0.014486704
0.019207645 -0.012379612 0.043156307 0.006987085 -0.057455134 -0.009250624 -0.047730424 -0.032811366
-0.029255265 -0.040981933 0.018220998 0.019298725 0.015969489 0.012910053 -0.008023637 0.011981831
-0.04347524 -0.0137876 0.003018124 -0.016159017 0.045724872 -0.041205492 0.057424452 0.056220494
-0.07559841 -0.05008372 0.031062195 0.009685918 0.04883797 -0.0046407967 0.031698573 0.013000668
-0.012229348 0.008981698 -0.068652324 -0.049537003 0.04766796 -0.051445205 0.035567425 0.03872384
-0.038598273 -0.0049558445 -0.081253864 -0.022581117 -0.03444205 -0.0320905 -0.01580758 -0.038595583
-0.042693004 -0.03550508 0.055680238 -0.0161801 0.07835298 -0.0040221484 0.006053903 0.02369351
-0.029925592 -0.0067065065 -0.0037111794 -0.028896704 0.041223086 -0.040635254 0.023258217 0.0035553067
-0.0035063038 -0.08245572 0.043410875 -0.005821646 -0.046534486 0.011895099 0.0068381596 -0.052958112
-0.043047026 0.02809951 -0.018508077 0.10602284 0.02557047 0.023608057 0.003608586 -0.05918054
0.010833461 0.006533467 -0.025628239 0.07405751 -0.0139373075 -0.0206197 -0.08803738 -0.005049334
