data/videos/.working/embeddings/B5441_DREY0.npy (npy, 46208 bytes, 1 tensors)

array f4 [15, 768]
00000000: f0e5 82b9 1330 75bc 5a63 2a3d 5c08 0a3d
00000010: 6110 5cbd 2d60 7a3c f2e1 aebc 9ddc 533c
00000020: b9a7 c53c 5f98 24bc 4239 85bc 6cbf 9cbb
00000030: 0ba5 2f3c a0b2 113c fa0f 2fbc 6577 d33d
00000040: 055e 523c f86a d13c 2e66 94bd 3191 543d
00000050: 7443 e1bb e4c8 0e3d 288e 123c 3946 bbbc
00000060: 815d 29bc a8ec 983b fa3c 15bd 4585 013d
00000070: a11e 23bd 8f4e a33d 9013 cd3c 223a 57bb
00000080: 2714 8bbc e2e5 b4bc 0cbe 06bc 7202 523c
00000090: 7e40 cabc 6f7d 0cbd 8eb4 dabc 9d14 03bd
000000a0: 963d bfbc 063e f63c f122 8cbd cf57 0c3d
000000b0: f449 963c cd14 dc3c c594 19bd 008f 25bd
000000c0: e9f1 6ebc 6318 cebc dd26 463d 19fd fc3c
000000d0: f42c cfbd 66a7 9bba 6b3c 96bc 8811 83bc
000000e0: f0de 79bd 9da7 88bb bed6 46bd f840 dc3b
000000f0: 5026 b4bc 7265 c4bb 468d 23bc 5ed5 5fbd
00000100: 820c 153d 79ae bdbc 561b 193c 8197 013d
00000110: ea99 f93b 71fe ba3d fd1a bfbb a6ba ecbb
00000120: 6d4a 24bc b730 35bc a494 4a3d 6817 6fbd
00000130: 5a99 ef3c 3376 ceb9 dd91 6f3c 55df 183c
00000140: 1224 293d 1a9d 5bbc f7ad 223d 6e99 9fbc
00000150: 751d 87bb e778 9e3d 97b3 b4bc 3ce2 6dbd
00000160: e6f1 693c 9462 e6bd bbda 523d 929f fabc
00000170: 0460 903c 4403 97bc 89ce 8e3d 5214 89bc
00000180: f79a 1abd 1001 7a3d 3cc8 65bb a8a9 9ebb
00000190: 55ee 813d 32c2 61bc 7680 133d 8c73 c03d
000001a0: 9faf 6abd f641 b13c 053d 84bd 9987 a23c
000001b0: 484f a73a 1701 783d 5ccb 9a3b 9e68 293d
000001c0: 3a99 13bd 5fdc ca3c 9f47 b8bc 6151 cb3c
000001d0: 1492 41bc 857f 8a3c f81f 6e3c 21dc cabc
000001e0: 1705 dd3c aa77 b1bc 87d2 aebb 0e64 97bc
000001f0: 4a4d b0bb 713c 80bc f29c e3bc 9cbb 96bd
00000200: 4a57 333d 59cf 79bc 5d45 3e3d 33f3 9bbc
00000210: 393e ccbc a515 41bd f19e 81bc 6262 de3b
00000220: f5d5 41bc 076a 963c c45d aa3b 23e7 243d
00000230: 9aed 92bc 9e9e 1abe 3f80 d2bc 860b 583d
00000240: 8069 a93d 5581 fdb9 a9d9 a9bd 8ff7 e33c
00000250: a4c9 3ebd 0003 c23c 3467 c33c ba81 fdbc
00000260: ea5d 7ab9 3b2a 72bc 6f64 453c 6854 0c3d
00000270: 1a7b 86bc 3ffd d83b 5f92 dcbc ba0c 0ebd
00000280: 8030 abba 81d6 52bc 8e90 27bd c942 5a3c
00000290: 812e f03c 9659 1b3d 5610 a5bb 70cf e23c
000002a0: bcba 4dbc 737d 393d e00e e4bc 97ef f53a
000002b0: 7560 8b3c 30cf be3c ba2b 1bbd a12c 23bd
000002c0: 62b2 19bb 1995 3e3c 9b37 853c b65a 053d
000002d0: 0b41 813c 5698 153d 2c34 50ba fd5f a63c
000002e0: 66c8 13bb d3b5 213c 1906 5abc 1b28 8f3c
000002f0: 94de 773d f798 b13c 10b5 2d3d 762d 06bc
00000300: cc5b 67bd 5fe9 60bc efd9 0f3d 08dc 683d
00000310: eaa8 ed3c ff2a c63c 01be 3fbd c360 be3c
00000320: 071a 1cbc 1650 033d 006d fbbd 10d0 63bd
00000330: 9bd2 6d3d 90ad 95bc dc75 b8bc 4176 4a3d
00000340: 4838 3c3c 2485 c93c efcc 61bd 6d99 1b3d
00000350: 2b7c f03c 864c 5fb9 d6a6 c03d adac 21bc
00000360: 6f61 c1bc f083 09bd c5f9 023d 99f6 4a3c
00000370: 2d21 233c 1286 8f3c 9332 5bba 15a3 51bd
00000380: c414 06bc 419d 64bc d660 8bbd cff8 ff3c
00000390: 7255 8bbc 3603 32bd 877d fc3c 096e 0fbb
000003a0: 9b60 dfbc f44e 1fbd 486e b33c d8d2 56bd
000003b0: 2ff9 c8bb 7c17 06bd c25d a6bc f9bb 27bd
000003c0: 99c0 693b 9b2c c7bc 0378 10bc 6431 d33d
000003d0: f2c0 3e3d df50 b53b 51f1 7c3d 6956 833d
000003e0: 9996 983b 42cb 85bd 1df6 0bbd 0404 633d
000003f0: 3fa5 8b3c a5b6 d7bc 3855 483c 3898 303c
-0.0002496685 -0.014965075 0.041598655 0.03369938 -0.053726558 0.015281719 -0.021347973 0.012931016
0.024127828 -0.010046094 -0.016262654 -0.0047835615 0.010720502 0.008892685 -0.010684961 0.10325507
0.012839799 0.025563702 -0.07246052 0.051896278 -0.006874496 0.034859553 0.0089450255 -0.022860633
-0.0103372345 0.0046668835 -0.036435105 0.031621236 -0.039824132 0.07973968 0.025033742 -0.0032841046
-0.016977383 -0.022082273 -0.008224022 0.012817966 -0.024688955 -0.03429931 -0.026697423 -0.03200208
-0.023344796 0.030058872 -0.06842602 0.03426343 0.01834581 0.026865387 -0.037495393 -0.04041958
-0.014584043 -0.025158113 0.048376907 0.030882405 -0.10115996 -0.001187545 -0.018339356 -0.01599957
-0.061003625 -0.0041703717 -0.048544638 0.006721612 -0.021990925 -0.0059935385 -0.009982413 -0.054646842
0.03638888 -0.023154484 0.009344896 0.031638626 0.007617225 0.09130562 -0.0058320747 -0.0072243987
-0.01002751 -0.011058978 0.04945816 -0.05837193 0.029247928 -0.00039379447 0.014622179 0.00933059
0.041294165 -0.013404155 0.039716687 -0.01948234 -0.0041233846 0.07737904 -0.022058291 -0.058077082
0.0142788645 -0.11249271 0.05147813 -0.030593667 0.017623909 -0.018434174 0.06972987 -0.016733322
-0.037745442 0.06103617 -0.0035061976 -0.004842002 0.06344286 -0.01377921 0.03601118 0.09397039
-0.05729639 0.021637898 -0.06456951 0.019840049 0.0012764717 0.060547914 0.0047239494 0.041359536
-0.0360348 0.024763284 -0.02249509 0.024819078 -0.011814613 0.01690651 0.014533989 -0.024763169
0.026979966 -0.021663506 -0.0053351554 -0.018480327 -0.0053803073 -0.01565382 -0.027784798 -0.073600024
0.043784417 -0.015247189 0.04645287 -0.019036865 -0.024932014 -0.047139782 -0.01582286 0.0067866305
-0.0118307965 0.018361105 0.005199166 0.04025949 -0.017935563 -0.1509957 -0.025695918 0.052745365
0.08272076 -0.0004835228 -0.082934685 0.027828006 -0.04657902 0.023683071 0.023852922 -0.030945648
-0.00023876844 -0.014780576 0.012047871 0.034260184 -0.016416121 0.006621986 -0.026925264 -0.034680106
-0.0013060719 -0.0128685245 -0.040909342 0.013321587 0.02931905 0.037927233 -0.005037348 0.027686805
-0.012556728 0.045285653 -0.027839124 0.001876342 0.017013768 0.023292154 -0.037883498 -0.039837483
-0.0023452272 0.011632227 0.016261866 0.03255721 0.015778085 0.036522232 -0.00079423445 0.020309443
-0.0022549867 0.00987001 -0.013307118 0.017475178 0.060515 0.021679385 0.042409003 -0.00818955
-0.05648403 -0.013727515 0.035119947 0.056850463 0.029011209 0.024190424 -0.04681206 0.023239499
-0.00952769 0.032058798 -0.122766495 -0.055618346 0.058062177 -0.018271238 -0.022517137 0.049429182
0.011488028 0.02459962 -0.05512708 0.037988115 0.029356083 -0.00021295444 0.094068214 -0.009867829
-0.02360603 -0.03357309 0.03197648 0.012387895 0.00995664 0.017519984 -0.0008361723 -0.051180918
-0.008183662 -0.013953508 -0.06805579 0.03124657 -0.017008517 -0.043460093 0.030821575 -0.0021885654
-0.027267745 -0.038893655 0.021903172 -0.05244717 -0.0061332206 -0.03273724 -0.02030838 -0.04095075
0.0035667776 -0.024313262 -0.0088176755 0.10312155 0.046570726 0.005533322 0.061753575 0.06412966
0.0046566245 -0.06532909 -0.03417026 0.05542375 0.017046569 -0.026332209 0.012227349 0.010778479
