data/videos/.working/embeddings/B736-QoSLh8.npy (npy, 70784 bytes, 1 tensors)

array f4 [23, 768]
0	0xbcd15f08	-0.02555801
1	0x3d4a8643	0.04944445
2	0xbca79300	-0.020455837
3	0xbd33c395	-0.043887693
4	0x3d306683	0.043066513
5	0xbca2ee18	-0.019888923
6	0xbd869177	-0.06570714
7	0xbd2d3a75	-0.042292077
8	0x3d88c6c5	0.06678537
9	0xbd102b99	-0.035197828
10	0x3d8d32ec	0.06894478
11	0xbc6c53ac	-0.014424246
12	0x3c1775ac	0.009244364
13	0xbcd5c83c	-0.026096456
14	0xbd84a9a3	-0.06477668
15	0x3d826c26	0.06368284
16	0xbd475b9b	-0.048671346
17	0x3ce026b1	0.0273622
18	0xbb833b2c	-0.0040048566
19	0xbb79e63b	-0.0038131613
20	0xbc84a435	-0.016191581
21	0xbd23fa92	-0.040033884
22	0xbc83ae3a	-0.016074289
23	0xbdb716ee	-0.0893992
24	0xbd4431a2	-0.047898896
25	0xbc26617e	-0.01015508
26	0x3d188933	0.03724022
27	0xbbb12549	-0.005406056
28	0xbd000fda	-0.031265117
29	0x3abd3657	0.001443575
30	0x3c4ec32c	0.012619775
31	0xbc4293e1	-0.011876077
32	0x3d5aa59e	0.0533806
33	0xbd42db6d	-0.047572542
34	0xbae1aad2	-0.0017217046
35	0xbd6a73c1	-0.057239298
36	0xbd91c813	-0.07118239
37	0xbbd580c1	-0.006515593
38	0xbd0e6948	-0.034768373
39	0x3d26241b	0.040561777
40	0x3c2b0fcd	0.010440779
41	0xbc638784	-0.01388729
42	0x3c9516a6	0.018199276
43	0x3d266700	0.040625572
44	0xbcd7ef21	-0.026359143
45	0x3be5c813	0.007012376
46	0xbd3decc5	-0.04636838
47	0x3c0170b9	0.00790041
48	0xbd784a3b	-0.060617667
49	0x3dadf2fc	0.08493611
50	0xbb9e8c32	-0.00483849
51	0x3c1fb563	0.009747836
52	0xbcb3cad2	-0.021947298
53	0xbcd7f507	-0.026361955
54	0x3ba10e2c	0.0049150195
55	0xbccaa726	-0.024737906
56	0x3d968df4	0.07351294
57	0x3d60e322	0.05490411
58	0xbb62bd59	-0.0034597723
59	0x3d4c4568	0.04987088
60	0xbd4051a8	-0.046952873
61	0x3c6b6010	0.014366165
62	0x3b707bc8	0.0036694873
63	0x3c0a0b87	0.0084256
64	0xbc814bba	-0.01578318
65	0x3db1f385	0.08689026
66	0xba70d983	-0.0009187685
67	0x3bd524bb	0.0065046228
68	0x3d34b245	0.044115324
69	0x3dc50eaa	0.096219376
70	0x3d885293	0.06656375
71	0xbd13972f	-0.03603285
72	0xbcaabbe1	-0.02084154
73	0x3c9cd96b	0.019146642
74	0x3db4670a	0.08808716
75	0xbd95750e	-0.07297717
76	0xbce744da	-0.028231073
77	0x3d00a471	0.031406824
78	0x3bca09e1	0.0061657284
79	0xbc7e899c	-0.015535738
80	0x3ca2416a	0.019806582
81	0x3a3c11ee	0.00071743026
82	0xbdcf9b96	-0.101370975
83	0xbc284ec2	-0.010272684
84	0x3c0a0d02	0.008425953
85	0x3c8b8019	0.017028855
86	0xbba524b9	-0.005039778
87	0xbc91392b	-0.017727455
88	0x3bbebba7	0.0058207097
89	0xbdb86693	-0.090039395
90	0x3d1573be	0.036487333
91	0x3d6df8c8	0.058098584
92	0x3c89b388	0.01680924
93	0x3d44aeeb	0.048018377
94	0xbd37016c	-0.04467909
95	0xbcbf91eb	-0.023385009
96	0x3db4c8f4	0.08827391
97	0x3d09ffe9	0.03369132
98	0xbcadd69e	-0.021220502
99	0x3d80e0fb	0.062929116
100	0xbdb1fa49	-0.08690316
101	0x3c674b04	0.014117006
102	0x3d86c236	0.065800115
103	0x3dd51d73	0.104060076
104	0x3bb07d43	0.005386026
105	0xbc356309	-0.011070975
106	0x3d352cac	0.044232056
107	0xbc9d7249	-0.019219534
108	0xbc833a4e	-0.016019013
109	0xbc87f190	-0.016594678
110	0x3cb920a6	0.022598576
111	0xbb2d8914	-0.002647941
112	0xbd63cb5f	-0.05561387
113	0xbc58cc40	-0.013232291
114	0x39d446be	0.00040488498
115	0x3c4a30fd	0.012340781
116	0xbc962b5c	-0.018331222
117	0x3d66db80	0.056361675
118	0xbd628a66	-0.05530777
119	0x3cc21f14	0.02369646
120	0x3c2424d2	0.010018544
121	0xbc258081	-0.0101014385
122	0xbd2b338f	-0.041797217
123	0xbd9a1213	-0.07522979
124	0xbc69f695	-0.014279981
125	0x3d723729	0.059134636
126	0xbb827d16	-0.0039821966
127	0xbd5dab53	-0.054118466
128	0x3b90e81a	0.0044222
129	0xbd0b3a8d	-0.033991385
130	0x3ccd4f74	0.0250623
131	0xbc1d39d4	-0.009596307
132	0x3d6896a4	0.056784287
133	0x3cf98555	0.030459085
134	0x3d0a5611	0.033773486
135	0xbb6597ed	-0.0035033182
136	0xbda182b8	-0.07886261
137	0x3bb9d2ad	0.0056708665
138	0x3bf984ce	0.0076147085
139	0xbd18bf12	-0.037291594
140	0xbba40fb7	-0.005006756
141	0xbd99595f	-0.07487749
142	0x3d0e2e98	0.034712404
143	0x3ce87847	0.028377665
144	0x3cb97866	0.022640418
145	0xbd361aea	-0.04445926
146	0xbca0ce4b	-0.019629618
147	0x3d2a517f	0.041581627
148	0xbd2341fb	-0.039857846
149	0x3b9554ca	0.004557227
150	0xbd32a2a2	-0.04361213
151	0xbd0edb2a	-0.03487698
152	0x3d2b6af4	0.041850045
153	0x3b710047	0.0036773847
154	0x3d8b3800	0.067977905
155	0xba9cce3c	-0.0011963318
156	0xbcd2e239	-0.025742637
157	0x3dc47702	0.095930114
158	0x3c95d17a	0.018288363
159	0xbc57a408	-0.013161667
160	0x3c3be3e2	0.011467906
161	0x3ccb77d3	0.02483741
162	0xbcc0983f	-0.023510097
163	0x3cc1f5f2	0.023676846
164	0xbb4f42df	-0.0031625552
165	0xbc1e78ec	-0.009672385
166	0xbca45157	-0.020058317
167	0xbcf7a73d	-0.030231113
168	0xbc9ce613	-0.019152677
169	0xbc80c528	-0.015719011
170	0xbd2171e5	-0.03941526
171	0x3d0d4c61	0.03449667
172	0x3d28983b	0.041160803
173	0xbc3f7a0e	-0.011686815
174	0xbcd6749f	-0.026178656
175	0xbca1c6ca	-0.01974811
176	0xbd1e4baa	-0.038646378
177	0xbc1cb8d9	-0.0095655555
178	0x3d2e113f	0.042496916
179	0xbcbb7e75	-0.022887448
180	0x3d1c00d1	0.038086716
181	0x3c1a9dd6	0.009437045
182	0xbce53c6e	-0.027982917
183	0xbc8a2124	-0.016861506
184	0x3cf24867	0.02957554
185	0x3be1fff0	0.006896965
186	0x3d0034d1	0.03130037
187	0x3c278ee0	0.010226935
188	0x3b8491e0	0.00404571
189	0x3d02afab	0.03190581
190	0xbac39a35	-0.0014923277
191	0x39d620b3	0.00040841624
192	0xbc321cca	-0.010871122
193	0xbd63a00c	-0.055572554
194	0x3d832cc5	0.064050235
195	0x3ca91ed4	0.020644583
196	0x3c4dd1fc	0.012562271
197	0x3c2c4398	0.0105141625
198	0xbcf321be	-0.029679175
199	0x3b42ad4a	0.002970534
200	0xbca69b92	-0.020337854
201	0xbc53c3b7	-0.01292508
202	0xbb2bc581	-0.002621025
203	0xbcf6ccca	-0.030126948
204	0xbab1d529	-0.0013567555
205	0x3bec14f6	0.007204647
206	0xbc7e9dce	-0.015540553
207	0x3d86a263	0.065739416
208	0x3bdf30bd	0.00681123
209	0xbcc6a2a2	-0.024247471
210	0xba106d37	-0.00055094383
211	0x3ca4dc5b	0.020124605
212	0xbc786be2	-0.01516244
213	0xbc2a2c03	-0.01038647
214	0x3d8a344d	0.06748257
215	0x3c533f30	0.012893483
216	0xbd37fdee	-0.0449199
217	0x3d205fc6	0.039153837
218	0x3ca84770	0.020541877
219	0x3cbe51dc	0.023232393
220	0x3d36c075	0.044617135
221	0x3d788028	0.060669094
222	0xbd867c64	-0.065666944
223	0xbd89ba14	-0.06724945
224	0xbd4cbd01	-0.049984936
225	0xbd30433f	-0.04303288
226	0xbd3cf9f8	-0.046136826
227	0x3cbeb8ac	0.023281418
228	0xbd3fc95c	-0.04682289
229	0x3c40d774	0.011770118
230	0xbd1582f8	-0.036501855
231	0x3c9887b2	0.018619392
232	0x3bf50fd9	0.007478696
233	0xbc29f22b	-0.010372679
234	0x3c8f64c3	0.017504102
235	0x3c5315c6	0.012883609
236	0xbb5fac32	-0.0034129736
237	0x3c86bd4b	0.016447684
238	0xbca81405	-0.020517359
239	0xbd8b41fe	-0.067996964
240	0xbc849f51	-0.01618925
241	0x3c0e505e	0.008686153
242	0x3c39906d	0.011325938
243	0x3d53a826	0.05167403
244	0x3d238c77	0.03992888
245	0xbc926336	-0.017869573
246	0xbba84477	-0.005135115
247	0x3d81b33e	0.06333016
248	0xbd13b749	-0.036063466
249	0xbbe26709	-0.0069092554
250	0xbb902de6	-0.004400003
251	0x3d3ea645	0.046545286
252	0x3c46a7f4	0.012125004
253	0x3ca7a373	0.02046368
254	0xbbd2fc27	-0.0064387503
255	0x3ba07996	0.0048973067
