data/videos/.working/embeddings/B9n9fZWXNBk.npy (npy, 196736 bytes, 1 tensors)

array f4 [64, 768]
0	0xbd19c7ec	-0.037544176
1	0xbc3c378c	-0.011487853
2	0x3c9ace23	0.018897122
3	0x3d3ccfba	0.04609654
4	0xbc13a4a3	-0.00901142
5	0x3ca6353f	0.020289062
6	0xbd18a084	-0.037262455
7	0xbc955e69	-0.018233495
8	0xbc48c9aa	-0.012255112
9	0xbc0b327c	-0.008495923
10	0x3b8363e2	0.0040097097
11	0xbd0670e2	-0.032822497
12	0x3d797ffd	0.060913075
13	0xbca4da18	-0.020123526
14	0xbc9f8502	-0.019472603
15	0x3b915bc0	0.0044359863
16	0xbb2d5091	-0.0026445726
17	0x3ddb282c	0.107010216
18	0xbc8cc083	-0.01718164
19	0x391582b4	0.00014258438
20	0x3cf2a224	0.02961833
21	0x3d3eee44	0.046613947
22	0x38a9b2f9	8.091884e-05
23	0xbc51120c	-0.01276065
24	0xbc96fe21	-0.018431725
25	0x3cc11a1d	0.023572022
26	0x3d174d72	0.036939092
27	0xbbb36bdf	-0.0054755057
28	0xbd099387	-0.03358796
29	0xbd6f9b05	-0.058497448
30	0x3cf4e3b8	0.029893741
31	0x3a7b9a07	0.0009597842
32	0xbc266803	-0.010156634
33	0xbcacf15b	-0.021111181
34	0x3cb01906	0.021496307
35	0x3d56e65a	0.052465774
36	0xbc36c0c7	-0.01115436
37	0x3aed8953	0.0018122591
38	0x3addff2f	0.0016937013
39	0xbd8af8ab	-0.06785711
40	0xbce7b92d	-0.02828654
41	0x3c8ce601	0.017199518
42	0x3b4f9111	0.003167216
43	0xbd01e9e7	-0.031717207
44	0xbb369c1d	-0.0027864047
45	0x3d39644f	0.045261677
46	0x3bd1d6d0	0.0064037815
47	0xbd19580b	-0.03743748
48	0x3ce4aaef	0.027913539
49	0x3b792eee	0.0038022357
50	0x3c7432e9	0.014904716
51	0x3ce7ff0f	0.028319864
52	0xbce0f55a	-0.027460743
53	0x3c88d7e5	0.016704509
54	0xbb66dae6	-0.0035225688
55	0x3c1afb1a	0.009459281
56	0x3d298d1d	0.04139434
57	0xbd16a19d	-0.03677522
58	0xbc5245ee	-0.012834055
59	0xbd2aa134	-0.04165764
60	0xbc3bb1f3	-0.011456001
61	0x3cfdda16	0.03098778
62	0x3c17e99d	0.009272006
63	0x3c6ae68e	0.014337195
64	0x3ccd1022	0.025032107
65	0x3d7210e7	0.05909815
66	0xbc2a137c	-0.010380622
67	0xbdbc989c	-0.092087954
68	0x3daf5304	0.08560756
69	0x3d80bf79	0.062865205
70	0xbd05ce4b	-0.03266744
71	0xbcee7a3f	-0.029111026
72	0xbd96fe70	-0.07372749
73	0xbd109c76	-0.035305463
74	0x3da49e2e	0.08037983
75	0x3cb12deb	0.02162834
76	0xbdabf0ff	-0.08395576
77	0xba78ed35	-0.0009495796
78	0xbc8c15e7	-0.017100288
79	0xba421e57	-0.00074050337
80	0xbc56bc4d	-0.013106418
81	0xbcf77648	-0.030207768
82	0xbcc58e6d	-0.024115765
83	0xbd098032	-0.033569522
84	0x3d3c9e52	0.046049424
85	0xbc564f5a	-0.013080442
86	0x3dcc0e57	0.099636726
87	0x3c527396	0.012844941
88	0x3d9c8f2d	0.07644496
89	0xbdbf8783	-0.09352019
90	0x3ddf8d69	0.10915644
91	0xbc61ac06	-0.013773924
92	0x3d376178	0.044770688
93	0x3dad8345	0.08472303
94	0xbd3c125d	-0.04591595
95	0xbced6f44	-0.02898372
96	0xbd618aa4	-0.05506386
97	0x3d4e5b2b	0.050379913
98	0x3d4d112b	0.0500652
99	0x3d243304	0.040087715
100	0x3df4dbd0	0.119559884
101	0x3cd2d1a7	0.025734736
102	0x3d434de0	0.04768169
103	0x3d8c231e	0.068426356
104	0x3c88f104	0.016716488
105	0x3d88e546	0.066843554
106	0xbd51bdc1	-0.051206354
107	0x3d53fec3	0.05175663
108	0xbcadc4d6	-0.021212023
109	0x3d55e9dd	0.052224983
110	0xbc361c05	-0.011115079
111	0x3c136c35	0.008997967
112	0xbd60cfb3	-0.054885577
113	0xbba57589	-0.0050494117
114	0xbd2afe73	-0.041746568
115	0xbd037c78	-0.032101125
116	0xbc18b3ba	-0.009320194
117	0x3caa2521	0.020769658
118	0xbb558459	-0.0032580106
119	0x3bb5cddd	0.0055482225
120	0xbc7551ae	-0.014973087
121	0xbd1bd98a	-0.03804926
122	0xbc88e500	-0.016710758
123	0xbd8008fc	-0.06251714
124	0x3baf3ad3	0.0053475886
125	0xbc2b38af	-0.010450526
126	0xbafddd1d	-0.0019368265
127	0xbdb95e6b	-0.09051212
128	0x3ce8bf34	0.028411485
129	0xbc4e12a8	-0.01257769
130	0x3c9840bc	0.018585555
131	0xbc97babe	-0.018521663
132	0xbd23edf6	-0.04002186
133	0xbb03344a	-0.002002018
134	0x3d662d51	0.05619556
135	0x3b9b206b	0.004734089
136	0xbcd20c1a	-0.025640536
137	0xbbec973b	-0.0072201765
138	0xbcd74be4	-0.026281305
139	0xbd78a9fe	-0.060708992
140	0xbd98da68	-0.07463533
141	0xbdf3b86b	-0.11900409
142	0x3c3066f9	0.010766738
143	0x3d45e0ac	0.048309967
144	0x3dbcd805	0.0922089
145	0x3c1f7494	0.009732384
146	0xbdec6669	-0.11542971
147	0xbca9b4f2	-0.020716164
148	0xbcb3b53d	-0.021937007
149	0xbc82f26e	-0.01598474
150	0x3bd28660	0.00642471
151	0x3c7338b5	0.014845063
152	0x3bded98b	0.0068008355
153	0xbc9a540e	-0.018838909
154	0x3c59b158	0.013286911
155	0x3c9da968	0.019245818
156	0xbcb08c30	-0.021551222
157	0xbd2feea8	-0.04295221
158	0x3cb23915	0.021755734
159	0xbd3b425c	-0.045717582
160	0x3c918a68	0.017766193
161	0xbceb132b	-0.028695663
162	0xbb9f18ce	-0.004855252
163	0x3cff887b	0.031193009
164	0xbca56a20	-0.020192206
165	0x3d8472bd	0.06467197
166	0x3b1277bb	0.0022349197
167	0x3d665c60	0.05624044
168	0xbd30926d	-0.043108393
169	0x3c8fa8af	0.01753649
170	0xbb3c3ecc	-0.0028723953
171	0x3d88ab55	0.06673304
172	0xbcd17b2f	-0.025571434
173	0xbd93b4b8	-0.07212204
174	0xbd6c2102	-0.057648666
175	0xbbce201a	-0.006290448
176	0xbd438d60	-0.047742248
177	0xbc9d7da0	-0.019224942
178	0x3cdd875b	0.027042082
179	0x3d53f026	0.051742695
180	0xbc8d5242	-0.017251138
181	0xb94f0cee	-0.00019745875
182	0x3b12fd9e	0.0022429
183	0x3d08ff79	0.033446763
184	0xbd96bed7	-0.073606186
185	0xbbfe615c	-0.007763071
186	0x3b2051fe	0.0024462934
187	0x3d0cc568	0.03436795
188	0x3d5eb212	0.05436904
189	0xbca1488c	-0.019687913
190	0x3c0dc98d	0.0086540105
191	0x3d843848	0.06456047
192	0x3d05a574	0.03262849
193	0xbcfca280	-0.030839205
194	0x3d7bae4f	0.06144553
195	0x3d529c20	0.051418424
196	0x3c7dea6f	0.015497788
197	0x3cc90507	0.02453853
198	0x3d56c8fd	0.05243777
199	0xba0cca30	-0.00053707045
200	0xbc9279ed	-0.017880404
201	0xbc8177f4	-0.015804268
202	0x3c09e79a	0.0084170345
203	0xbc786c41	-0.0151625285
204	0x3c115f49	0.008872815
205	0x3d0ddeff	0.034636494
206	0xbcc4d9e6	-0.024029683
207	0x3c974945	0.018467555
208	0xbd2eeb01	-0.042704586
209	0xbca9f102	-0.020744804
210	0x3c5db4cf	0.013531878
211	0xbcbb6649	-0.022875922
212	0x3a5511d0	0.00081279594
213	0x3d6fafeb	0.058517378
214	0x3c8f2822	0.017475192
215	0x3d565529	0.05232731
216	0x3b987e2a	0.004653712
217	0x3d42177f	0.04738569
218	0x3c9df938	0.019283876
219	0x3d2ae733	0.041724395
220	0xbd9b0dde	-0.07571004
221	0x3c6acc6d	0.0143309655
222	0x3d2066ac	0.039160416
223	0xbcc2f704	-0.023799427
224	0x3c59faf1	0.013304458
225	0x3c01c1a2	0.007919701
226	0xbd2c4bf9	-0.04206464
227	0x3d20f655	0.03929742
228	0xbce44f00	-0.027869701
229	0x3d1fb3c6	0.038989805
230	0x3adee236	0.0017004672
231	0xbcc77ff8	-0.024353012
232	0xbc807884	-0.015682466
233	0xbcd0114f	-0.025398878
234	0xbcc87e48	-0.024474278
235	0xbb19830e	-0.0023424062
236	0xbb8ef067	-0.0043621543
237	0xbb5635ee	-0.0032685953
238	0x3c049b80	0.008093715
239	0xbc201bd9	-0.009772264
240	0x3d0c22cc	0.034212872
241	0xbc779435	-0.015111019
242	0xbd058606	-0.032598518
243	0x3dad1c91	0.08452714
244	0x3cafc457	0.021455927
245	0xbd9cc21c	-0.07654211
246	0x3d72a6af	0.059240993
247	0x3d772160	0.060334563
248	0xbb0feeee	-0.0021962482
249	0xbcc5bd4c	-0.024138115
250	0xbd5f61e9	-0.054536734
251	0x3c5ce441	0.013482154
252	0x3cf9181d	0.030407006
253	0xbd08fcc2	-0.033444174
254	0xbcf46fe0	-0.029838502
255	0xbbff2fd8	-0.007787686
