data/videos/.working/embeddings/b9qxAFLpz9U.npy (npy, 129152 bytes, 1 tensors)

array f4 [42, 768]
0	0x3c9b5d18	0.018965289
1	0xbd4d3aa5	-0.050104756
2	0x3c1f672b	0.009729187
3	0x3bddea00	0.0067722797
4	0xbcc33fdb	-0.02383416
5	0xbd29926b	-0.0413994
6	0xbd7a342f	-0.061084922
7	0xbd85414e	-0.065065965
8	0xbb45f0d9	-0.003020337
9	0x3ba6998d	0.0050842226
10	0xbc9e01df	-0.019288002
11	0x3cdc971d	0.026927525
12	0x3da89f68	0.08233529
13	0xbc644234	-0.0139318
14	0xbd4362d7	-0.047701683
15	0x3d7f09e1	0.06226528
16	0x3ce67efc	0.028136723
17	0x3cdafd2a	0.026732046
18	0xbd240adb	-0.040049415
19	0xbd0f1886	-0.034935497
20	0x3c51e595	0.012811084
21	0x3d03ae24	0.032148495
22	0x3d620151	0.055177037
23	0xbd5ea6ae	-0.054358177
24	0x3cb137be	0.021633025
25	0xbc391a71	-0.011297808
26	0xbbe35892	-0.0069380486
27	0x3d2a684b	0.041603368
28	0x3c5d1ce3	0.013495657
29	0x3d7b694a	0.06137971
30	0x3d4a884c	0.04944639
31	0x3d2da2f8	0.042391747
32	0x3d7157e2	0.058921702
33	0x3c0dbfbc	0.00865167
34	0x3cbf2043	0.023330813
35	0x3bf5482d	0.0074854107
36	0xbd35a91f	-0.04435074
37	0xbd3b703b	-0.04576133
38	0x3d045a83	0.03231288
39	0xbd28960f	-0.041158732
40	0x3d0ed087	0.034866836
41	0xbc91680f	-0.017749814
42	0xbd822dbe	-0.06356381
43	0x3cb10640	0.021609426
44	0x3ced4a6b	0.02896615
45	0x3c2cb859	0.010541999
46	0xbd4d95f0	-0.05019182
47	0xbcb8ee90	-0.022574693
48	0x3ccd966f	0.025096146
49	0xb8e5e299	-0.00010961778
50	0x3b7b3c3e	0.0038335468
51	0xbcad194c	-0.021130227
52	0xbd0f5a0b	-0.03499798
53	0xbbc0fb43	-0.0058893277
54	0xbc807abc	-0.015683524
55	0xbc41769e	-0.011808066
56	0xbd19ca76	-0.037546597
57	0xbca5ca2d	-0.020238006
58	0xbd151b84	-0.036403194
59	0x3d8d247a	0.06891723
60	0xbdade8b5	-0.08491651
61	0xbc3069fb	-0.010767455
62	0x3d120cd6	0.035656773
63	0xbd407910	-0.046990454
64	0x3c8a1af0	0.016858548
65	0x3d655cc4	0.05599667
66	0xbbb0b4a6	-0.0053926287
67	0xbcff757c	-0.03118395
68	0x3ce05d27	0.027388168
69	0x3dc7b18f	0.097506635
70	0xbbbb56be	-0.0057171276
71	0x3acf03c7	0.0015793972
72	0x3cafdb0d	0.021466756
73	0x3d402f00	0.046919823
74	0x3ddde3a1	0.108344324
75	0xbcabbf40	-0.020965219
76	0xbd867074	-0.065644175
77	0x3d43977d	0.047751892
78	0xbc4383e0	-0.011933297
79	0xbdc8979b	-0.097945414
80	0xbc0df3a2	-0.008664044
81	0x3c0971fc	0.008388992
82	0x3cf0d59c	0.029398732
83	0x3c9ffb3e	0.019528981
84	0x3d6b1acd	0.057398606
85	0xbc8c40d4	-0.017120756
86	0x3c4b9f83	0.012428167
87	0xb9c963a2	-0.0003841194
88	0xbcaab694	-0.020839013
89	0xbd23eefd	-0.04002284
90	0x3c956d8b	0.01824071
91	0xbd38eb7a	-0.045146443
92	0x3cd9621f	0.026536046
93	0xbce03167	-0.027367307
94	0xbd60b411	-0.054859225
95	0xbd417e7f	-0.047239777
96	0x3cd49808	0.0259514
97	0x3d723049	0.05912808
98	0x3b814d2b	0.0039459667
99	0x3d2158dd	0.039391387
100	0xbd0671de	-0.032823436
101	0x3c0470c5	0.008083527
102	0x3d88a166	0.06671409
103	0x3d990228	0.074711144
104	0xbb7d4aae	-0.003864925
105	0xbd08d36b	-0.03340475
106	0xbd363780	-0.044486523
107	0xbd263a19	-0.04058275
108	0xbcbcffbf	-0.023071168
109	0x3bf2998e	0.007403559
110	0x3aa52bf2	0.0012601598
111	0x3cd8d82c	0.026470266
112	0xbd3421a0	-0.04397738
113	0x3c9a0210	0.018799812
114	0x3ce56f8b	0.02800729
115	0x3ccebf5b	0.02523773
116	0xbca440f7	-0.020050509
117	0xbc9bdd70	-0.019026488
118	0xbd640952	-0.05567295
119	0xbc3d227b	-0.011543865
120	0xbd0ed2f8	-0.034869164
121	0xbc017224	-0.007900748
122	0xba93e37b	-0.0011283004
123	0xbcfb64d3	-0.030687725
124	0x3ccbbbac	0.024869762
125	0xbc321f52	-0.010871725
126	0x3d24698f	0.04013973
127	0xbd6b993a	-0.057519175
128	0xbb66155c	-0.0035107946
129	0xbcbcba4d	-0.023038054
130	0x3d045a25	0.03231253
131	0xbc1c5ce8	-0.009543635
132	0x3c8e45b0	0.017367214
133	0xbd070006	-0.032959007
134	0x3cad58ca	0.021160502
135	0x3b9bd0d7	0.0047551203
136	0xbd41dfbe	-0.047332518
137	0x3c9447de	0.018100675
138	0xbbdfc496	-0.006828855
139	0x3cbeebd2	0.023305807
140	0xbcd0465a	-0.025424171
141	0xbe0d4c90	-0.13798738
142	0xbd40de97	-0.04708728
143	0x3cec1255	0.028817335
144	0x3cc0b738	0.023524866
145	0x3c3f347b	0.011670227
146	0xbd832d54	-0.0640513
147	0x3c51a8d4	0.012796599
148	0xbca1ba29	-0.019742088
149	0x3a98b22c	0.0011649779
150	0xbd36c4c6	-0.04462125
151	0xbc97a721	-0.01851231
152	0xbc21ad9b	-0.009868051
153	0xbd858043	-0.065186046
154	0xbd86fdde	-0.0659139
155	0x3c43ed9a	0.011958504
156	0x3d7f6daa	0.062360443
157	0xbd7765fe	-0.0604
158	0x3afe5afa	0.0019405775
159	0x3d2816a3	0.041037213
160	0xbc9649f1	-0.018345805
161	0x3d22f28b	0.03978209
162	0xbd8d0214	-0.06885162
163	0x3cd58f96	0.026069444
164	0x3dc5bd9f	0.09655308
165	0xbd0dd01d	-0.0346223
166	0xbdc3721a	-0.095432475
167	0xbc90e109	-0.01768543
168	0xbce2f210	-0.027703315
169	0x3cdacade	0.026708063
170	0x3d6315ef	0.05544084
171	0xbbf642dc	-0.0075152945
172	0xbc818133	-0.015808677
173	0x3d12e007	0.03585818
174	0xbc64576f	-0.013936861
175	0xbcdf7521	-0.027277531
176	0xbd44f528	-0.04808536
177	0xbc8179fc	-0.015805237
178	0x3c765552	0.01503499
179	0x3d995291	0.074864514
180	0x3d7ec539	0.062199805
181	0x3d1d325d	0.03837811
182	0x3bf7969e	0.0075557968
183	0x3aab4567	0.0013066948
184	0xbd1851ec	-0.0371875
185	0x3d18ef6e	0.037337713
186	0x3b0ddaa8	0.0021645222
187	0x3cf05c25	0.029340813
188	0x3cbddf3d	0.023177737
189	0xbd91ea0c	-0.07124719
190	0x3d298ea0	0.041395783
191	0xbbd094c7	-0.006365392
192	0xbd0d97ad	-0.034568477
193	0x3cdd71be	0.027031776
194	0x3c8e9cc9	0.017408745
195	0xba6a5a15	-0.0008939815
196	0x3c849e33	0.016188717
197	0xbd05abdf	-0.032634612
198	0xbba36678	-0.0049865805
199	0xbc7f1274	-0.015568364
200	0x3c855838	0.016277418
201	0xbd005e4e	-0.031339936
202	0xbcba3b7f	-0.022733448
203	0x3d0dc69e	0.034613244
204	0x3bf8e108	0.007595185
205	0x3d205f65	0.039153475
206	0xbcc9bd79	-0.02462648
207	0x3d047d4c	0.032346055
208	0xbd061ecb	-0.03274421
209	0x3d890668	0.06690675
210	0x3d3fc601	0.04681969
211	0xbd3faea4	-0.04679741
212	0xbd3243b8	-0.043521613
213	0xbadffa11	-0.0017088075
214	0xbd2cbf86	-0.04217484
215	0x3b7bc9de	0.0038419883
216	0xbc88036f	-0.0166032
217	0x3c9e2f6d	0.019309724
218	0xbb068330	-0.0020524971
219	0xb99d4575	-0.00029997123
220	0x3960ae0d	0.00021427144
221	0x3ce82855	0.028339544
222	0x3d8e54c0	0.069497585
223	0xbb79c38d	-0.0038110942
224	0x3bf21dc9	0.0073888046
225	0x3cdc3828	0.026882246
226	0xbd6e7ca8	-0.05822435
227	0x3ad4309c	0.0016188803
228	0x3c96728f	0.018365173
229	0xbb0777d2	-0.0020670784
230	0x3d0332e3	0.03203095
231	0x3c7d1c28	0.0154486075
232	0xbd8dc504	-0.069223434
233	0xbda8870c	-0.08228883
234	0x3caf3988	0.021389738
235	0xbd295be9	-0.041347418
236	0xbd195fb6	-0.037444793
237	0x3d18ff44	0.037352815
238	0x3c6043f9	0.013688081
239	0xbd906d06	-0.070520446
240	0xbcf26839	-0.029590713
241	0x3c05cdda	0.008166755
242	0xbd1283ab	-0.0357701
243	0x3dcfb9d4	0.10142866
244	0xbbe517ac	-0.0069913473
245	0xbcbaf8a0	-0.022823632
246	0x3d0b5dc1	0.034024958
247	0x3cab1e21	0.02088839
248	0xbc7416f9	-0.014898055
249	0x3ca9d587	0.0207317
250	0x3d24ab66	0.04020252
251	0x3c478c99	0.012179517
252	0xbd06b9ca	-0.032892026
253	0xbca891e2	-0.020577375
254	0x3d1ff561	0.03905237
255	0xbcac2aa5	-0.021016428
