data/videos/.working/embeddings/bLKTkM-w5ps.npy (npy, 3200 bytes, 1 tensors)

array f4 [1, 768]
000000 5e 51 33 3b 86 53 13 bc fc 36 93 3c 92 81 0d 3d
       0.002736173 -0.0089920815 0.017970555 0.034547396
000010 cc 03 f3 bb cb 33 f0 3b 06 3e be bc ab b8 36 3c
       -0.007416224 0.007330393 -0.023222934 0.011152427
000020 03 66 c6 bc d6 cb 15 bd 1c d1 2a bc 4a 2a b2 bc
       -0.024218565 -0.036571346 -0.010425832 -0.02174868
000030 3d e7 dd bc b4 a1 9b bd c3 00 7e bd 98 5a 22 3d
       -0.027087802 -0.07599202 -0.062012445 0.03963718
000040 d1 22 37 3d 1b ba 25 3d 42 0c 00 bc 9b 38 25 3d
       0.044710938 0.040460687 -0.0078154225 0.040337186
000050 61 be 50 bc 88 ce 99 bd 84 80 08 3d 03 50 64 3a
       -0.012740702 -0.07510096 0.033325687 0.00087094324
000060 c5 ba 66 3c 8c 2e 01 3d e2 fc 3b 3c a8 7d 3a 3d
       0.014082615 0.03153853 0.011473866 0.04552999
000070 66 6c 3c 3b b2 30 74 3d 6f 83 42 3c e5 dd 32 3c
       0.0028751134 0.059616752 0.0118721565 0.010917162
000080 2e 03 30 3b 50 e4 0c bd 3d db c1 3c 1d d2 ce b9
       0.0026857364 -0.034397423 0.023664111 -0.00039447928
000090 39 dd 89 bc 67 a8 db bb d4 39 66 bd 54 4a 8a bb
       -0.01682912 -0.0067034247 -0.056207493 -0.0042202864
0000a0 78 90 46 bd ec 99 c0 3c c3 cc ba bd 26 61 8b 3d
       -0.04847762 0.023510896 -0.091210864 0.06805639
0000b0 fe fd b1 bb 90 04 ec 3b 83 42 17 bd 4f 90 bd bc
       -0.0054318896 0.0072026923 -0.036928665 -0.0231401
0000c0 49 39 09 bd 17 3e 1d 3d fb f2 79 bc 54 ad b5 3a
       -0.033501897 0.03838929 -0.015255685 0.001386086
0000d0 b3 61 24 bd b4 5c 88 bc f2 c4 dd ba b4 b1 fd 3c
       -0.040132236 -0.016645767 -0.0016919656 0.030968525
0000e0 6b e6 8c bd 5f f1 ae bc 84 2e b7 bc f9 31 93 bc
       -0.06879886 -0.02135533 -0.022361048 -0.017968165
0000f0 c0 4b 03 bd 5c dc bb ba 40 72 34 3d 31 25 87 bd
       -0.032054663 -0.001433264 0.04405427 -0.065988906
000100 69 53 82 3c 0a 8a 53 bb 8f ab 54 bc 0c a3 af 3c
       0.015908914 -0.0032278323 -0.012980356 0.021440051
000110 64 27 92 3c ec ec ac 3d 33 54 8a 3c 73 8e 43 bd
       0.017841049 0.08443627 0.016885852 -0.047743272
000120 68 11 89 3c d3 d3 9f bc a4 53 a6 3d 3f c5 d1 bb
       0.016731933 -0.019510185 0.08121422 -0.0064016874
000130 f9 66 34 bc 71 64 ba bb 64 82 af bc a8 74 66 bc
       -0.011010879 -0.005688243 -0.02142448 -0.014065899
000140 ec 99 9d 3b eb c1 c9 bc 83 dd 47 3c 77 45 5e 3b
       0.0048096087 -0.0246286 0.012198809 0.0033915916
000150 15 46 01 3d 64 16 82 3d 83 0a 80 bd 50 99 33 bd
       0.031560976 0.06351927 -0.06252005 -0.043847382
000160 4e 1b 93 3d 9f ae b5 bd 2b 08 3b 3d b4 5d 24 bd
       0.07182942 -0.08871197 0.045662086 -0.040128425
000170 03 0f c1 3c 13 0e b3 3b f5 ab 54 3c 8a ef d0 bc
       0.023566728 0.0054643243 0.012980451 -0.025504846
000180 87 20 6b bd f3 79 88 3d 45 1b ed 3c c4 ca 6d 3d
       -0.057404067 0.06663885 0.028943667 0.0580547
000190 e8 a0 b6 3d 6b e1 5d bc 9d 38 38 3b 86 f5 7b 3d
       0.08917409 -0.013542513 0.0028109916 0.061513446
0001a0 52 5a 98 bd f9 c3 9c 3c 44 a6 6b bd 18 8d 1c 3d
       -0.07439102 0.019136416 -0.05753161 0.038220495
0001b0 da 33 2a 3c 6f 7c b9 3d 3b f4 65 bd 01 3d 08 3d
       0.010388339 0.09056937 -0.05614112 0.033261303
0001c0 6d 14 b6 bc 4b c0 a0 3c 43 2c 61 bd d2 42 8e 3c
       -0.022226537 0.019622942 -0.054973852 0.017365847
0001d0 11 8a 09 3c 7c ea 09 3d ea 3e 61 bc 45 65 a1 3c
       0.008394734 0.033670887 -0.01374791 0.01970161
0001e0 f5 99 6a bc e4 dd 41 bb 5c 84 83 3a b3 56 86 bd
       -0.014318933 -0.002958172 0.0010033953 -0.06559505
0001f0 40 e2 e5 bc 70 bb 51 bd bd 30 ad bc e4 9a 02 bd
       -0.028061986 -0.051204145 -0.021141404 -0.031885996
000200 b5 4b 55 bd c3 39 01 3c 10 6e 4e bd 11 8b e5 39
       -0.052074153 0.007887307 -0.050397933 0.00043781896
000210 4f 10 3f bc 24 b8 48 3c be e1 3e 3c 93 5b 29 3c
       -0.011661603 0.012250934 0.011650501 0.010336774
000220 d1 b7 2e 3d f7 54 80 3c 90 e3 d9 bc 53 92 19 3d
       0.04265577 0.015665514 -0.026597768 0.03749306
000230 d0 07 e4 ba b3 16 d8 bd a0 91 ee bb 65 09 5e 3d
       -0.0017397348 -0.105512045 -0.0072805434 0.054208178
000240 1d c7 70 3b fe 50 6c b9 83 15 63 bd df 38 85 3c
       0.0036739775 -0.00022536886 -0.055440437 0.01626247
000250 4c 97 06 bd 5d e3 2c 3d 84 d3 f1 3c 7d b6 1c bd
       -0.03285913 0.042209018 0.029519804 -0.038259972
000260 d0 7c 8f 3d bd 14 80 bd c5 34 35 bd 90 5a a7 3c
       0.07006228 -0.062539555 -0.044239778 0.020428926
000270 3f 58 91 bc c9 67 8f bc 4f 33 f3 bc b9 c1 bf 3a
       -0.017742274 -0.017505543 -0.029687552 0.0014629877
000280 36 38 b7 3c 2f 98 0f 3c a8 ee 1d bd fd ba e7 3c
       0.02236567 0.008764311 -0.03855768 0.028287405
000290 aa 19 7f bc d6 68 db bb fd 7f 20 bc 13 cc 0a bc
       -0.015570084 -0.006695847 -0.00979614 -0.008471507
0002a0 b0 ea be 3c 85 43 4f 3d c6 7f 42 bc 46 f9 88 bc
       0.023305267 0.0506015 -0.011871284 -0.016720425
0002b0 2e 31 09 bc a9 bb 38 3c e9 b7 4e bd a0 1e c8 bc
       -0.008373542 0.01127521 -0.05046836 -0.024428666
0002c0 cd 39 4e 3c 05 3a c7 bc 5a 9d 05 3c b3 06 fa bc
       0.012587023 -0.024319658 0.008155191 -0.030520773
0002d0 ad 07 19 bc 14 75 80 3d 0c 62 94 3d c0 ff 06 3d
       -0.009340209 0.06272331 0.072452635 0.032958746
0002e0 48 32 82 3c fa c6 54 3c a4 dc 0c bd 0b 7c 85 3c
       0.015893117 0.012986893 -0.034390107 0.0162945
0002f0 ee 7a cc 3c 98 5c 85 bd ba 7d 47 3d 85 cf 90 bc
       0.024960961 -0.065118015 0.048703887 -0.017677078
000300 8d 13 71 bd cb c7 35 bb 5c 62 f8 3c 49 03 e6 3c
       -0.058856536 -0.0027737494 0.030320339 0.028077738
000310 0c 0d c9 3c 82 3d 84 bc fb ff ca bd 30 b5 a7 3b
       0.024542354 -0.01614261 -0.09912106 0.005118035
000320 9b e7 65 bd 59 a8 79 3c 56 9d c2 bc d1 50 99 3c
       -0.05612908 0.015237891 -0.023756664 0.018715294
000330 7d 6f 1f 3d 7f d2 c6 3c 25 24 92 bc dc 22 4f 3d
       0.038924683 0.024270294 -0.0178395 0.050570354
000340 ca f1 43 bc 06 96 3a 3d 04 13 ce bc d5 4a 81 bd
       -0.0119595025 0.04555323 -0.025155552 -0.06313101
000350 b2 49 b6 bc 61 ea 41 3d 1a 0e 6b bb 5e 53 d8 3c
       -0.022251938 0.04734266 -0.003586656 0.02640694
000360 01 47 42 bd e2 f8 38 3c a4 40 aa 3b 52 5f 7c 39
       -0.047430996 0.011289807 0.005195694 0.00024068102
000370 7e 8d 29 bd e5 7f 36 bc bc c4 09 3c f3 30 7e 3a
       -0.041394703 -0.011138891 0.008408722 0.0009696625
000380 af 11 4d bb 7b fe 05 bd 29 2c 98 bd 81 d7 d5 bc
       -0.0031291058 -0.032713395 -0.07430298 -0.026103737
000390 3d cb 43 3d 9f ba b6 bc e5 d5 3c 3d ea 5d b6 bc
       0.047801245 -0.022305785 0.046102423 -0.022261579
0003a0 50 8b ce bc 94 b7 96 bd ca 4a ee 3b 49 91 e0 bc
       -0.025212914 -0.073592335 0.007272099 -0.027413027
0003b0 9f cf b4 bc b2 38 a8 bd 87 72 3a bb 93 c9 2d bd
       -0.022071658 -0.08213939 -0.0028449611 -0.042428564
0003c0 39 d2 f1 bb 96 e0 b6 3c d3 2a ba bc dd 2c 9f 3d
       -0.007379797 0.022323888 -0.022725498 0.07772229
0003d0 93 c5 61 3c 03 02 92 3d 3e 25 89 3d ff c0 e1 3c
       0.0137800155 0.0712929 0.066965565 0.027557848
0003e0 5b aa 08 3c ec 45 66 bc 0b e8 ce bc d4 65 15 3d
       0.008341397 -0.014054757 -0.025257131 0.036474064
0003f0 ca 10 0e 3d c9 e1 88 bb 08 2c 2a 3d d5 11 8c bc
       0.03468398 -0.0041773063 0.041545898 -0.017098347
