data/videos/.working/embeddings/bV_HSZ_W0nk.npy (npy, 123008 bytes, 1 tensors)

array f4 [40, 768]
00000000: efd9 0abc 1a57 1fbc 56e6 88bd 4d9e 0fbd
00000010: 9d39 8bbd ec16 4e3d 5188 86bd 042a 443d
00000020: 3017 50bb 4d18 b1bc 02e9 8ebb 1dfd 73bc
00000030: f4ee b83c 7bb5 943c 164a 4fbd f5eb 6f3d
00000040: f53c fe3c 2bc0 813d 221d 8dbd 1677 f9bc
00000050: dc4d d2bc 1574 d1bc e686 423d a826 58bd
00000060: cf75 4e3d a745 2d3c a904 89bc 9613 9d3d
00000070: cf6b 3dbc 7fb9 813d 9908 f6bc c856 88bd
00000080: ffca 003d 81eb c33c 44d1 873d 0217 293d
00000090: 82ef 0ebd 9907 31bd 10e9 f8bc 80c1 79bd
000000a0: 06ee 2abd 72fd 6e3c 46ad 86bd b390 3dba
000000b0: 1575 7ebc d10e fe3c 9ab6 1abd 6720 ea3c
000000c0: ac5d 56bc 9765 74bb 0347 8ebc d83e d6bc
000000d0: 3857 2ebd e65f bd3c 90eb 8abc 1824 abbc
000000e0: d19b 1fbd f10d 3339 84c2 79bd 6221 ab39
000000f0: cd00 35bd 9602 46bd 509d 97bc 43b7 01bd
00000100: 9038 6fbc 7a4c 863c b81d fabc ba37 cb3c
00000110: 4c22 b83d 915c b83d d95c b4bc 317b bcbc
00000120: 5995 86bd 6131 abbb 672f c83d c884 88bd
00000130: 024e b1bc 7f82 ca3c 8220 7b3c e93a 2e3d
00000140: 8892 2a3d 9e60 81bd f181 163d 5715 4e3b
00000150: 5ece 03bc 1cd2 0a3d 2e49 b23c 62ee a53a
00000160: 70b5 a53c bbed a4bd 1ef1 cf3c 0ccd a8bc
00000170: 9454 d73c 4a3f 2b3c 479e 0d3d fd01 0ebd
00000180: 2d38 81bd 4969 133d ace4 93bc f70f 3dbd
00000190: 6b5c 683d 2365 d0bc a251 0bbd b5d6 bd3d
000001a0: 18ae 0cbd 7bd7 ad3d 4744 97bc 5ef4 3ebd
000001b0: 04d1 58bb aa3a 9e3d 0ba0 9d3b 384d 34bc
000001c0: 8c28 58bd 30b5 343d 0b3f f8bc 2c68 06bd
000001d0: 1115 40bd 5b99 933c 632b 963c fb91 00bd
000001e0: 5fbc d33b e9e8 dfbc 1895 29bc 5f1d 06bd
000001f0: 0549 27bd a299 b4bd 25f9 08bd b843 cfbd
00000200: c544 18bb 7f50 fabc 3a4c b03c 8bf9 2c3c
00000210: f276 813c 968a a6ba 4444 c4bc 414e 52bc
00000220: e7ff 0a3c 2833 8ebc 9daf 17bd 3c19 263c
00000230: aca9 17bd 0519 6abd 07d8 cfbb 2abd d63c
00000240: 190f 833c 3352 e23a d118 8ebd 3ecb 983b
00000250: 4a3d e9bc 15b9 a9bc 15d5 8dbc 6c1f 9a3c
00000260: 0025 043d f7fb b9bc b4b8 99bc a9c6 083d
00000270: 93c2 9bbc ba44 febc 796c 43bc 833f 163d
00000280: c53f babc 468c 983c bbcd b1bc 4660 103d
00000290: c298 5bbd 0544 68bc 725f 1b3b 4af4 943c
000002a0: 8058 79bb 1153 8f3c 484c 4bbc ba62 44bc
000002b0: e47d 5dbc 1e92 a23c 6553 e9bc ee15 9dbc
000002c0: 11a5 353d e386 953c 7d64 9b3d 7e74 643d
000002d0: aad7 c93c ceb7 053c 802a d7bb b83a 49bc
000002e0: e3b6 d73b 7e40 ed3c dae8 4f3c b034 343c
000002f0: 5185 0a3b 5417 1bbc 3a76 9c3c be0d 9c3d
00000300: a1d8 4cbd 810a 6dbb 661d 333d 0964 5a3d
00000310: 69a0 de3c e6d7 3a3c 345a ebbc bca3 083d
00000320: 11cc 023b c2c4 c83b a667 ccbc c5fa 263c
00000330: 919a ff3c 9e02 15bd c6de f8bb e4db df3d
00000340: 2d8e a9bc e791 603d 2a1f e93a 78df 1b3b
00000350: 206f 2abd 9502 263d 3c31 013d 584d 953c
00000360: 2654 8abd 4847 e23c 357f 30bd d641 663d
00000370: c28f b33c 9457 f73c 8d38 ceba 1873 133d
00000380: bc0e bf3b bdc2 d83c b4c6 08bc 19db 03bc
00000390: 9623 fc3c aa9f 9cbc ab13 673d 8317 683c
000003a0: 9c50 db3c 9d4d 91bd c0af d4b9 4a84 273c
000003b0: a5a1 f3bc 3ffa 39bd 4a78 3abd 207b 27bc
000003c0: 4b9f e13c 37c8 1a3b 3435 063a fed8 103e
000003d0: fe8b e43b 7b2c 473d 91d6 5e3d 38ef 4c3d
000003e0: 6cfe 433d 7b81 1bbc 6467 2fbd 60b6 16bb
000003f0: dd5c 0e3d 3e62 5cbd dacf b93c d6c5 323d
-0.008474811 -0.0097253565 -0.06684558 -0.035063077 -0.06798098 0.05031483 -0.06568969 0.04789163
-0.0031752102 -0.021618033 -0.004361273 -0.01489189 0.02257488 0.018152943 -0.050607763 0.058574636
0.031034926 0.06335481 -0.06890322 -0.030452292 -0.025671892 -0.025568048 0.04749193 -0.05277124
0.05040532 0.010575688 -0.016725855 0.07669751 -0.011561348 0.06334209 -0.030033397 -0.06657177
0.031443592 0.023916008 0.06631711 0.041281708 -0.03489638 -0.043220136 -0.03038457 -0.06097555
-0.041730903 0.014586793 -0.06576018 -0.00072313397 -0.015530844 0.031012924 -0.0377718 0.028579904
-0.013083857 -0.0037291998 -0.017367845 -0.026153013 -0.042563647 0.023117017 -0.016958028 -0.020891234
-0.038966957 0.00017075964 -0.06097652 0.00032640534 -0.044190217 -0.04834231 -0.01850763 -0.031668913
-0.014600888 0.016393889 -0.03053175 0.024806846 0.089909166 0.09002031 -0.02201693 -0.023007961
-0.065714546 -0.0052243923 0.09774666 -0.06665951 -0.021643642 0.024720429 0.015327575 0.04253665
0.04164365 -0.063172564 0.036745016 0.0031445825 -0.008044807 0.033891782 0.02176341 0.0012659545
0.020228118 -0.08053156 0.025383528 -0.020605586 0.026285447 0.010452101 0.034574773 -0.034669865
-0.06309543 0.03598908 -0.018053375 -0.046157803 0.05672876 -0.02543885 -0.034013398 0.09269468
-0.034345716 0.08488365 -0.018465174 -0.046619765 -0.0033083567 0.07726033 0.0048103384 -0.0110047385
-0.052773044 0.044118106 -0.030303499 -0.03281419 -0.04689509 0.018017462 0.018331235 -0.031389218
0.0064616646 -0.02733274 -0.010350488 -0.032742854 -0.04084112 -0.08818366 -0.033440728 -0.10120338
-0.002323435 -0.030555962 0.021520723 0.010557543 0.015803788 -0.0012706097 -0.023958333 -0.01283604
0.008483863 -0.017358378 -0.037032712 0.010137852 -0.037027046 -0.057152767 -0.006342891 0.026213247
0.01599841 0.0017266929 -0.06938327 0.0046629 -0.028471608 -0.020718137 -0.01731352 0.018813811
0.03226185 -0.022703154 -0.018764831 0.033392582 -0.019013679 -0.03103863 -0.011927717 0.036681663
-0.022735486 0.018621575 -0.021704545 0.035248064 -0.053612478 -0.014176373 0.0023708013 0.018182892
-0.0038047135 0.017495664 -0.012408324 -0.011986429 -0.013518784 0.019845065 -0.028482148 -0.019175496
0.044346873 0.018252796 0.07587526 0.055775158 0.02463897 0.008161498 -0.0065663457 -0.012282066
0.006583081 0.028961416 0.0126897935 0.01099889 0.0021136592 -0.009466011 0.019099344 0.076198086
-0.05001128 -0.003616959 0.04372921 0.053318057 0.027176099 0.011404013 -0.028729536 0.033359274
0.001995806 0.006126971 -0.024951767 0.010191624 0.031201633 -0.03637945 -0.007594916 0.10930613
-0.020697678 0.054826643 0.0017785777 0.002378432 -0.041609883 0.040529806 0.031541094 0.018225357
-0.06754331 0.02762188 -0.043090064 0.05621513 0.021919135 0.030193128 -0.0015733406 0.035998434
0.005830614 0.026460046 -0.008348156 -0.008047842 0.030778687 -0.019119103 0.05641524 0.014165762
0.026771836 -0.07094882 -0.00040566735 0.010224411 -0.029740164 -0.04540467 -0.045524873 -0.010222226
0.027541777 0.0023617873 0.0005119622 0.14145276 0.006974696 0.048626404 0.054403845 0.050032824
0.047850057 -0.00949132 -0.04282321 -0.0022996888 0.03475653 -0.05380463 0.02268212 0.043645702
