data/videos/.working/embeddings/dK_w1HzU3Ts.npy (npy, 24704 bytes, 1 tensors)

array f4 [8, 768]
0.0057370174 0.014416877 0.013408702 0.006058089 -0.028606554 0.036925446 -0.023363579 0.024541404
-0.005359886 -0.0018064162 -0.014769748 0.0067035207 -0.030830223 -0.037093557 -0.015546265 0.06210093
0.025545338 0.0385844 -0.07883693 0.053894367 -0.015946137 0.03767157 0.029991347 0.010132702
0.035672996 -0.029369758 -0.009958274 0.07000161 -0.04139183 0.021813937 0.001799964 0.027218428
-0.050488055 0.0072402013 0.052385274 -0.036728412 -0.06501353 0.0038268408 -0.022278788 -0.039221175
-0.069576874 0.08808432 -0.01387275 0.03560081 0.011607626 0.017184451 -0.04480757 -0.03187383
-0.027793664 0.025800338 0.048290048 -0.015411448 -0.077489816 -0.0023213043 -0.028314305 0.028294403
0.003989232 -0.032470524 -0.04050869 0.012867519 0.004161127 -0.020467976 -0.005625858 -0.0029205969
0.011645593 -0.058092255 -0.019343691 0.04318583 -0.0041879807 0.07264672 -0.014932043 0.014393584
-0.0119655775 -0.0074372613 0.06321039 -0.055730555 0.030332904 0.0066022607 0.06528192 -0.0076834536
0.028400226 -0.0036249282 0.018246813 -0.064155556 0.0004923962 0.064285316 -0.06903809 0.0006851125
0.05890918 -0.13293894 0.05625364 0.0035185397 0.01565286 -0.012718364 -0.007906508 0.021768702
-0.03804124 0.041113414 0.016444055 -0.013014927 0.07235664 -0.04482896 0.014348504 0.09166265
-0.035729475 0.029745435 -0.047474638 -0.014940703 0.00788898 0.0431677 -0.0054470636 0.022689229
-0.035452228 0.020438986 -0.00495741 -0.0010571625 -0.055249903 0.036168728 0.045423213 -0.041375462
0.041769095 -0.0040643425 -0.02566219 -0.036230166 -0.057313245 -0.019910606 -0.025072202 -0.088048406
0.019361911 0.02717443 0.024403976 0.0072572427 -0.051647678 -0.0062287245 0.013301967 -0.016428322
-0.018546633 -0.04799827 -0.02417092 0.0051919823 -0.0303643 -0.12261452 0.011964418 0.0415572
0.06399801 0.015294201 -0.055860512 0.0054630036 -0.003687523 0.068578124 0.003950788 -0.03680443
0.0061530666 0.018735392 0.011730222 0.02317141 -0.06030482 -0.00063805433 -0.0010052761 -0.006352256
0.0126676895 0.004161573 0.0159833 0.029593376 0.0048756627 0.03486498 0.014612525 0.014814644
-0.021473441 0.013772693 0.013487745 0.00086242106 0.022071172 0.050969545 -0.029464105 -0.08605016
0.002555423 0.02776436 0.034214485 0.041513328 -0.016432246 0.034968235 0.024110781 -0.015564402
0.00026654542 -0.07686363 0.0046496857 0.008024986 0.014156909 -0.01262995 0.03461949 0.020954017
-0.06852111 0.0027946548 0.002644224 0.06313216 0.019423999 0.023485973 -0.044063784 0.012701157
-0.004942059 -0.018316606 -0.0816665 -0.056701466 0.03035066 -0.010946074 -0.0097695235 0.09400416
0.009233396 0.021607552 0.029037219 0.028197648 -0.0034038792 0.045229077 0.03997005 0.018900754
-0.06553453 -0.033702828 0.017389137 0.011701994 -0.014143733 0.019700855 0.0359195 -0.06441081
-0.008000262 -0.011840069 -0.0633982 0.019524349 -0.043123342 -0.03210023 0.02965525 0.019485835
-0.040631633 -0.047018174 0.015003545 -0.03423532 -0.060183987 -0.01784179 -0.006509768 -0.04194234
0.014825965 -0.027147055 0.025113907 0.106987335 0.015222218 0.009980368 0.04921326 0.023853417
0.03510474 -0.021757733 -0.07220258 0.047613673 -0.0073457193 -0.03539193 -0.000905767 0.03589787
00000000: 97fd bb3b c434 6c3c 2cb0 5b3c ef82 c63b
00000010: 4b58 eabc 233f 173d fa64 bfbc 0e0b c93c
00000020: fca1 afbb 45c5 ecba d0fc 71bc 35a9 db3b
00000030: aa8f fcbc 6aef 17bd c3b5 7ebc 8b5d 7e3d
00000040: 7544 d13c ad0a 1e3d 4275 a1bd 57c0 5c3d
00000050: 79a1 82bc 814d 1a3d 6ab0 f53c a203 263c
00000060: d91d 123d d998 f0bc 0728 23bc 015d 8f3d
00000070: 7b8a 29bd 24b3 b23c c5ec eb3a 2ef9 de3c
00000080: 90cc 4ebd 363f ed3b f191 563d 8870 16bd
00000090: d025 85bd bccb 7a3b 0182 b6bc 62a6 20bd
000000a0: 527e 8ebd 8d65 b43d 884a 63bc 28d2 113d
000000b0: ea2d 3e3c 68c6 8c3c 2488 37bd 228e 02bd
000000c0: 8aaf e3bc 3b5b d33c c9cb 453d 4c80 7cbc
000000d0: fbb2 9ebd 0621 18bb 67f3 e7bc aac9 e73c
000000e0: 1ab8 823b d0ff 04bd 71ec 25bd 49d2 523c
000000f0: 105a 883b 75ac a7bc 1e59 b8bb 7c67 3fbb
00000100: 28cd 3e3c 25f2 6dbd a976 9ebc a0e3 303d
00000110: 543b 89bb cec7 943d 87a5 74bc 11d3 6b3c
00000120: 450b 44bc 45b4 f3bb 7374 813d b945 64bd
00000130: b67c f83c c757 d83b 87b2 853d 7bc5 fbbb
00000140: 97a7 e83c 3490 6dbb 577a 953c fd63 83bd
00000150: 2614 013a 05a8 833d d863 8dbd 1f99 333a
00000160: c14a 713d 2521 08be 386a 663d 4d97 663b
00000170: 6d3a 803c af60 50bc 4c8a 01bc 4754 b23c
00000180: 22d1 1bbd 8a66 283d afb5 863c 8f3c 55bc
00000190: b82f 943d 929e 37bd fd15 6b3c a1b9 bb3d
000001a0: 1259 12bd b3ac f33c c474 42bd dac9 74bc
000001b0: c840 013c 9dd0 303d 487d b2bb c3de b93c
000001c0: 5b36 11bd a96f a73c c571 a2bb 7d90 8aba
000001d0: b94d 62bd a925 143d b10d 3a3d 5179 29bd
000001e0: 1216 2b3d 2d2e 85bb 8339 d2bc 1566 14bd
000001f0: 4bc1 6abd 911b a3bc 3864 cdbc b952 b4bd
00000200: df9c 9e3c e99c de3c d9ea c73c 2ace ed3b
00000210: 848c 53bd 541a ccbb 7ef0 593c b094 86bc
00000220: 1cef 97bc d599 44bd 1802 c6bc 8121 aa3b
00000230: 8dbe f8bc 521d fbbd 6806 443c e237 2a3d
00000240: 6311 833d 8794 7a3c fecd 64bd ff02 b33b
00000250: 5faa 71bb b072 8c3d 9d75 813b 3ec0 16bd
00000260: aa9f c93b f77a 993c 1e30 403c f8d1 bd3c
00000270: 3002 77bd 1a43 27ba 78c3 83ba 9626 d0bb
00000280: 248c 4f3c ce5d 883b 69ef 823c cf6d f23c
00000290: 06c4 9f3b 95ce 0e3d 5f69 6f3c 1fb9 723c
000002a0: 12e9 afbc dda6 613c b4fb 5c3c 1914 623a
000002b0: 9ace b43c 71c5 503d b55e f1bc 113b b0bd
000002c0: e278 273b 1572 e33c 7d24 0c3d e109 2a3d
000002d0: eb9c 86bc da3a 0f3d f983 c53c d501 7fbc
000002e0: 1fbf 8b39 ae6a 9dbd 645c 983b 3b7b 033c
000002f0: 61f2 673c daed 4ebc 2bcd 0d3d c2a7 ab3c
00000300: cc54 8cbd 8726 373b b84a 2d3b 6f4b 813d
00000310: 141f 9f3c a865 c03c 3a7c 34bd 8318 503c
00000320: fff0 a1bb b50c 96bc c440 a7bd cc3f 68bd
00000330: f3a1 f83c 2957 33bc 5a10 20bc 4185 c03d
00000340: ab47 173c 5202 b13c 76df ed3c c1fe e63c
00000350: 9e13 5fbb 2042 393d a3b7 233d c1d5 9a3c
00000360: f836 86bd fa0b 0abd aa73 8e3c b8b9 3f3c
00000370: 1ebb 67bc b063 a13c 5320 133d d1e9 83bd
00000380: 8813 03bc d9fc 41bc ead6 81bd 87f1 9f3c
00000390: 1aa2 30bd 887b 03bd 91ef f23c c2a0 9f3c
000003a0: 5b6d 26bd 2196 40bd 6ed1 753c 563a 0cbd
000003b0: 7c83 76bd f228 92bc e44f d5bb bbcb 2bbd
000003c0: 9be8 723c 8063 debc aebb cd3c 2d1c db3d
000003d0: 9c66 793c b384 233c d893 493d 3e68 c33c
000003e0: fdc9 0f3d 463d b2bc f2de 93bd 8e06 433d
000003f0: 5cb4 f0bb 21f7 10bd ff70 6dba a509 133d
