data/videos/.working/embeddings/IICR-w1jYcA.npy (npy, 80000 bytes, 1 tensors)

array f4 [26, 768]
0.008000899 -0.03564373 -0.022448897 0.042509265 -0.05573022 0.03235809 -0.057545 -0.038868383
0.0020704453 -0.05342562 -0.016485406 0.0033105381 0.041201435 -0.040861 -0.09574797 -0.00020311253
0.009941082 0.060398027 0.0018635112 0.060273517 0.003988173 0.024378553 0.012809164 -0.03696752
0.001186405 0.030601222 0.020412263 0.055485044 -0.02090103 0.057586126 -0.00524898 -0.022145098
0.06501239 0.010901405 0.027196934 -0.0019114078 -0.06727811 0.0073716245 -0.036581185 -0.0715397
0.0145158265 0.06279015 -0.08749728 -0.012002674 -0.08243126 -0.016232198 -0.026811175 0.008320822
0.007236514 0.011078913 0.10306236 0.0016459964 -0.033114977 0.017293258 -0.049787223 0.05823227
-0.032100875 0.047245547 -0.096778624 0.051307313 -0.01992584 -0.048080176 0.011271816 -0.04234585
0.052832816 -0.0018198059 0.036838405 -0.0017375693 0.04240603 0.06287069 -0.007373962 0.047744162
0.014887729 0.03682426 0.06560514 -0.038169697 -0.050730035 -0.0061529996 0.060869433 0.012259953
0.016514484 -0.020475041 0.029351164 -0.001632456 0.051861897 0.08199696 -0.12269739 -0.02718993
0.053953074 -0.07810313 0.021212256 -0.048176836 0.07291387 -0.043611195 0.007517729 -0.008332909
-0.05328309 0.044104736 0.025661068 0.04315694 0.08819772 -0.011156624 -0.014373922 0.07412283
-0.0095861945 0.043683767 -0.0026535583 -0.062130682 0.04508394 0.092914626 -0.011636697 0.01963907
-0.008095897 0.017244766 -0.043838825 -0.078019165 -0.017717335 0.030520549 -0.026628038 0.064058326
0.005675801 0.0076575615 0.022543041 -0.0032204248 0.008559651 0.025854545 -0.009719471 -0.020792404
-0.012516455 0.036147777 -0.042512182 0.025313392 0.007104535 -0.00035541243 -0.010609533 -0.019420195
-0.021463525 -0.006778477 -0.0087295575 -0.024983924 -0.0028775593 -0.12608378 -0.017733179 0.071488634
0.018191908 0.008495579 -0.08687797 -0.013206027 -0.04431852 0.042689387 -0.0212842 -0.03605527
0.01823588 -0.018403107 -0.08696219 0.039164804 -0.010558372 0.0057061776 -0.050624073 0.040190965
-0.015225349 -0.016671253 -0.024608597 0.055185255 0.05228931 0.019451441 -0.02933609 0.040116962
0.0017953558 0.017027497 -0.029475052 -0.015851244 0.0114509715 -0.011217173 -0.015100593 -0.008429267
-0.031506155 0.002064427 0.02257646 0.0289296 -0.05086929 0.012672201 0.028346585 -0.030276077
-0.031032896 0.010664273 0.054503236 -0.0061937813 -0.0112102125 0.004723881 0.034390476 0.03464113
-0.082833044 -0.047568686 0.07948578 0.030797316 0.0158972 0.005639815 -0.00052470394 -0.011042848
0.060913865 0.016251452 -0.016865095 0.0056052846 0.020283898 -0.051354267 -0.012512033 0.05268934
-0.021501526 -0.07955141 -0.025474302 0.049878377 -0.030735217 -0.063186646 0.034883693 0.0068801153
-0.07167011 -0.010835276 -0.037364703 0.024261007 -0.01835791 0.015704853 0.040738773 -0.03931666
-0.020683983 0.0079583 -0.04846159 0.01659002 -0.004152023 -0.012154222 -0.006429552 -0.017592061
-0.020487797 -0.036456455 0.013913214 -0.0049760095 -0.027542857 -0.020195192 -0.04382483 -0.026679775
0.018802594 -0.028067177 -0.025611266 0.09549225 0.0029168278 -0.01583263 0.07523887 0.0034483988
0.04062644 -0.04413953 0.007879891 0.0060625887 0.005152301 -0.026191501 -0.03468184 -0.031214457
00000000: 3416 033c 29ff 11bd c0e6 b7bc 321e 2e3d
00000010: 5f45 64bd eb89 043d 4eb4 6bbd 7434 1fbd
00000020: 4fb0 073b d3d4 5abd 670c 87bc 9df5 583b
00000030: d6c2 283d dd5d 27bd 8317 c4bd 9bfa 54b9
00000040: ecdf 223c ec63 773d 0f41 f43a 5de1 763d
00000050: 38af 823b 88b5 c73c 87dd 513c 416b 17bd
00000060: 2581 9b3a 6aaf fa3c 9e37 a73c 4944 633d
00000070: a338 abbc 6edf 6b3d a3ff abbb a369 b5bc
00000080: 3725 853d ce9b 323c 1bcc de3c 3488 faba
00000090: 1bc9 89bd ab8d f13b 27d6 15bd 6883 92bd
000000a0: cad3 6d3c 1f98 803d c631 b3bd dda6 44bc
000000b0: b8d1 a8bd 63f9 84bc 1ca3 dbbc 0f54 083c
000000c0: 4720 ed3b 5484 353c 5c12 d33d 79be d73a
000000d0: 92a3 07bd 97aa 8d3c b0ed 4bbd f684 6e3d
000000e0: 357c 03bd 8c84 413d df33 c6bd 9e27 523d
000000f0: 843b a3bc b8ef 44bd 6cad 383c d872 2dbd
00000100: 3967 583d 8e86 eeba dee3 163d 27bf e3ba
00000110: f2b1 2d3d 59c2 803d 47a1 f1bb 628f 433d
00000120: a9eb 733c 09d5 163d fd5b 863d d457 1cbd
00000130: 4cca 4fbd 1a9f c9bb 3a52 793d f8dd 483c
00000140: 6249 873c 46bb a7bc da71 f03c 22f8 d5ba
00000150: 246d 543d 06ee a73d c548 fbbd 6bbd debc
00000160: e6fd 5c3d 89f4 9fbd 53c5 ad3c 1355 45bd
00000170: de53 953d a7a1 32bd 4857 f63b c186 08bc
00000180: 5f3f 5abd 2ba7 343d 2937 d23c 55c5 303d
00000190: 02a1 b43d 46ca 36bc 9980 6bbc b6cd 973d
000001a0: 6a0f 1dbc c0ed 323d 52e7 2dbb be7c 7ebd
000001b0: f0a9 383d 064a be3d d8a7 3ebc 1de2 a03c
000001c0: a7a4 04bc e544 8d3c 5790 33bd 83c8 9fbd
000001d0: f223 91bc 3b06 fa3c 0b23 dabc 0331 833d
000001e0: 12fc b93b 48ec fa3b 2fac b83c c30d 53bb
000001f0: c73d 0c3c e9cc d33c 6b3e 1fbc d554 aabc
00000200: d111 4dbc b10f 143d 4121 2ebd 085e cf3c
00000210: 29cd e83b a656 bab9 9bd3 2dbc 1a17 9fbc
00000220: 46d4 afbc fd1d debb 6b06 0fbc 16ab ccbc
00000230: 6f95 3cbb 1b1c 01be 2c45 91bc a268 923d
00000240: 3207 953c 0a31 0b3c 14ed b1bd 185e 58bc
00000250: 5687 35bd 11db 2e3d 345c aebc b1ae 13bd
00000260: 6a63 953c 1dc2 96bc 3c19 b2bd 466b 203d
00000270: 06fd 2cbc e3fa ba3b 305b 4fbd 489f 243d
00000280: be73 79bc 2792 88bc f897 c9bc ef09 623d
00000290: 512d 563d a158 9f3c 3d52 f0bc af51 243d
000002a0: 2552 eb3a 407d 8b3c aa75 f1bc 78da 81bc
000002b0: db9c 3b3c 3cc8 37bc 7a68 77bc e91a 0abc
000002c0: 990c 01bd 564b 073b 45f2 b83c c5fd ec3c
000002d0: 515c 50bd 109f 4f3c 1937 e83c 8905 f8bc
000002e0: b338 febc 34b9 2e3c c93e 5f3d 34f5 cabb
000002f0: 0aab 37bc c9ca 9a3b 07dd 0c3d dce3 0d3d
00000300: 5fa4 a9bd 62d7 42bd 71c9 a23d a74a fc3c
00000310: d83a 823c 32ce b83b 498c 09ba 10ed 34bc
00000320: d180 793d c421 853c ab28 8abc 89ac b73b
00000330: 6b2a a63c da58 52bd 45ff 4cbc c7d0 573d
00000340: f823 b0bc daeb a2bd 7caf d0bc 454d 4c3d
00000350: 6cc8 fbbc 0068 81bd 34e2 0e3d 9772 e13b
00000360: c7c7 92bd 7186 31bc bb0b 19bd 05bf c63c
00000370: 5463 96bc 77a7 803c b3dd 263d 820a 21bd
00000380: 7571 a9bc 8863 023c a97f 46bd cbe7 873c
00000390: b10d 88bb 8022 47bc feae d2bb 3a1d 90bc
000003a0: 06d6 a7bc 5d53 15bd 40f4 633c cb0d a3bb
000003b0: 8fa1 e1bc 6370 a5bc aa81 33bd 8b8f dabc
000003c0: e607 9a3c 23ed e5bc b8ce d1bc 7191 c33d
000003d0: 4028 3f3b 6fb3 81bc d616 9a3d 88fe 613b
000003e0: e967 263d a7cb 34bd a91a 013c aea8 c63b
000003f0: a2d4 a83b 8f8f d6bc 8c0e 0ebd 76b5 ffbc
