data/videos/.working/embeddings/Muba9-W2FOQ.npy (npy, 18560 bytes, 1 tensors)

array f4 [6, 768]
000000 ba 89 81 3c 37 a2 be bb 36 59 b8 3a 6a fc 82 3d
       0.015812743 -0.0058176774 0.0014064673 0.063958004
000010 00 66 b5 bd 62 d4 73 3b 83 c9 fb bc c0 06 43 3d
       -0.088573456 0.0037205447 -0.030735737 0.04761386
000020 24 56 91 3d fc b0 84 3c d6 d8 48 3d 51 af 7d bc
       0.07096508 0.016197674 0.049034916 -0.015483693
000030 0e 48 df 3b c1 96 da bc 19 e0 ab bc 28 60 b7 3d
       0.0068140095 -0.026683213 -0.020980882 0.08953887
000040 f8 7b 38 3d e1 a8 8b 3d dc dc 37 bd fb 97 e1 bb
       0.0450401 0.068193205 -0.044888362 -0.0068845726
000050 a0 0f 49 bc 08 24 cc 3c 1c 19 be bc ab a0 05 bd
       -0.012271792 0.024919525 -0.023205332 -0.032623928
000060 d6 18 dc bc 97 44 78 3d a3 02 13 bd 30 58 41 3b
       -0.026867311 0.060612287 -0.035891186 0.0029502027
000070 8e 50 c9 bc f7 0b b1 3d 08 63 85 bc ab 0f ba bc
       -0.024574544 0.0864486 -0.016282573 -0.02271255
000080 fc a9 14 3c de 01 4c bd b0 fb 05 bc 42 3a 35 3d
       0.009073731 -0.04980647 -0.008177683 0.044245012
000090 ab cf 8d bc 01 ec 43 bd 9c 48 7b bd b9 f0 36 bc
       -0.017310938 -0.047832493 -0.061348543 -0.011165791
0000a0 f3 fc 33 bd 40 30 9c bc 2b 27 3d bd b5 9f a6 3b
       -0.043942403 -0.019065976 -0.04617993 0.0050849565
0000b0 54 f8 81 bc b2 e0 a4 bb 14 19 96 bd 36 ae 9e 3b
       -0.015865482 -0.0050316686 -0.07329002 0.004842545
0000c0 25 20 5f bd e1 4a 82 3c ca ac ca bc 05 82 f6 bc
       -0.054474015 0.015904846 -0.024740595 -0.030091295
0000d0 95 7c da bc e9 20 ce 3c 2d fa 0b 3b 0c 38 57 3c
       -0.026670733 0.025162177 0.0021358833 0.013135921
0000e0 af c5 21 bd 8b 61 43 bd f3 eb 87 bd 7a 9b cb bb
       -0.039495166 -0.047700446 -0.066368006 -0.0062136026
0000f0 30 9d f3 bc e9 08 6d bd 7d 6b 00 bd 34 c8 0e bc
       -0.029738039 -0.057869826 -0.03135251 -0.008714724
000100 0b 72 87 bc 0e 7a 0f bd 3f 81 c6 3c 71 8a ac 3d
       -0.016533872 -0.03502851 0.024231551 0.08424843
000110 8a 3e 16 3d d5 1f 9c 3d 04 35 47 bd f0 92 92 bb
       0.036680736 0.07623259 -0.048634544 -0.0044730827
000120 9e ef 84 bd b9 ac 0b bc 6b 78 cc 3d dd 4a 02 bd
       -0.06491016 -0.008525067 0.099839054 -0.031809676
000130 4c cc df 3b 6e df 07 bd 56 23 17 3d b8 41 c2 3c
       0.006829774 -0.033172064 0.036898933 0.023712978
000140 71 d4 d7 3c 0a bb eb bb 9c 93 b0 3c 7a 41 a9 bc
       0.026346417 -0.0071939277 0.02155476 -0.020661104
000150 3d c4 ba 3c 7e 1d 19 bc 32 a4 35 bd 60 5c f9 bc
       0.022798652 -0.00934541 -0.044346042 -0.030439556
000160 a7 b8 80 3d e1 fe bd bd 22 1b 74 3a 6f da 0c bd
       0.0628522 -0.0927713 0.00093119044 -0.034388002
000170 70 21 3b 3d aa 1f e1 3c cf d9 f0 bc 2a c2 93 3c
       0.045686185 0.027480919 -0.029400734 0.01803692
000180 d5 c6 1f bd b5 96 42 bb 17 4c a5 bb 31 f0 06 3d
       -0.03900798 -0.002969188 -0.005044471 0.032943908
000190 9c 66 3f bd 4c b3 4b bd 84 c2 1f bc 9f 86 99 3d
       -0.046728715 -0.049731538 -0.009750966 0.0749638
0001a0 d5 c7 8b 3c 94 55 25 3b 50 ca 9d 3b 9e e1 5a 3d
       0.01706306 0.002522801 0.0048153773 0.05343782
0001b0 9f d9 fb 3c 1b f2 53 3d de 71 33 3c 61 05 76 bb
       0.030743418 0.05174456 0.010952441 -0.0037539827
0001c0 be e4 8d bc ef 0c 62 3d ef f2 57 bc 04 0c 82 3b
       -0.017320987 0.055188116 -0.0131804785 0.0039687175
0001d0 8e 5c a3 bd f0 cb f3 3c 3f b3 10 3d 34 34 76 bd
       -0.07976638 0.02976033 0.035327192 -0.06010838
0001e0 3c 1c 25 3a fd 20 ce bc 07 b9 81 b7 bc b0 67 bd
       0.0006298458 -0.025162214 -1.5464158e-05 -0.05656503
0001f0 bc 29 85 bc a2 41 91 bd 77 c2 27 bd fb 90 2f bd
       -0.016255252 -0.070925966 -0.04095694 -0.042862874
000200 da 12 67 bc 14 ac 9b 3b be c3 e3 3c cb 9e cb 3c
       -0.014103616 0.004750738 0.027803298 0.024855992
000210 56 f8 b4 bc 41 00 b6 3c 12 00 c8 bc 27 65 38 3d
       -0.022091072 0.022216918 -0.024414096 0.04501834
000220 a1 8f 90 bc b7 07 98 b8 73 41 98 bc df dc db bb
       -0.017646613 -7.249362e-05 -0.018585896 -0.0067096795
000230 9f f4 a6 bd 0a 77 89 bd 7b f2 f2 bb cc 56 d2 3c
       -0.081521265 -0.06712158 -0.00741416 0.025676154
000240 3f 55 9a 3d 4d a4 68 bd 00 d6 9f bc 67 79 1c 3d
       0.07535791 -0.056797314 -0.019511223 0.038201716
000250 12 07 2d 3d 29 aa 6d 3d ab 75 98 3c a3 45 7a bd
       0.04224307 0.058023605 0.018610796 -0.061101567
000260 9e 11 2f 3d 9b 73 df bc de 29 43 3c b5 fb cf 3c
       0.04274141 -0.027276805 0.011911837 0.025388578
000270 ac b9 45 bd 34 a5 a3 bc 97 5d 45 3a 46 63 d0 3c
       -0.048272774 -0.019976236 0.00075288996 0.025437962
000280 13 3c 21 bb 4a 2c 0d bd d7 4f 5c bc 63 4e 3a 3d
       -0.0024602457 -0.034466065 -0.01344677 0.04548491
000290 48 b1 cb 3c 0a 25 58 3a bf fd f0 bc c3 df 12 bd
       0.024864808 0.00082452653 -0.02941787 -0.035857927
0002a0 41 38 7e bc d3 2b f2 3b 2a fa 2c bd 7d fd 28 bd
       -0.015516342 0.007390478 -0.042230763 -0.04125737
0002b0 ac e8 99 3c 98 b4 d9 bc 2e 95 1c bd 84 68 8f bb
       0.018787704 -0.026575372 -0.038228206 -0.004376473
0002c0 2b 5d c6 bb f3 6c f2 bc ba e4 f0 3c 44 12 65 bc
       -0.006053587 -0.029592967 0.02940594 -0.013981406
0002d0 61 d5 54 bc 4b 45 87 3d 2a 74 12 3c 95 e1 99 3c
       -0.012990327 0.066050135 0.0089388285 0.018784324
0002e0 23 24 88 3c b1 c3 fd 3c 95 53 7e bc 95 89 e9 3a
       0.016618794 0.030977102 -0.015522857 0.0017817492
0002f0 6a 4c 01 3d 5c 35 af bc bb 0a 0d 3c cd 00 dd bc
       0.031567015 -0.021387748 0.008608515 -0.02697792
000300 d8 b6 ba 3c a9 57 09 bc f2 36 0b 3d ca f2 9f 3d
       0.022792265 -0.008382716 0.033987947 0.0780998
000310 46 07 3f 3c d4 87 4c 3d 82 34 36 bd 4c 61 b3 3c
       0.011659449 0.049934223 -0.04448367 0.02189698
000320 90 58 9b 3c 03 7b 15 3d ab 65 9b 3b d9 b7 b3 bc
       0.018963128 0.036494266 0.0047423444 -0.021938251
000330 c8 e7 a5 3d 20 30 65 3c 05 2b cb 3c af 25 82 3d
       0.081008494 0.013988525 0.024800787 0.06354844
000340 82 60 2d bd 89 f0 3e bb 40 c8 97 3c 1b 31 4c bc
       -0.042328365 -0.002913507 0.018528104 -0.0124628795
000350 de 58 39 bd d4 81 29 bd 6f 2d 1b 3b 50 45 20 3d
       -0.045250766 -0.04138358 0.0023678204 0.0391286
000360 b1 f2 12 bd ef d4 85 3d 0d 4d 66 3c 9b 28 b1 3c
       -0.03587598 0.065347545 0.014056456 0.021625808
000370 48 0b aa 3c 8f b4 37 3d fa ab 82 bc 55 3f f6 3b
       0.020757332 0.04484993 -0.015951145 0.007514874
000380 7a 99 0c bd 46 24 50 3c 2b 4d 06 ba 94 92 40 bc
       -0.034326054 0.012703961 -0.0005123193 -0.011753697
000390 c0 9d c9 bc 9b 30 68 bd 71 f9 70 3b 6e 19 bb bb
       -0.024611354 -0.05668698 0.0036769772 -0.0057098186
0003a0 74 f6 7d bc 6c 2c 58 bd ff 02 b2 bc cc 55 66 3d
       -0.015500654 -0.05277674 -0.021729944 0.056234166
0003b0 02 8d 53 bd f6 03 98 bc 52 e6 21 bd b2 f5 12 3d
       -0.051648147 -0.018556576 -0.03952629 0.035878845
0003c0 21 2f 84 3c 30 84 25 3c a0 d5 97 3c 87 ee f4 3d
       0.016135754 0.010102317 0.018534482 0.11959558
0003d0 11 76 06 bd 55 7b 4c bb 74 8a 62 3d 25 f6 39 bc
       -0.03282744 -0.0031201441 0.05530782 -0.011350189
0003e0 1b 9e 04 3d e5 20 0c 3d a8 95 8d bd 8e d5 01 3d
       0.032377344 0.03421106 -0.0691331 0.031697802
0003f0 2a 74 30 bb a9 5a 40 bc 05 d5 e1 3c be 93 45 bd
       -0.0026924708 -0.011740365 0.027567396 -0.0482366
