data/videos/.working/embeddings/s_w3EJ2Jzw0.npy (npy, 30848 bytes, 1 tensors)

array f4 [10, 768]
000000 a1 58 bd 3b 2b b8 c2 bc ab 68 1c 3d b7 e7 2a 3c
       0.0057783877 -0.023769459 0.038185757 0.010431222
000010 4c 91 ec bd 82 f6 9d bd d6 ac 80 3c 7c 1b 9e bc
       -0.11551151 -0.07713033 0.015707415 -0.019300215
000020 ec b5 56 3d 44 c7 16 3d 17 7f 88 bc 9d 3c a3 bd
       0.052419588 0.03681113 -0.016662164 -0.079705454
000030 03 27 32 3c 3f 39 94 bd a8 ee 39 bd 7b 3b 9a 3d
       0.010873559 -0.07237481 -0.045393616 0.07530876
000040 fe e9 19 3c 88 5f 67 3d b5 67 1d bd bb 32 5c bc
       0.009394167 0.05648759 -0.03842898 -0.013439829
000050 d9 c4 9e 3c 76 91 08 bd 12 d5 2c 3d 8b 50 61 bc
       0.019380974 -0.033341847 0.042195387 -0.013752113
000060 22 b5 ff 3b d5 b6 c7 ba 7c 2a 4a 3c 85 2a e0 bc
       0.007803575 -0.0015236983 0.012339231 -0.027364025
000070 94 8e 2d bd 7f e9 12 bc 28 25 8a 3b b6 c9 ff bc
       -0.0423723 -0.008966803 0.004215855 -0.031224113
000080 ba d2 71 3d d1 ab c4 bc ac a2 88 3d bb be 4c bc
       0.059038855 -0.02400771 0.06671652 -0.012496646
000090 2f 1b 42 bc fd 53 92 3b 5b d7 ea bc 35 6b 29 bd
       -0.011847301 0.0044655786 -0.028667143 -0.041362006
0000a0 f3 b8 3a bd 14 a4 7f 3d 9f dc 30 bd c8 fe 8c 3d
       -0.045586538 0.062412336 -0.04317915 0.06884533
0000b0 3b 0f ac 3c e4 cb 8f bc 63 b5 fa bc 59 a5 01 bc
       0.021003356 -0.017553277 -0.03060407 -0.007912957
0000c0 1d 38 26 3c ce 51 9e bb ed 4d de 3c e7 c0 3d 3c
       0.010145214 -0.004831529 0.027136767 0.011581636
0000d0 61 02 8a bc 50 55 0f 3d 44 bb 57 3a c0 b9 a9 3c
       -0.016846837 0.03499347 0.0008229504 0.020718455
0000e0 96 13 bd bc cb 1e 44 bd 95 18 89 bc ed c0 9e 3d
       -0.023080628 -0.04788093 -0.016735354 0.077516414
0000f0 34 8c 15 bd da 38 4b bd 38 8f 82 bd 45 c3 34 bb
       -0.03651066 -0.049614765 -0.06374973 -0.002758221
000100 1e f9 87 bc 53 a1 30 bc 2a 46 e8 bc 0c d5 17 bc
       -0.01659828 -0.01078065 -0.02835377 -0.009267103
000110 c0 60 fd 3c ea a8 6b 3d 91 55 2c bd 4c 33 af 3b
       0.030929923 0.057534136 -0.04207379 0.0053466912
000120 d8 ad 23 bd d2 5f 0c bd 4b 74 b4 3d 63 49 9a 3b
       -0.039960712 -0.03427107 0.088112436 0.0047084554
000130 a7 63 a2 bc 2d 81 07 bd a2 d0 17 3c b0 c7 18 bd
       -0.019822909 -0.033082176 0.0092660505 -0.03729981
000140 ae 4d 3f bc bc fb a7 3c c7 33 1a bd 04 f0 ae bc
       -0.011676235 0.020505778 -0.037647035 -0.021354683
000150 c8 84 35 3d bc 9f 68 3d 6c 87 5f bc 06 24 17 3c
       0.044316083 0.05679296 -0.013643127 0.009224897
000160 ff 45 af bb 4b 10 30 bd ce 6f 40 3d e4 ce 42 bd
       -0.0053489204 -0.04298429 0.046981625 -0.047560588
000170 bf 07 17 3d 1a e8 b3 3a 1f 28 26 3c 38 fb df 3b
       0.03687262 0.0013725788 0.010141402 0.0068353675
000180 2f a0 3d bd ec 8e 0c 3d 9c 48 6f 3d 89 3b 0a bd
       -0.04629534 0.03431599 0.058418855 -0.033748183
000190 e0 e3 e0 3c 02 3e 1e bc 7c 17 80 3d 28 a2 e0 3d
       0.02745241 -0.0096583385 0.06254479 0.10968429
0001a0 a0 10 24 ba ad 0f 91 3b 08 38 22 3c ff c8 54 3d
       -0.0006258581 0.0044269175 0.009901054 0.051949497
0001b0 26 36 ce 3c d1 6a 46 3d 43 0f ce 3c 27 9c 2b bd
       0.025172304 0.04844171 0.025153762 -0.041896965
0001c0 b9 20 44 bd 3f 52 68 3c 5d 0d a3 ba 32 38 be bc
       -0.04788277 0.014179765 -0.0012439896 -0.023220155
0001d0 f1 46 68 bb bf cd 60 3d d1 cd 17 3d c8 0d 66 3b
       -0.0035442675 0.054883715 0.037061516 0.003510343
0001e0 1e 54 40 3c 08 11 c1 bc dd 35 85 bb a4 5b 74 bd
       0.011738805 -0.023567691 -0.004065259 -0.059657708
0001f0 64 22 51 bd e4 66 84 bc 05 8c 03 bd 29 88 6b bd
       -0.051058188 -0.016162343 -0.032115955 -0.0575029
000200 8f 5a 5c bc f3 e2 d1 ba ed bb 9a 3d 67 78 2e bc
       -0.013449325 -0.0016013071 0.07555375 -0.010648823
000210 1d 9f 73 bd 7c f7 97 3c 93 7d bc bc 3a fd 1d bd
       -0.059477914 0.018550627 -0.023009097 -0.038571574
000220 69 e6 5f bd 9e 10 b7 bc 54 60 fc bc e9 d4 cd bc
       -0.054663096 -0.02234679 -0.030807652 -0.025125938
000230 ea 2b 18 bb a2 25 dc bd 30 72 1d bc 15 a5 8c 3d
       -0.0023219534 -0.107493654 -0.009609744 0.068674244
000240 cc ff 92 3d 03 72 d6 bc 6b 6d bb bd cd dc 2c 3c
       0.07177696 -0.026177412 -0.09151729 0.01055069
000250 37 34 bc bc 0b 03 a5 3d d4 3b a7 bb c0 89 d4 3c
       -0.022974117 0.08057221 -0.0051035676 0.02594459
000260 4a 5a 29 38 54 76 55 bd f1 9f 88 bc 67 73 4c bd
       4.0376828e-05 -0.0521148 -0.016677829 -0.049914744
000270 9f 4f e6 3c 71 22 9c 3c 00 6c 3e bd 4e 21 cd 3c
       0.028114138 0.019059392 -0.046489716 0.025040295
000280 32 e9 39 bd 96 64 04 bd 7a 5f 7d bc 62 03 18 3d
       -0.045388408 -0.03232249 -0.015464658 0.0371126
000290 60 51 81 3a d6 d8 e2 3c 21 3a d6 3c 7b 5b 41 bc
       0.0009866171 0.027691286 0.026150765 -0.011801596
0002a0 fb bc 4e bd 92 15 ef bb 3a de 61 bc cf e0 a2 bb
       -0.050473195 -0.0072962726 -0.013785893 -0.004970647
0002b0 c5 f5 dd 3c 68 7c c1 3a d1 b5 33 bd 3e 59 3a bd
       0.027094731 0.0014761807 -0.043874566 -0.045495264
0002c0 3c 76 b8 bc 3f 54 a8 3c 10 71 50 3c dc c4 62 3d
       -0.022517316 0.020547984 0.012722269 0.05536352
0002d0 36 6f d8 bc 19 73 8f 3c 18 af c3 bc 29 81 61 3d
       -0.026420217 0.017510938 -0.023887202 0.055054817
0002e0 20 4d 9a bc 7e c8 24 bc e9 b6 fd 3b 13 a8 fd 3a
       -0.018835604 -0.010057567 0.007742752 0.0019352458
0002f0 73 9c 93 3d 41 50 93 3a 90 2f 2e 3c 91 d9 fa bc
       0.07207575 0.0011239127 0.010631457 -0.030621322
000300 b6 02 80 3c 8f 96 0b bc c7 74 df 3c b3 b0 1b 3b
       0.015626293 -0.008519783 0.027277363 0.0023756444
000310 c4 1b 0c 3c 2b 96 65 3d 4c ba ff bc 0e c7 21 3c
       0.008551542 0.056051414 -0.031216763 0.0098741185
000320 3c 39 af 3b 67 a1 ba bc 9d 6a a1 bd da 0d b8 ba
       0.005347399 -0.02278204 -0.07881663 -0.0014042214
000330 85 a5 db 3c be d7 1f 3c 6d cb c8 bb 10 05 c2 3b
       0.026812324 0.009756027 -0.006127766 0.0059210137
000340 49 83 02 bc 32 7f 9d 3c 07 e2 d6 3c 1c 49 04 3d
       -0.007965871 0.01922569 0.026230825 0.032296285
000350 91 9d 89 bd 06 ea cb bd 83 30 3b 3d 3c 99 f8 3b
       -0.067195065 -0.09956746 0.04570056 0.0075866263
000360 d1 7d 1a bc c2 a6 d2 3c 0a 35 e4 b9 8c d1 25 bc
       -0.009429411 0.025714282 -0.00043527066 -0.010120761
000370 8c b3 bf bc 84 7d 03 3b f5 9f ba 3c f4 a7 05 3d
       -0.023401044 0.0020063827 0.022781352 0.032630876
000380 21 43 eb bb 79 99 c3 bc 00 a3 9d bd 6b a3 ab b9
       -0.0071796332 -0.023876892 -0.076971054 -0.00032737417
000390 91 4b 63 3c ea f7 01 bd fa c1 25 bb ef b0 4b bc
       0.013872997 -0.03173057 -0.002529262 -0.012432321
0003a0 e9 d2 0e 3d 1f 82 92 bd 60 28 03 3d 5e 4b 97 bd
       0.03486911 -0.07153725 0.032020926 -0.07387422
0003b0 30 21 c2 3c 12 3c 34 bc 37 04 84 3c b4 a0 9f bd
       0.023697466 -0.01100065 0.016115291 -0.077943236
0003c0 73 e8 b5 bc ce 5a 12 bc 86 c7 aa bc dc 5c ca 3d
       -0.022205567 -0.008932782 -0.020847093 0.09880993
0003d0 94 1d 50 3c 53 17 24 bb 56 97 c8 3c d2 de 24 3d
       0.0127023645 -0.0025038316 0.024486225 0.04025156
0003e0 44 05 da 3b e3 a4 52 bc cb 8d 2a bd fc a7 1f 3d
       0.0066534597 -0.012856695 -0.04163913 0.03897856
0003f0 e4 1b e8 3c a2 32 f0 3b f1 19 4b bd 1b ce bc 3c
       0.028333612 0.0073302547 -0.049585287 0.023047497
