data/videos/.working/embeddings/UbUdyE1_b9g.npy (npy, 3200 bytes, 1 tensors)

array f4 [1, 768]
0	0xbc687fc8	-0.014190622
1	0x3c4f528b	0.012653957
2	0x3c628abf	0.013827025
3	0x39b215f7	0.0003396717
4	0xbc355cdb	-0.011069502
5	0x3be258ef	0.0069075744
6	0xbd987228	-0.074436486
7	0x3cb50a6c	0.022099696
8	0xbd3aa2d7	-0.045565452
9	0xbd2cd4d2	-0.04219515
10	0x3ca8edd1	0.020621212
11	0xbbabaddc	-0.0052392315
12	0xbd02b982	-0.031915195
13	0xbd0a60d2	-0.03378374
14	0xbd1ef772	-0.0388102
15	0x3d23d436	0.039997302
16	0x3d4b9524	0.04970278
17	0x3d8bc2d3	0.06824269
18	0xbd11b88e	-0.035576396
19	0xbc5bf024	-0.013423953
20	0xbcf6d580	-0.030131102
21	0x3c3d3d5a	0.011550272
22	0xb8269143	-3.971277e-05
23	0x3ca9a1f2	0.020707104
24	0xbc984583	-0.018587833
25	0x3cd0c6af	0.025485365
26	0xbd2cfb70	-0.042231977
27	0x3d053698	0.032522768
28	0xbd665a34	-0.05623837
29	0x3b92154b	0.0044581047
30	0x3a8608c4	0.0010226001
31	0xbcbbfb0c	-0.022946857
32	0x3ca5d675	0.020243863
33	0x3b7c5cf2	0.0038507548
34	0x3c82aef0	0.015952557
35	0x3c43113d	0.011905965
36	0xbd65282e	-0.05594652
37	0xbd412d77	-0.0471625
38	0xbc9a5d19	-0.01884322
39	0xbd03ef41	-0.032210592
40	0xbc9350b0	-0.01798281
41	0x3d124789	0.035712752
42	0x3b12b3b1	0.0022384936
43	0x3cf80238	0.030274495
44	0xbd36e484	-0.044651523
45	0x3c85a5de	0.016314443
46	0xbd183ff9	-0.037170384
47	0xbb04109d	-0.0020151504
48	0x3b3e2542	0.0029013907
49	0x3bd7d447	0.0065865847
50	0xbcd54901	-0.026035788
51	0x3cdbc8e4	0.02682919
52	0x3c4d107a	0.012516135
53	0x3c673bcc	0.014113378
54	0xbc83ae64	-0.016074367
55	0x3cd46c22	0.025930468
56	0x3ce5fcc1	0.028074624
57	0xbdb9aa65	-0.09065703
58	0xbdb431d9	-0.0879857
59	0x3d14a581	0.03629065
60	0xbd123190	-0.035691798
61	0xbd5a540a	-0.053302802
62	0x3b5dbca7	0.003383437
63	0x3d1161af	0.03549355
64	0xbd29bcb6	-0.041439734
65	0x3b89b606	0.004202607
66	0x3a17b7e5	0.00057875953
67	0xbcefd1c1	-0.029274823
68	0x3d59bd94	0.05315931
69	0x3deb8b0d	0.11501131
70	0xbc2086d6	-0.009797772
71	0x3c9d894b	0.019230505
72	0xbcd73da7	-0.026274515
73	0x3d1ef6a4	0.038809434
74	0x3dbdba94	0.092641026
75	0xbd74564c	-0.05965261
76	0x3b3bab12	0.0028635901
77	0x3c95c233	0.018281078
78	0x3d003add	0.031306136
79	0xbd1f1937	-0.038842406
80	0x3c3b9990	0.011450186
81	0xbcd1dd4f	-0.025618223
82	0xbcb10137	-0.021607025
83	0x3cd4e699	0.025988864
84	0x3c849782	0.016185526
85	0x3cd71054	0.026252903
86	0xbcc2c1b8	-0.023774013
87	0x3c191e7d	0.009345648
88	0x3b074ded	0.0020645813
89	0xbd382485	-0.044956703
90	0xbcebec22	-0.02879912
91	0x3af2763e	0.0018498374
92	0x3c9e1ff6	0.01930235
93	0xbd17c7ba	-0.03705571
94	0xbc20be5c	-0.00981101
95	0xbc7db5cf	-0.015485241
96	0x3c2c5352	0.010517912
97	0x3d4f64ce	0.050633244
98	0x3d26165d	0.04054867
99	0x3cb181ff	0.021668432
100	0x3aa68133	0.0012703299
101	0x3bca622b	0.0061762533
102	0x3c30e1e7	0.010796047
103	0x3da5bf7d	0.08093164
104	0xbd655605	-0.055990238
105	0x3aaa1d89	0.0012978773
106	0xbd90bb4c	-0.07066974
107	0x3cb436a6	0.021998715
108	0x3cf42a60	0.029805362
109	0x3d90bd81	0.07067395
110	0xbbf66879	-0.0075197783
111	0xbc351f9b	-0.011054899
112	0xbc895a8e	-0.016766813
113	0x3d276349	0.04086617
114	0xbc6db8da	-0.014509404
115	0x3d17faae	0.0371043
116	0xbd85e3e2	-0.06537606
117	0xbc8f3512	-0.01748136
118	0xbd0c34d8	-0.034230083
119	0xbc886d24	-0.016653605
120	0x3d85d4ea	0.06534751
121	0x3ce3d451	0.027811201
122	0x3cf2c3be	0.029634353
123	0xbc93b2ea	-0.018029649
124	0xbdac5baa	-0.08415921
125	0xbd256cf4	-0.04038711
126	0xbd6f973c	-0.058493838
127	0xbdcd7ccd	-0.100335695
128	0x3d300395	0.042972166
129	0x3cd05cbe	0.025434848
130	0x3d9449dc	0.0724065
131	0xbca2bb7e	-0.019864794
132	0xba22feda	-0.00062177854
133	0x3c5082ac	0.012726467
134	0x3b53bb57	0.0032307708
135	0xbd1a562a	-0.03767983
136	0xbc0259f0	-0.007956013
137	0x3d266529	0.040623818
138	0x3d015db2	0.031583495
139	0x3c84ad7c	0.016196005
140	0xbd2ea476	-0.04263731
141	0xbdbb9aef	-0.091604106
142	0xbd3a9c8e	-0.04555946
143	0x3cc3fe9e	0.023925122
144	0x3d7b7b39	0.06139681
145	0x3b900d2e	0.0043961024
146	0xbd4fc4b8	-0.050724715
147	0x3c70c6df	0.014695852
148	0xbc3bacbf	-0.01145476
149	0x3b6f911f	0.0036555005
150	0x3c57131e	0.0131271165
151	0xbd1d5d3f	-0.038419005
152	0x3993091d	0.00028044815
153	0xbca31544	-0.019907601
154	0x3c5799a3	0.013159188
155	0x3ca6be1b	0.020354321
156	0xbd2df79c	-0.042472467
157	0xbc27af28	-0.010234632
158	0xba715b6e	-0.00092070445
159	0x3c311993	0.01080932
160	0xbce3d10c	-0.027809642
161	0xbb14a85b	-0.0022683355
162	0x3c485e60	0.012229532
163	0x3c820bef	0.015874831
164	0x3d1c2738	0.03812334
165	0x3b66e10c	0.0035229353
166	0x3b84924a	0.0040457593
167	0x3cb8abb3	0.02254281
168	0x3cdb1153	0.02674166
169	0xbb9ac8a1	-0.004723624
170	0x3bc97e43	0.006149085
171	0xbc431657	-0.011907182
172	0xbd3f788e	-0.04674583
173	0x3d12057b	0.035649758
174	0xbcfcf961	-0.030880632
175	0xbd6312a6	-0.055437706
176	0xbd23c3d5	-0.03998168
177	0x3bc34320	0.0059589297
178	0x3c1f34f6	0.009717217
179	0x3bf025a5	0.0073287063
180	0xbb0514d8	-0.0020306613
181	0x3d5a6b6f	0.053325113
182	0xbcdbc572	-0.026827548
183	0x3ce4a8fb	0.027912607
184	0xbc9d5869	-0.019207196
185	0x3cb9d780	0.022685766
186	0xbd04a95e	-0.032388084
187	0xbc972020	-0.018447936
188	0x3ce82744	0.028339036
189	0xbd67a056	-0.056549393
190	0x3d36a102	0.044587143
191	0x3bfa8400	0.00764513
192	0xbd13332b	-0.03593747
193	0xbd094ff7	-0.033523526
194	0x3ce27d06	0.027647506
195	0x3d2a7171	0.041612092
196	0x3d170ed7	0.036879387
197	0xbc309d59	-0.010779702
198	0xbd7d70e0	-0.061875224
199	0x3cbc210b	0.022964975
200	0xbc5a02de	-0.013306348
201	0xbd0c3196	-0.034226976
202	0xbb2c3f9a	-0.0026283027
203	0xbc463c1f	-0.012099295
204	0x3c9297a2	0.01789457
205	0x3c34df0c	0.011039507
206	0xbc9a553a	-0.018839467
207	0x3d908729	0.0705703
208	0xbd0a754f	-0.03380328
209	0x3d03a84d	0.032142926
210	0x3d60e7c0	0.054908514
211	0x3cc9a34e	0.024614003
212	0xbd3428f0	-0.043984354
213	0x3a8697cc	0.0010268628
214	0x3d427e21	0.047483567
215	0xba837e95	-0.0010032231
216	0xbc97b8c2	-0.018520717
217	0x3c8e9260	0.017403781
218	0xbb928bff	-0.0044722552
219	0xbc6dc681	-0.014512659
220	0x3bed6441	0.007244617
221	0x3ca749be	0.020420905
222	0x3c1f4f98	0.0097235665
223	0xbd1961d1	-0.0374468
224	0xbc864aec	-0.016393147
225	0x3dad8f34	0.084745795
226	0xbbdd8424	-0.006760137
227	0x3ce693bc	0.028146617
228	0x3c8a7518	0.016901538
229	0xbcf3eed6	-0.029776972
230	0x3d00486a	0.03131906
231	0x3bd271f3	0.006422275
232	0x3ccd4afa	0.025060166
233	0xbd3040e2	-0.043030627
234	0x3d44881b	0.047981363
235	0x3c9cce9d	0.01914149
236	0xbc9cc2e1	-0.019135894
237	0xbcdb13b3	-0.026742792
238	0xbd89b558	-0.06724042
239	0xbb4acb30	-0.0030943863
240	0x3c5a31e2	0.013317557
241	0x3d48b197	0.048997488
242	0xba36e03f	-0.00069761643
243	0x3dd9384f	0.10606443
244	0xbceaf36b	-0.028680524
245	0xbacbefa5	-0.001555909
246	0x3cc57edd	0.024108345
247	0x3b74a5a5	0.0037330177
248	0x3d334586	0.043767475
249	0xbd0f8c56	-0.035045944
250	0xbd0a911d	-0.033829797
251	0x3d831e5c	0.06402275
252	0x3d11c538	0.035588473
253	0xbd15dd1b	-0.036587816
254	0xbcc7323f	-0.024315951
255	0x3c53e01d	0.012931851
