data/videos/.working/embeddings/w00eCt3i9KM.npy (npy, 15488 bytes, 1 tensors)

array f4 [5, 768]
0	0x3c1e7bee	0.009673102
1	0xbd10f20e	-0.03538709
2	0x3ca2cf36	0.019874196
3	0xbb3d219e	-0.0028859149
4	0xbd1ddb08	-0.038538963
5	0xbc4f5fe9	-0.012657144
6	0xbd4ceee5	-0.050032515
7	0xbcee41be	-0.029084083
8	0x3a142e23	0.0005652627
9	0xbc69b0ff	-0.014263391
10	0xbd1dc69c	-0.038519487
11	0xbd27fd42	-0.04101301
12	0xbab66f2a	-0.0013918628
13	0xbcc99f01	-0.024611952
14	0xbd0a8174	-0.033814862
15	0x3db002e4	0.08594301
16	0x3cd04c2c	0.025426947
17	0x3cac3a34	0.021023847
18	0xbdb8a338	-0.090155065
19	0x3d2b1325	0.041766305
20	0xbd460b37	-0.04835054
21	0x3ba0aee1	0.0049036597
22	0x3c68998a	0.014196763
23	0x3ad5dd95	0.0016316647
24	0xbc639ea8	-0.013892807
25	0xbb8ac18d	-0.004234499
26	0x3b939478	0.004503783
27	0x3c4f40cf	0.012649729
28	0xbc6cb60e	-0.014447702
29	0x3dc421e0	0.09576774
30	0x3be39077	0.006944712
31	0xbd028f76	-0.031875096
32	0xbd226290	-0.039644778
33	0x3c000f4e	0.007816149
34	0x3cdad7c0	0.026714206
35	0xbc5d2e1c	-0.013499763
36	0xbd02a4bd	-0.031895388
37	0x3c08c6bd	0.008348164
38	0xbcc2545e	-0.02372187
39	0xbc95deba	-0.01829468
40	0xbd3103b4	-0.043216422
41	0x3d3afb4c	0.04564981
42	0xbd86c1b5	-0.065799154
43	0x3d566de9	0.052350912
44	0xbca50b86	-0.020147096
45	0x3cd3678d	0.025806213
46	0xbd4ae567	-0.04953518
47	0xbcf7028a	-0.030152578
48	0xbc872409	-0.016496675
49	0xbce958ff	-0.02848482
50	0x3dae44d4	0.08509222
51	0xbcb0df31	-0.021590801
52	0xbd573a4f	-0.05254584
53	0xbce1c5d9	-0.027560161
54	0x3aaac4bf	0.0013028606
55	0xbcc15b55	-0.02360312
56	0xbceec674	-0.029147364
57	0x3bace185	0.0052759075
58	0xbd8ad54e	-0.06778966
59	0x3d24f450	0.040272057
60	0xbd97ed39	-0.074182935
61	0xbd12365a	-0.035696365
62	0x3d3a738d	0.045520354
63	0xbd6535d2	-0.05595953
64	0x3c94bd8e	0.018156793
65	0xbd10f4d3	-0.035389733
66	0x3c3fea90	0.011713639
67	0x3c36d5bc	0.011159357
68	0x3d5fb32a	0.054614224
69	0x3d899f0e	0.067197904
70	0x3bee3006	0.0072689084
71	0xbcc24ea9	-0.023719149
72	0x399715f0	0.0002881731
73	0x3b0b8804	0.0021290788
74	0x3d5d33cc	0.054004475
75	0xbbeb1fb3	-0.0071754097
76	0xbbee4c94	-0.0072723124
77	0x3c46e130	0.01213865
78	0x3c86f10d	0.016472364
79	0x3b8926b1	0.0041855206
80	0x3ca37c31	0.01995668
81	0xbc864ea8	-0.016394928
82	0x3d51de8d	0.05123763
83	0xbc8858ca	-0.0166439
84	0x3b8c0116	0.0042725904
85	0x3d9543c3	0.07288315
86	0xbd3519e8	-0.04421416
87	0xbd21b097	-0.03947505
88	0x3d0fcfaa	0.035110153
89	0xbdccc51c	-0.09998533
90	0x3c83f365	0.01610727
91	0xbca611cd	-0.02027216
92	0x3d0a7915	0.03380688
93	0x3cb913dd	0.02259248
94	0x3caded3f	0.021231292
95	0x3cab9c6c	0.020948611
96	0xbbe2a253	-0.006916323
97	0x3d3f6582	0.046727665
98	0xbbd9de33	-0.0066488027
99	0xbd021b81	-0.03176451
100	0x3d979a0b	0.07402428
101	0xbce1aa24	-0.02754695
102	0x3cab16ac	0.020884834
103	0x3da9652d	0.08271251
104	0xbdc3328a	-0.09531124
105	0x3cb05ff5	0.02153013
106	0xbd9dc685	-0.0770388
107	0x3d31e675	0.04343267
108	0x3ccb548e	0.024820592
109	0x3dafa01f	0.085754625
110	0xb9d6c70d	-0.00040965565
111	0x3d0c5d8f	0.034268912
112	0xbd1828df	-0.037148353
113	0x3d4bfd2c	0.04980199
114	0x3baf33c1	0.0053467457
115	0x3c340626	0.010987794
116	0xbbfce721	-0.0077179824
117	0x3c19190a	0.009344349
118	0x3d5bb70e	0.05364137
119	0xbc5a3a6d	-0.013319594
120	0xbbcc5031	-0.0062351455
121	0xbd4c0388	-0.049808055
122	0x3c276050	0.010215834
123	0xbd38b339	-0.045092795
124	0x3bd5773e	0.006514459
125	0xbd1e7cf7	-0.038693395
126	0xbd0fc5ab	-0.03510062
127	0xbd35cd91	-0.044385497
128	0x3cd160aa	0.025558788
129	0x3cf3b908	0.029751316
130	0x3d3a5f2b	0.045500915
131	0x3aa79223	0.0012784641
132	0xbd52eada	-0.051493503
133	0xbd1ad3dc	-0.0377997
134	0xbc759c27	-0.014990843
135	0xbc61371a	-0.013746047
136	0xbc9e1a4f	-0.019299654
137	0xbb4ca632	-0.003122699
138	0xbca6cad0	-0.02036038
139	0x3d0762a2	0.033053048
140	0xbd037fa8	-0.032104164
141	0xbde5faf7	-0.11229508
142	0x3c8db93e	0.017300244
143	0x3daa4819	0.08314533
144	0x3d863e59	0.065548606
145	0xbbc50f98	-0.006013822
146	0xbdd250b9	-0.10269303
147	0xb8ab775f	-8.17615e-05
148	0xbd002d1b	-0.031293016
149	0xbc04bf2b	-0.008102219
150	0x3d22393f	0.039605375
151	0xbcf2e334	-0.029649355
152	0xbc7a8c1e	-0.015292196
153	0xbc52e70b	-0.012872468
154	0x3a0a6a88	0.00052801566
155	0x3dabb6a4	0.08384445
156	0x3d0db5ce	0.03459721
157	0xbc8d0aa3	-0.017216986
158	0xbc0eb56c	-0.0087102465
159	0xbc9120d9	-0.017715858
160	0xbb3c43c7	-0.0028726922
161	0x3b475bd1	0.0030419717
162	0xbd3062aa	-0.043062843
163	0x3cf9c430	0.030489057
164	0x3c119a42	0.008886876
165	0x3d408f1f	0.04701149
166	0xbabcd9da	-0.0014408187
167	0x3badb38c	0.0053009447
168	0xbc721e2c	-0.014777701
169	0x3b12a68f	0.0022377109
170	0xbca11e39	-0.019667732
171	0x3b90f78c	0.004424041
172	0x3caa059c	0.020754628
173	0x3ccbc3f6	0.024873715
174	0xbd898972	-0.06715669
175	0xbd6ee345	-0.05832221
176	0x3b26fe58	0.002548119
177	0xba82bec7	-0.0009975069
178	0x3c3ee1ed	0.011650545
179	0x3c5776eb	0.013150911
180	0x3c9348d3	0.017979061
181	0x3c999e4f	0.018752245
182	0x389a93b7	7.370806e-05
183	0x3d2859d4	0.04110129
184	0x3c413d0c	0.01179434
185	0x3c1d1b48	0.009589024
186	0xbd333230	-0.043749034
187	0x3cb0d653	0.021586573
188	0x3d08cc40	0.033397913
189	0xbbe3b7e5	-0.006949412
190	0x3d0edaf2	0.03487677
191	0xba92b445	-0.001119264
192	0xbd8bfd01	-0.06835366
193	0xbcd80bc2	-0.026372794
194	0x3d1e811e	0.038697354
195	0x3d27e5ba	0.04099057
196	0xba4f8ac3	-0.00079171004
197	0x3c6f014f	0.014587714
198	0xbd82cb80	-0.06386471
199	0x3d15bfe7	0.036559965
200	0xbd136e25	-0.035993714
201	0x3d3a80c7	0.045532968
202	0xbdce4dcc	-0.10073432
203	0xbd29e707	-0.04148009
204	0x3d3e6607	0.04648402
205	0xbc639ba4	-0.013892088
206	0xbd01f5b7	-0.031728473
207	0x3d6676b0	0.056265533
208	0xbce9263c	-0.028460614
209	0x3d4b1c23	0.04958738
210	0xbd885437	-0.06656688
211	0x3b9cf5be	0.004790037
212	0xbafd297a	-0.0019314729
213	0x3cd5bd0a	0.026091117
214	0x3cfe659f	0.031054316
215	0x3cdef2da	0.02721541
216	0xbcf38e75	-0.029731015
217	0xbcc94df5	-0.024573306
218	0x3d720a85	0.059092063
219	0x3ca1fd01	0.019773962
220	0x3c33bd0a	0.010970363
221	0x3cc4af9c	0.024009518
222	0x3d571efe	0.05251979
223	0xbc25e506	-0.010125404
224	0xbc109fe5	-0.008827184
225	0xbc0050ba	-0.007831747
226	0xbd1ceb46	-0.03831031
227	0xbca1fe15	-0.019774476
228	0xbd12a8b5	-0.035805423
229	0xbbc42270	-0.0059855506
230	0x3d259add	0.040430892
231	0xbca99ac2	-0.020703677
232	0xbd6a3266	-0.05717697
233	0xbd5e1a6b	-0.054224413
234	0x3d9d5994	0.07683101
235	0xbd1453ce	-0.036212735
236	0xbcb775e8	-0.02239509
237	0xbd34be3c	-0.044126734
238	0xbcf257f9	-0.029582964
239	0xbdaa23c7	-0.08307605
240	0x3ca1a0e8	0.019730046
241	0xbd2348cc	-0.039864346
242	0xbc89ce75	-0.01682208
243	0x3dd7ddc6	0.10540347
244	0x3d022dc9	0.031781945
245	0xbc853b50	-0.016263634
246	0x3d7214f4	0.059102014
247	0x3d4d17aa	0.050071396
248	0x3caa3609	0.02077772
249	0xbd8ab34c	-0.067724794
250	0xbd2cf132	-0.04222221
251	0x3d9607bb	0.07325693
252	0x3d6821f2	0.056672998
253	0xbccc6961	-0.024952592
254	0xbc1abaea	-0.009443978
255	0xbcc16b8c	-0.023610853
