data/videos/.working/embeddings/W0VWO4asgmk.npy (npy, 40064 bytes, 1 tensors)

array f4 [13, 768]
00000000: 2bb4 a5bb dd7a b8bc 0739 9dbb 15d9 27bc
00000010: 8e19 4cbd 2cb8 f43c 5f43 84bc d7bf dd3c
00000020: 839a cbbc fa6f b03a f731 0bbd aab7 01bc
00000030: 04df 613d 34a2 49bd a01f bdbd c934 163d
00000040: 4cd8 543d 6cf0 cfba 5873 72bd b2ec dc3c
00000050: 71ca 17bc 54a4 27bc 25b2 6abc 4844 1a3c
00000060: 1e49 20bc 1a98 793b 1df4 8d3c 3b4e 813d
00000070: fa9c 6a3c 8ae4 823d c6c8 3e3c f5d4 01bd
00000080: df7d 853a 1952 4cbc 34a0 483d d0b6 23bd
00000090: 5b31 82bd ed73 3f3c 8cbc 64bd 9de6 e4bc
000000a0: 5bca 3dbd e84e a13b d719 13bd c92a a43d
000000b0: 2d1d 0fbc aeaf d9bc c24a 61bd 842c 85bd
000000c0: cf0c a4bc 3486 46bb bfa7 bdba fb1b 79bc
000000d0: 3807 27bd 6283 03bc 5d3a 59bb 6ee5 b239
000000e0: 191a 8fbc fa95 55bc 3494 12bd 1716 7f3d
000000f0: d42a d4bc f7a7 0fbd cdb6 91bb 26e4 edbc
00000100: 0694 bfb9 bd16 d1bc 5660 563d ff61 c5bb
00000110: 480a 2b3d 44a3 be3d 5cdd a6ba 35d6 c13b
00000120: 7862 60bb b92f fcbc c8d5 863d d88e 6cbc
00000130: 1c29 68bb 991e 0e3d e8b2 daba 672a bcbb
00000140: 4768 123d 8d20 6b3c fd65 0d3d 947c afbc
00000150: 3c19 003d 11e9 b73d 7e71 1abd 0aad 08bd
00000160: 4d73 e03c 7d1b a9bd 2253 953d 6770 e0bc
00000170: d940 bb3a 0685 073c fcde 273d a076 a23c
00000180: e72d 45bd b241 ff3d b3b0 16bb 86df b13c
00000190: ca4c a43d e454 12bc 2731 30ba 979d ff3c
000001a0: 00ec 22bd 6fd6 0f3d ca37 d5bc e85f b6bc
000001b0: afaf 813c 0652 053d 2b26 6b3c d499 993c
000001c0: cbba 2cbd 5a00 27bb 8e3b 94bc 30be 2f3d
000001d0: 66c5 b7bd e42f 933c f9aa c23c cf5e 09bc
000001e0: c89f 823c 0b93 aebc d75d 943d 0d22 72bd
000001f0: 4154 893b f39d aebc 6d98 2dbc 2ead 2cbd
00000200: cc3c 733d f571 0fbd 92ca a53b a3f8 ed3b
00000210: 0fab cfbc 0c43 853b 5dc7 9f3c 51a0 483c
00000220: f424 69bc 8b1f b93c b509 9abc bacb e43a
00000230: f79b 60bb 53a1 26be 6730 02bd bb12 743d
00000240: 2b1a ae3c 2cbe 2abd 3236 2dbd ab92 583d
00000250: d8eb ffbc 0e2d 3b3d 578e 5e3d 1dfb 58bd
00000260: 9df8 023d ef46 f0bb b77d 0ebc d26a ea3c
00000270: 2666 74bd 8667 933c 4c62 38bc e3e2 59bc
00000280: 097b 353c bda9 afbc cb6c fcbc 179f c63c
00000290: f530 88bc ac6f 233d 9945 7a3c 9d28 4f3c
000002a0: 8dad 4d3d 5114 503d a95c b2bc f977 5dbc
000002b0: 4a32 2e3c 891f f63c 750d 2cbd e118 d3bb
000002c0: fbed 483c 234d caba 5a04 2a3d 1c57 493d
000002d0: e644 993b 710c 993c 7e95 2cbb 95ae 593d
000002e0: dd3f 76bd db58 1a3c 56eb b03c 2ed2 cf3c
000002f0: e25c 273d b973 43bd a0bd ff3c 6be4 bb3c
00000300: 9e42 8fbd 1fd5 d3bc 8ec4 3b3d 97d9 f83c
00000310: fa66 1f3c 9af7 d23c 4dbd 44bd 233a c03b
00000320: e169 fa3c 3f77 463d 6a84 72bd ebc1 c53c
00000330: 121f 963d bcb7 293d fd97 debc 4e85 ac3c
00000340: 9b2c 54bd cf64 343d 450d 16bd 215a a13c
00000350: e360 bbbd f1e1 9b3c 5fbe 863d 4ea3 943c
00000360: 68fe 8ebd 44b7 db3c de61 05bc f0d1 0bbd
00000370: 09b5 a33c aed1 273b 91b3 1b3d fafd 963c
00000380: 4d5f 7d3b d3c7 d8bc d1f2 91bd 2465 fd3b
00000390: 9141 8a3b 5e48 95bb 4335 dabc bc50 e33c
000003a0: 9b11 11bd 0a25 87b8 3140 513d 8d4f 93bc
000003b0: 1e7e 37bc 99a4 96bd 1c00 f0bb 093d 5abd
000003c0: e440 adbc 5fc8 543d 8f36 4fbc cf1b d43d
000003d0: f558 0dbc 01df 153d c62d 833d 7b7e 5e3c
000003e0: 2fdf 003d 994e 7c3c 097a 22bd f141 05bb
000003f0: b4fc 213d 713a dfbc 3c5b 633d 990e 003a
-0.005056878 -0.022519523 -0.004798058 -0.0102446275 -0.04982906 0.029872976 -0.016145406 0.027069015
-0.02485395 0.0013461106 -0.033983197 -0.007917324 0.055144325 -0.049226955 -0.092345476 0.036671434
0.05196409 -0.0015864498 -0.05919203 0.026968334 -0.009264574 -0.01023205 -0.0143246995 0.009415694
-0.0097830575 0.0038085044 0.017328316 0.063137494 0.014319653 0.063912466 0.011644548 -0.031697232
0.0010184607 -0.0124707455 0.048980907 -0.039969265 -0.0635707 0.011685354 -0.055843875 -0.027941996
-0.04633556 0.0049227364 -0.035913315 0.08015973 -0.008734983 -0.026573028 -0.055002935 -0.06502631
-0.020025639 -0.0030292394 -0.0014469548 -0.015204425 -0.04077837 -0.00802693 -0.003314636 0.00034121744
-0.017468499 -0.0130362455 -0.03578587 0.062276926 -0.025899328 -0.035072293 -0.0044468404 -0.029039454
-0.00036540645 -0.025523538 0.052337967 -0.006023645 0.04175785 0.09308484 -0.0012730765 0.005915428
-0.003423838 -0.030784475 0.06583744 -0.0144383535 -0.0035424894 0.03469715 -0.0016685398 -0.0057423594
0.035743978 0.014351022 0.03452109 -0.021421708 0.031274065 0.08980001 -0.03770589 -0.033368148
0.02739873 -0.08257196 0.07291247 -0.027397348 0.0014286294 0.008271461 0.04098414 0.019831955
-0.04813948 0.12463702 -0.0022993505 0.02171303 0.08022459 -0.008931372 -0.00067211915 0.031203074
-0.03977585 0.03511661 -0.026027579 -0.022262529 0.015830843 0.032548927 0.014352362 0.018750109
-0.042170327 -0.0025482387 -0.018094804 0.042905986 -0.08973198 0.017967172 0.023763167 -0.008384421
0.01594533 -0.02131035 0.07244461 -0.059114505 0.004190952 -0.02131555 -0.010595423 -0.042157345
0.059384152 -0.035020787 0.0050595487 0.007262306 -0.025350122 0.0040668305 0.019504244 0.012245254
-0.014230002 0.022598049 -0.018803457 0.0017455735 -0.003427265 -0.16272478 -0.03178444 0.059588175
0.021252712 -0.04168527 -0.042288013 0.05287425 -0.031240389 0.045697264 0.054334965 -0.052973855
0.031975377 -0.0073326747 -0.008696965 0.028615389 -0.05966773 0.0179937 -0.011253905 -0.013298723
0.011076697 -0.021443242 -0.030813595 0.024245782 -0.016624907 0.03990142 0.015275382 0.01264396
0.05021434 0.050800625 -0.0217727 -0.013517373 0.010632107 0.030044334 -0.04200502 -0.006442175
0.01226377 -0.0015434365 0.041508056 0.04915534 0.004677403 0.01868269 -0.0026334221 0.05314501
-0.0601195 0.009420599 0.021596592 0.025368776 0.040860064 -0.047717784 0.03121835 0.022936067
-0.06995128 -0.02585846 0.045841746 0.030377192 0.009729141 0.025752831 -0.048032094 0.0058663054
0.030568065 0.048453566 -0.05920831 0.024140319 0.07330145 0.04143499 -0.027172083 0.021059658
-0.05180035 0.04404145 -0.03663375 0.019696297 -0.09149339 0.019028636 0.06579279 0.018144276
-0.06982118 0.026820786 -0.008141009 -0.03413576 0.019983785 0.0025607157 0.038013045 0.018431652
0.003866154 -0.026462471 -0.07126392 0.007733004 0.004219242 -0.004555746 -0.026636725 0.027748458
-0.03541718 -6.444201e-05 0.05108661 -0.017982269 -0.011199502 -0.07355613 -0.007324232 -0.053280864
-0.021149106 0.0519489 -0.012647285 0.103568666 -0.008627166 0.036589626 0.06405215 0.01357996
0.031462844 0.0153995985 -0.039667163 -0.0020333494 0.039547637 -0.027249547 0.05550693 0.0004884988
