data/videos/.working/embeddings/W1562KoBExA.npy (npy, 3200 bytes, 1 tensors)

array f4 [1, 768]
-0.025193974 0.049402934 0.0020625526 -0.020804849 -0.08016781 -0.041645013 -0.035940025 -0.019778375
-0.022008644 -0.0067778854 0.01416782 -0.047499333 -0.031999864 -0.022183442 -0.046921168 0.04335405
-0.015825203 0.06422199 -0.010594873 0.017480299 -0.028182358 0.051834486 0.004864912 -0.063968286
-0.06456568 -0.008591741 0.034925036 0.030176321 0.054360222 0.042508684 -0.005028492 -0.022579467
0.016413696 -0.011934572 0.023666507 0.025996052 0.042911675 -0.03156058 -0.07429578 -0.05386386
0.030227518 -0.002975205 -0.023510773 -1.4541034e-05 -0.037699495 -0.02155449 -0.08759221 -0.018741194
0.041752763 0.039176993 0.028899547 -0.03374013 0.016168438 0.030374477 -0.029265124 0.020521974
-0.07123624 -0.04449031 -0.03476518 0.039770156 0.0064062737 0.03573713 0.013934209 0.027050331
-0.008038215 0.03299778 0.03369578 -0.007977118 0.030709622 0.08303294 0.016827188 -0.032401178
0.016502641 0.020408887 0.079351895 0.031754825 0.0033194495 0.042881355 0.014809074 -0.016436623
0.030433016 -0.03299983 0.020402024 -0.007250263 -5.564565e-05 0.092248514 0.004436448 -0.018577514
0.036795147 -0.06323881 0.019343184 -0.052280758 0.02618054 0.052315414 0.00850977 -0.03930919
-0.005389133 0.061903592 0.028355842 0.0022891501 0.024887547 0.008716331 0.03727726 0.031769857
-0.009970034 -0.021658171 -0.03451686 0.012416536 0.02644874 0.101658136 -0.015291248 -0.04420962
-0.052125186 -0.036016606 -0.013185137 0.03658161 -0.014939072 0.062497217 0.013620667 0.034312397
0.00953816 -0.022972059 -0.01643402 0.0113599915 -0.041744675 0.007564386 -0.09194587 -0.025333274
-0.0014420872 0.0015380245 0.05006059 -0.0051312447 -0.0016850973 -0.05368805 0.037096012 0.017993888
-0.0037883501 -0.019557955 -0.0070109917 0.045030046 0.021728147 -0.11450192 -0.014368896 0.0792327
0.028328946 0.0031671966 -0.10023878 -0.007514453 -0.032527056 0.018419927 -0.015940627 0.021294208
-0.036843173 -0.025969742 0.0013689282 0.041330535 0.02807537 -0.003021031 0.012218594 0.002390089
-0.024756765 0.02387974 0.022984521 0.0063890195 -0.004865329 0.038553253 0.05390748 0.013617825
-0.032950893 0.034245525 -0.028989911 0.014273913 -0.027537689 -0.056198724 -0.08871847 0.015683413
0.004786558 0.012769637 -0.009394749 -0.0071007847 0.07488332 -0.0063359765 0.0056748413 -0.014398035
-0.0039005093 -0.0032851363 -0.054307703 -0.01676945 0.017354567 -0.015586564 0.04220953 0.041871246
-0.04286218 -0.009444006 0.027149893 0.021485198 0.010408158 -0.006646037 -0.015437614 0.010853717
-0.022506591 -0.0867901 -0.07396385 -0.05329896 -0.019460674 -0.0009253001 -0.04828224 -0.0068620997
0.0023833683 0.0110226255 -0.052167106 0.008077745 -0.07422888 0.042296004 0.048954166 -0.015593479
0.02013532 -0.029789187 -0.042318966 0.03452997 -0.030555481 -0.033472333 0.002179698 0.03992784
0.049889512 0.03385138 -0.0747824 0.003636972 -0.061442003 0.057482004 0.03400623 0.012987199
-0.004632404 -0.0151930675 0.026244685 0.010058641 -0.03206974 -0.0017518778 -0.019633874 -0.02053316
-0.012172493 0.029714216 -0.00014891196 0.08416193 0.0018216 -0.08916018 0.04163044 -0.044316515
-0.0063083936 -0.019248877 -0.030813616 0.09004507 0.038728062 -0.035037037 0.021607105 0.005766031
00000000: 9863 cebc bb5a 4a3d e42b 073b ee6e aabc
00000010: 052f a4bd f693 2abd d935 13bd 4206 a2bc
00000020: 794b b4bc 0619 debb 2520 683c a98e 42bd
00000030: 4a12 03bd 0dba b5bc 6930 40bd 0494 313d
00000040: dba3 81bc d286 833d 1e96 2dbc d832 8f3c
00000050: b0de e6bc 6650 543d d769 9f3b ce01 83bd
00000060: 033b 84bd 60c4 0cbc 8e0d 0f3d 5534 f73c
00000070: d3a8 5e3d 961d 2e3d 0cc6 a4bb 93f8 b8bc
00000080: 0476 863c 3989 43bc 43e0 c13c acf5 d43c
00000090: 27c4 2f3d ab45 01bd 6328 98bd 5aa0 5cbd
000000a0: b39f f73c a8fb 42bb aa99 c0bc 44f5 73b7
000000b0: c96a 1abd 0b93 b0bc 8b63 b3bd 2287 99bc
000000c0: f204 2b3d 0e78 203d bebe ec3c 1733 0abd
000000d0: ac73 843c e5d3 f83c 6abd efbc b31d a83c
000000e0: 4ee4 91bd 793b 36bd ef65 0ebd 08e6 223d
000000f0: b8eb d13b 1961 123d 4f4c 643c a898 dd3c
00000100: b8b2 03bc ae28 073d 9604 0a3d 75b2 02bc
00000110: bf92 fb3c 2d0d aa3d 2cd9 893c 19b7 04bd
00000120: 8c30 873c 8a30 a73c 3f83 a23d 5911 023d
00000130: 1f8b 593b 5ca4 2f3d c2a1 723c 19a6 86bc
00000140: a94e f93c d42a 07bd 2522 a73c 9d93 edbb
00000150: 1065 69b8 caec bc3d a05f 913b df2f 98bc
00000160: 82b6 163d 5983 81bd 9975 9e3c 5924 56bd
00000170: 9278 d63c b048 563d 906c 0b3c ac02 21bd
00000180: 5397 b0bb 9f8e 7d3d 834a e83c 9105 163b
00000190: f8e0 cb3c f1ce 0e3c 0ab0 183d 1c21 023d
000001a0: 5a59 23bc 7a6c b1bc 8d61 0dbd ba6e 4b3c
000001b0: 07ab d83c 2432 d03d 2588 7abc 2615 35bd
000001c0: 3881 55bd 2686 13bd 7906 58bc 99d6 153d
000001d0: 02c3 74bc 15fd 7f3d 3829 5f3c 288b 0c3d
000001e0: f145 1c3c e62f bcbc a3a0 86bc 421f 3a3c
000001f0: 77fc 2abd abde f73b 1e4e bcbd ba87 cfbc
00000200: 6b04 bdba 8a97 c93a 550c 4d3d 0024 a8bb
00000210: 7cde dcba 00e8 5bbd fdf1 173d eb67 933c
00000220: f845 78bb 0138 a0bc 76bc e5bb 6d71 383d
00000230: 3aff b13c fc7f eabd 856b 6bbc c144 a23d
00000240: 1b12 e83c be90 4f3b fd49 cdbd cd3b f6bb
00000250: 173b 05bd 63e5 963c eb95 82bc 3171 ae3c
00000260: dee8 16bd 7fbe d4bc 9c6d b33a 354a 293d
00000270: 51fe e53c 7dfc 45bb 7f30 483c 0aa3 1c3b
00000280: b3ce cabc 729f c33c 094a bc3c fb5a d13b
00000290: 566d 9fbb 04ea 1d3d 17ce 5c3d 4c1d 5f3c
000002a0: 84f7 06bd 0945 0c3d 407c edbc 21dd 693c
000002b0: b896 e1bc a230 66bd 07b2 b5bd 807a 803c
000002c0: 8fd8 9c3b bd37 513c 6fec 19bc b3ad e8bb
000002d0: 6d5c 993d 069e cfbb 05f4 b93b bce5 6bbc
000002e0: b09f 7fbb 714b 57bb c171 5ebd 1660 89bc
000002f0: 2a2b 8e3c ca5e 7fbc e6e3 2c3d 2f81 2b3d
00000300: 4190 2fbd 08bb 1abc 7469 de3c ba01 b03c
00000310: fb86 2a3c 00c7 d9bb 0cee 7cbc cad3 313c
00000320: be5f b8bc 02bf b1bd 5c7a 97bd 0350 5abd
00000330: fe6b 9fbc d78f 72ba 99c3 45bd 77db e0bb
00000340: 4932 1c3b 3e98 343c 2dad 55bd 8558 043c
00000350: 5005 98bd 933e 2d3d 2a84 483d cb7b 7fbc
00000360: d4f2 a43c 7408 f4bc a756 2dbd 4c6f 0d3d
00000370: 7d4f fabc 491a 09bd 44d9 0e3b 608b 233d
00000380: f258 4c3d bfa7 0a3d 8427 99bd 445a 6e3b
00000390: 9caa 7bbd 4072 6b3d 1e4a 0b3d 43c8 543c
000003a0: 6ccb 97bb 58ec 78bc 18ff d63c 00cd 243c
000003b0: 8f5b 03bd 449f e5ba 38d7 a0bc 2835 a8bc
000003c0: 236f 47bc 3a6b f33c 4025 1cb9 175d ac3d
000003d0: c1c2 ee3a 9d99 b6bd ae84 2a3d 3c85 35bd
000003e0: a4b6 cebb d2af 9dbc d66c fcbc 8d69 b83d
000003f0: 51a1 1e3d ff82 0fbd 6201 b13c f9f0 bc3b
