data/videos/.working/embeddings/w2QVg9mezcY.npy (npy, 73856 bytes, 1 tensors)

array f4 [24, 768]
-0.045448884 -0.010162315 -0.015493818 -0.011508684 -0.07466811 -0.01380489 -0.04255655 -0.025136136
-0.017927917 -0.059345014 0.012365718 -0.040170528 0.03640321 -0.01210524 -0.068701245 0.0103623355
0.022434294 0.108754076 -0.01144404 -0.065331206 -0.03330687 -0.046889577 0.011215007 -0.061513178
-0.033728488 -0.053884048 -0.030412434 0.015543295 0.0027621454 -0.0015205033 0.056418207 -0.003179744
0.07681326 0.01961927 0.047359757 -0.033422556 0.033757318 0.018296247 0.0077621248 -0.00091026543
0.010112495 0.04535622 -0.055119973 0.042068463 -0.08096879 -0.03825171 0.042133715 -0.06316681
0.016069328 0.036001943 0.0022772017 -0.016661149 0.008961444 0.025008619 0.027066914 0.021500954
0.12329071 0.029960342 -0.00903323 -0.005405563 -0.012251391 0.021015182 0.035627015 -0.005951874
0.0075087454 0.043719936 0.027299864 -0.025649665 0.0116420975 0.05707539 0.017386844 -0.023228202
-0.028003654 -0.019336531 0.105090834 -0.103880465 -0.029635731 0.0029853617 -0.040890146 0.004886805
0.039957162 0.005546321 0.009791439 -0.008903216 0.055147927 0.06223537 0.00072032 -0.05955288
0.020936357 -0.061456986 0.05815886 -0.028465271 0.046611294 0.015773399 0.018587904 -0.042698108
-0.019547408 0.08507022 -0.019590912 0.025686035 0.012139686 -0.05945153 0.078489944 0.014107904
0.017940003 0.07837322 -0.06744005 0.0075856517 -0.041058693 0.0075712074 -0.01962267 -0.0042880652
-0.055888403 -0.046448816 -0.04853241 -0.023380134 -0.033387933 0.029191134 -0.030918187 -0.0303148
-0.018386988 -0.00023886995 0.011695922 0.015179661 0.03416923 0.007416074 -0.048621867 0.025041275
-0.010556598 -0.017247358 0.050601855 -0.0039955047 -0.007766988 -0.103541434 0.05113387 -0.0098972395
-0.0049177473 -0.015158025 -0.023502141 0.093588926 0.023150671 -0.07258963 -0.023571648 0.07732815
-0.0072415224 -0.014508189 -0.04917849 0.023595963 0.007357187 -0.017050784 -0.022047527 -0.015189235
0.033396684 -0.05660471 -0.070156366 0.0299461 0.050020676 0.009861952 0.010252308 -0.045922745
-0.057128374 -0.050665677 -0.05065473 0.019222347 0.0002711856 -0.018229319 -0.0014810854 0.0023587213
-0.018381972 -0.030701041 -0.08163966 0.03170132 -0.018905897 -0.00097587606 0.015211814 -0.018847374
0.059161562 -0.015483115 0.07812349 0.010429843 0.009191377 -0.011072402 -0.06981642 -0.021192627
0.0018822219 -0.022715317 0.0077352272 0.004922331 -0.022780834 -0.02452533 0.015027433 0.0091849575
0.03867621 -0.035335023 0.041237704 0.045640286 0.049430266 -0.015940586 0.02231066 -0.008261375
0.023236444 -0.0009858017 -0.026828332 -0.013997248 0.049087647 -0.024577867 -0.033933815 0.026075356
-0.0048965965 0.03552247 -0.009561726 -0.018704256 0.058912925 -0.049982417 0.026395492 0.02002019
0.0040825177 0.028745916 0.0023331956 0.013849113 0.005955322 0.037392378 0.02359138 -0.012667761
0.0022223047 -0.018760433 -0.03543296 0.008551373 -0.010431156 -0.027533453 -0.057107277 0.02153743
0.021210378 -0.032693703 -0.023903081 0.02166805 -0.03272981 0.012072309 -0.015865305 -0.03410566
-0.0030905984 -0.013483525 -0.0042950846 0.09325495 0.04330705 0.040988255 0.031845707 -0.0007770592
0.018844644 0.017081676 -0.027262947 0.029654216 -0.041849628 -0.067192025 0.044530835 -0.033041004
00000000: 9c28 3abd d77f 26bc c8d9 7dbc eb8e 3cbc
00000010: 98eb 98bd e82d 62bc c74f 2ebd 4cea cdbc
00000020: 91dd 92bc c213 73bd 9599 4a3c da89 24bd
00000030: 881b 153d 0e55 46bc 3db3 8cbd c9c6 293c
00000040: 20c8 b73c 75ba de3d c87f 3bbc 5ecc 85bd
00000050: c96c 08bd 490f 40bd 26bf 373c 3ef5 7bbd
00000060: e226 0abd 85b5 5cbd 7f23 f9bc 4ea9 7e3c
00000070: 1c05 353b a04b c7ba c716 673d 4063 50bb
00000080: 4550 9d3d 97b8 a03c 4efc 413d 17e6 08bd
00000090: 1d45 0a3d 03e2 953c 6c59 fe3b e19e 6eba
000000a0: e1ae 253c 72c7 393d 7bc5 61bd fb4f 2c3d
000000b0: f7d2 a5bd d3ad 1cbd 6794 2c3d 9a5d 81bd
000000c0: d3a3 833c c676 133d 1b3d 153b f67c 88bc
000000d0: 05d3 123c e0de cc3c 6fbb dd3c c522 b03c
000000e0: d77f fc3d 646f f53c 1d00 14bc 2621 b1bb
000000f0: 0fba 48bc 0828 ac3c a2ed 113d f007 c3bb
00000100: ec0b f63b ad13 333d f7a3 df3c 3f1f d2bc
00000110: 7fbe 3e3c e2c7 693d db6e 8e3c 1249 bebc
00000120: eb67 e5bc a567 9ebc dd39 d73d 48bf d4bd
00000130: a2c6 f2bc 0fa6 433b 6d7c 27bd 7e21 a03b
00000140: 1faa 233d eabd b53b 466c 203c cbde 11bc
00000150: cbe2 613d 84ea 7e3d dbd3 3c3a b8ed 73bd
00000160: b982 ab3c 52ba 7bbd fc37 6e3d 0030 e9bc
00000170: 7ceb 3e3d 3737 813c a945 983c 36e4 2ebd
00000180: e321 a0bc 4c39 ae3d 1f7d a0bc 856b d23c
00000190: 89e5 463c 7383 73bd 56bf a03d d724 673c
000001a0: eaf6 923c 2482 a03d 021e 8abd 0f91 f83b
000001b0: 292d 28bd e417 f83b b9bf a0bc e682 8cbb
000001c0: 3deb 64bd 1d41 3ebd ecc9 46bd b287 bfbc
000001d0: c9c1 08bd 3f22 ef3c 2348 fdbc be56 f8bc
000001e0: 4fa0 96bc 2a79 7ab9 41a0 3f3c 1db4 783c
000001f0: 09f5 0b3d 8a02 f33b b927 47bd 5c23 cd3c
00000200: 95f5 2cbc 554a 8dbc e443 4f3d b9ec 82bb
00000210: 3882 febb 880d d4bd c071 513d 0828 22bc
00000220: 0e25 a1bb 5d59 78bc 9087 c0bc 8dab bf3d
00000230: 7aa6 bd3c dfa9 94bd 5419 c1bc 395e 9e3d
00000240: 4b4a edbb c1b3 6dbc 626f 49bd 524c c13c
00000250: 8f14 f13b 16ae 8bbc 049d b4bc 45dc 78bc
00000260: f6ca 083d 57da 67bd 24ae 8fbd 8651 f53c
00000270: 7be2 4c3d 0694 213c 4cf9 273c 7d19 3cbd
00000280: 71ff 69bd d086 4fbd 567b 4fbd 2f78 9d3c
00000290: ea2d 8e39 a755 95bc fb20 c2ba c794 1a3b
000002a0: ca95 96bc c080 fbbc b232 a7bd 3ed9 013d
000002b0: 8ae0 9abc efd1 7fba f93a 793c cf65 9abc
000002c0: 6553 723d e4ac 7dbc 35ff 9f3d efe1 2a3c
000002d0: 6e97 163c 0569 35bc e9fb 8ebd 299c adbc
000002e0: e3b4 f63a 7915 babc ca77 fd3b 814b a13b
000002f0: df9e babc 58e9 c8bc 9f35 763c 817c 163c
00000300: f26a 1e3d 75bb 10bd dee8 283d 4ff1 3a3d
00000310: 6477 4a3d d595 82bc d8c4 b63c b85a 07bc
00000320: 5b5a be3c 0436 81ba 17c7 dbbc b754 65bc
00000330: 2110 493d 8657 c9bc 2ffe 0abd fc9b d53c
00000340: a173 a0bb 0280 113d c9a8 1cbc ab39 99bc
00000350: ae4e 713d 5dba 4cbd 5c3b d83c 6201 a43c
00000360: a4c6 853b 8e7c eb3c 87e8 183b 64e7 623c
00000370: dd24 c33b c028 193d b642 c13c 718c 4fbc
00000380: 16a4 113b 7baf 99bc 2722 11bd 0f1b 0c3c
00000390: 70e7 2abc d68d e1bc 52e9 69bd 446f b03c
000003a0: 63c1 ad3c d5e9 05bd 65d0 c3bc 3281 b13c
000003b0: b10f 06bd efca 453c f5f7 81bc 60b2 0bbd
000003c0: a38b 4abb 01ea 5cbc c8bd 8cbb 74fc be3d
000003d0: bc62 313d 4de3 273d a570 023d 8fb3 4bba
000003e0: 1560 9a3c dfee 8b3c 8b56 dfbc 66ed f23c
000003f0: 846a 2bbd f99b 89bd f765 363d 0156 07bd
