data/videos/.working/embeddings/w3IKEa_GOYs.npy (npy, 49280 bytes, 1 tensors)

array f4 [16, 768]
00000000: 6e34 8abd ffd4 523d 5205 c83b 3b87 5a3d
00000010: 9ba0 54bd 8fde febb 667f d9bc 1098 4cbd
00000020: d42c 0bbc 521d 6b3c df86 f23c ffa1 7dbd
00000030: 5804 a23d bb4e 9ebd 0eca 2abd bbf2 b53c
00000040: 341d 7ebc 72ba de3c f624 0ebd 1cd3 3dbd
00000050: b640 093d 21be 9f3c fda6 3c3d b9a3 24bd
00000060: a4aa 8b3b 97ba 143d e2e4 57bd 2955 153d
00000070: 8212 4cbc a2ba 0b3d 7a5e 41bb be41 e13c
00000080: 35a3 763b eea4 143b 5242 953d 5f5c 043c
00000090: 1f1c 11bd 4a79 833c f77b 853d a7fe 4cbc
000000a0: 4338 463c b3da 143d a747 57bd b1ab 30bb
000000b0: 547a 843c a686 aa3d d7ea e5bc 274c 67bd
000000c0: 36c1 a03d a971 073d f1ac 403b c8cf 76bc
000000d0: b3ad 86bc d910 803d d04f 39bd bc21 8e3b
000000e0: c4e8 f7bc 2edf db3c 7304 4abc 9be8 993d
000000f0: 8c49 91bd 6e4c 043d ebf4 2f3d 513e 46bd
00000100: bdbe 493d 9025 a23d 17cc 8fba 7f08 003d
00000110: 6b03 9f3c 80fd 013e 25cd 85bc 3f60 0c3b
00000120: c21e c73b 45e8 d53c 2e04 933d ae5d 52bd
00000130: 9152 17bd 893e c63b 4ac4 113c af97 38bd
00000140: d3ef 143d 1a34 bb3c 1047 69bb 77ff 60bd
00000150: 5cb2 ab3c d087 90bc ee4d a0bb 7ffc 84bc
00000160: 06e7 1a3c 5d03 d1bc fa94 213d feaf 85bd
00000170: 75f9 993c 93d6 75bb 80f2 efbc fd9e a3bc
00000180: c943 db3c d49e 823c ad2f 9f3c 84d1 f83c
00000190: a200 113d c86b 613c c869 8b3c 214c 983d
000001a0: 5ae0 993c 1a44 353c d370 eb3c 8e09 61bb
000001b0: bfdb cebb dd7f 44bd 1b81 2cbd 2d3a 483d
000001c0: c359 a1bc 04f5 513d cf05 5a3d b54e 9f3b
000001d0: 0481 3abd 8197 6f3b c58c 00bd b3e0 f9bc
000001e0: 6e52 4ebd 7f89 85bc 6860 50bc 939f b23a
000001f0: 8a56 bfbc 5f56 d33c de97 2fbc 0e67 b9bc
00000200: 7268 6e3d df1a 54bd 3c10 d03c df54 f2bc
00000210: 13c7 62bc 75b9 51bc d42f 4c3d c5ba 4f3d
00000220: c039 08bd 03c8 753d 9361 e0bc 97ab c3bc
00000230: a88b 43bc 67df b7bd d1d6 b3b8 2fd6 b83c
00000240: fbec 743d a01f 9d3b 8b8c a7bd d239 15bc
00000250: 3ba2 04bd 5ed3 c53b 7a52 1e3d 4e22 65bc
00000260: 6298 c43c 6f62 45bd 1817 fbbc b9f5 563d
00000270: a8f6 863d df00 1abc 0454 80bc 90ef 9b3d
00000280: ebf6 cfbc 99be 333c 0cb9 9cbc ac2f 7a3d
00000290: f35f a63d 159b 62bc 4cad 5fbd 2a68 d33b
000002a0: 1eaf 233b c87a fcbc b456 16b9 44af a03b
000002b0: 02ea f0bc 4c3a 11bd 25a7 98ba bd61 4bbd
000002c0: 2715 0abc 0c7d 363d 590d 2f3d 5241 8e3d
000002d0: f28e 0bbd e4dc 523d da05 0f3d af09 0dbd
000002e0: dc77 a4bd 00cd 7a3b 5eb7 073d f918 013d
000002f0: afd7 423d 6dfa 4f3c 9810 ab3c 650a 573c
00000300: 245e 94bc f90b b13b 4c38 3c3d 516c 24bb
00000310: 4b34 2a3c 245a d838 8793 61bc cb5e 113c
00000320: be7d 3d3d d033 81bc 6f33 dcbb ab95 a7bd
00000330: f08a dd3b 06b2 1d3c de21 d8bb c38c 543d
00000340: 12e0 623c 70dc 49bd 087c 013b 3b0c 483b
00000350: 0d0f e8bc b296 b6bb 0b23 a2bc 4165 6cbb
00000360: 2f5c cd3c 197e 003d 3f2a 7cbd 1aa4 053d
00000370: 96d9 05bc 1559 293b 6d6b 1c3d 85dc 3c3b
00000380: cf38 11bd 754b c73c 203a ecbb a11f 94bd
00000390: 7c2e 983c 2d87 7dbd 6fdf 4f3d 9615 223d
000003a0: dbcc 8bbd 68e6 00bd b894 5c3c 73ba 053d
000003b0: 9972 6dbd b781 a63c ac0a 6f3c 768b 02bd
000003c0: ecfc 72bc e530 7e3c e188 d6bb 0281 a23d
000003d0: 1cbe 93bd b1d0 a639 8360 afbc a41c a23b
000003e0: ea54 b8bc 6ea4 a83c 19bf d8bb d3da a33d
000003f0: e9ff a93d 3b0d 0a3c af7c 963a 129e 33bc
-0.067482814 0.05147266 0.00610415 0.053351622 -0.051910978 -0.007777996 -0.026550006 -0.049949706
-0.008494575 0.014350252 0.029605327 -0.06192207 0.07910985 -0.077298604 -0.0416966 0.02221047
-0.015509892 0.027188513 -0.034703217 -0.046343908 0.03350898 0.01949984 0.04605769 -0.0401952
0.0042622853 0.03631076 -0.052708514 0.03645817 -0.0124555845 0.034113534 -0.0029505775 0.027497169
0.00376339 0.0022681314 0.0728804 0.008078664 -0.03542721 0.016049046 0.06517785 -0.012511886
0.012098375 0.03634138 -0.052558567 -0.0026957805 0.016171612 0.083264634 -0.028066082 -0.05646911
0.07849352 0.03306738 0.0029399956 -0.015064187 -0.016440248 0.062532134 -0.04524213 0.0043375175
-0.030262358 0.026839819 -0.012330162 0.07515069 -0.07094106 0.03229945 0.04295818 -0.048399273
0.049254168 0.07917321 -0.0010970858 0.031258103 0.01941081 0.12694359 -0.016333172 0.0021419672
0.0060766647 0.026111731 0.071785316 -0.05135887 -0.036943976 0.0060499352 0.008896897 -0.04506653
0.036361527 0.022851992 -0.0035595335 -0.05493113 0.020959072 -0.017642885 -0.0048921024 -0.01623368
0.009454494 -0.025514299 0.039448716 -0.065277085 0.018795708 -0.003751193 -0.029290438 -0.019973272
0.02676572 0.015944876 0.019431913 0.030373342 0.035400994 0.013758607 0.017018214 0.074363954
0.018783737 0.0110636 0.028740322 -0.003433797 -0.006312817 -0.047973502 -0.042115312 0.048883606
-0.019696122 0.051259056 0.053228196 0.0048616775 -0.045533195 0.003655881 -0.03138425 -0.030502653
-0.05037158 -0.016300915 -0.012718298 0.0013627879 -0.023356695 0.02579802 -0.01071736 -0.022632148
0.058205076 -0.05178344 0.025398366 -0.029581485 -0.013841408 -0.012800564 0.0498503 0.050715227
-0.0332582 0.0600052 -0.027390277 -0.023885531 -0.011935152 -0.089781575 -8.575398e-05 0.022563068
0.059796315 0.0047950298 -0.08181103 -0.009108024 -0.032381278 0.00603716 0.038652875 -0.01398523
0.023998443 -0.048189577 -0.03065066 0.052480433 0.06590015 -0.009399622 -0.015665062 0.07614052
-0.025386294 0.010970735 -0.019131206 0.06108062 0.081237696 -0.01383092 -0.05460863 0.0064516263
0.0024976204 -0.030820265 -0.00014337414 0.004903706 -0.029408459 -0.035455987 -0.0011646493 -0.049653757
-0.008427895 0.044552848 0.04273734 0.069460526 -0.03407187 0.05148019 0.03491769 -0.034433063
-0.08030674 0.0038269162 0.033133857 0.031517956 0.047568973 0.0126939835 0.020881936 0.013125037
-0.018111296 0.0054030386 0.045952126 -0.0025088976 0.010388444 0.000103164726 -0.013768083 0.008872698
0.046262495 -0.015771776 -0.0067199985 -0.08182844 0.0067609474 0.009624964 -0.006595834 0.051892053
0.013847368 -0.04928249 0.0019757766 0.0030524868 -0.02832749 -0.0055721635 -0.0197921 -0.0036071094
0.02506837 0.031370256 -0.061563727 0.032627203 -0.008169552 0.002584045 0.038188387 0.0028817963
-0.035454568 0.024327973 -0.0072090775 -0.07232595 0.018576853 -0.06189649 0.050750192 0.039571367
-0.068261825 -0.031469733 0.013463192 0.032648515 -0.057970617 0.020325525 0.014589947 -0.03187128
-0.014830809 0.015514587 -0.006547079 0.079347625 -0.07213995 0.00031817475 -0.021408325 0.004947262
-0.022501428 0.020586219 -0.0066145775 0.08000722 0.08300764 0.008426006 0.001148125 -0.01096298
