data/videos/.working/embeddings/w4feKuG-xM0.npy (npy, 279680 bytes, 1 tensors)

array f4 [91, 768]
0	0xbd715648	-0.058920175
1	0xbbd20550	-0.0064093247
2	0x3baf29e9	0.0053455723
3	0x3cb438c2	0.02199972
4	0x3d111e3c	0.035429224
5	0xbd2a8c0b	-0.04163746
6	0x3c1afc11	0.009459511
7	0xbd276808	-0.040870696
8	0xba3bb5fd	-0.0007160602
9	0x3bd901b3	0.006622517
10	0xba18c6a4	-0.00058279396
11	0xbc95bf68	-0.018279746
12	0x3cdb9797	0.026805682
13	0xbd105f45	-0.035247106
14	0xbd019fbd	-0.03164648
15	0x3d0fb833	0.035087775
16	0xbd3a5bde	-0.045497768
17	0x3d8dbce2	0.06920792
18	0xbd5ad34e	-0.053424172
19	0x3d155690	0.036459506
20	0xbd1b96dd	-0.03798567
21	0x3cb7b4a8	0.02242501
22	0x3cb26b32	0.02177963
23	0xbdb78450	-0.089607835
24	0x3d402d9f	0.046918508
25	0xbd1c0f6a	-0.038100637
26	0x3ca078c2	0.019588832
27	0xbc87b4e0	-0.01656574
28	0xbd3c9bf0	-0.04604715
29	0x3be2f2ee	0.006925932
30	0x3d088030	0.033325374
31	0x3c4f8f8d	0.0126685025
32	0x3af7bd72	0.0018901064
33	0xbc92a7a1	-0.017902197
34	0x3d8a8ef6	0.06765549
35	0x3d04ef9c	0.03245507
36	0x3b0dea67	0.0021654607
37	0xbd0b4cf3	-0.03400893
38	0x3be13489	0.0068727178
39	0xbc489826	-0.012243306
40	0xbd24afbd	-0.04020666
41	0x3c4bc720	0.012437612
42	0xbd7eae42	-0.062177904
43	0xbc8a4a31	-0.01688108
44	0xba85506f	-0.0010171066
45	0x3c42f3b1	0.011898921
46	0xbcdca7bc	-0.02693545
47	0xbb0879b8	-0.0020824503
48	0x3d6e15a3	0.058126103
49	0x3d114982	0.035470493
50	0x3b8bb18d	0.004263109
51	0xbcb47d7e	-0.022032496
52	0xbda6095d	-0.08107255
53	0x3d2f2f83	0.04276992
54	0xbd65e8eb	-0.05613033
55	0x3d64296b	0.05570356
56	0x3cc29fe0	0.023757875
57	0x3cdf7d38	0.027281389
58	0x3c45081f	0.012025862
59	0xbc1172b4	-0.008877445
60	0xbae407b6	-0.0017397318
61	0x3cd7ea7d	0.02635693
62	0xbd1277ca	-0.03575877
63	0x3d5c6389	0.05380586
64	0x3d2880d5	0.04113849
65	0x3d0242ba	0.031801917
66	0x3b2a94f2	0.002602872
67	0xbd6acc95	-0.05732401
68	0x3d105384	0.035235897
69	0x3d965b73	0.07341661
70	0xbd47114e	-0.048600487
71	0xbc801965	-0.015637109
72	0x3bb8523e	0.0056250384
73	0xbda6e1d2	-0.081485406
74	0x3d87a295	0.06622807
75	0x3cbff259	0.02343099
76	0x3c24f400	0.01006794
77	0xbd1ceb81	-0.03831053
78	0xbd6ad277	-0.05732962
79	0xbd43ad55	-0.047772724
80	0xbba4502e	-0.005014441
81	0x3cd4ad0f	0.025961427
82	0xbccdf290	-0.025140077
83	0x3bcd6c9f	0.006269052
84	0x3bf36a36	0.007428433
85	0x3d111cf3	0.035428
86	0x3db1807e	0.08667086
87	0x3b4353fd	0.00298047
88	0x3d8fbb97	0.07018202
89	0xbc822920	-0.01588875
90	0x3dcc933c	0.0998902
91	0xbcd6268a	-0.026141424
92	0xbcaa5c55	-0.02079598
93	0x3c8d1e62	0.017226402
94	0x3b2982c5	0.0025865298
95	0xbd11f1df	-0.035631057
96	0xbc029dfd	-0.007972238
97	0x3dc92cd8	0.098230064
98	0x3d1f668e	0.038916163
99	0x3cda5957	0.026653929
100	0x3d8ad9b7	0.06779807
101	0xbc3f628d	-0.011681211
102	0x3caa682c	0.020801626
103	0x3dccd434	0.10001412
104	0x3d2bb6a4	0.041922227
105	0x3d1b6718	0.037940115
106	0xbd4b7dff	-0.049680706
107	0x3c916943	0.017750388
108	0x3cb0d975	0.021588067
109	0x3c91f3de	0.01781648
110	0xbbed375d	-0.007239266
111	0x3d3d73f0	0.046253145
112	0x3c7dc4d5	0.015488823
113	0xbd3688bb	-0.04456399
114	0xbcbbff0c	-0.022948764
115	0xbd08e117	-0.033417787
116	0xbd8d9481	-0.069130905
117	0x3c5f78cd	0.013639641
118	0xbd8cf687	-0.06882959
119	0x3c4e47a6	0.0125903245
120	0xbd1f9932	-0.038964458
121	0xbcf2b0e8	-0.029625371
122	0x3ce32e46	0.027732026
123	0x398e165e	0.00027101015
124	0x3a8c119d	0.0010686402
125	0xbba31bab	-0.0049776635
126	0xbcff3715	-0.031154195
127	0x3d24712c	0.04014699
128	0xb99171e6	-0.00027741416
129	0x3c8b3092	0.016990934
130	0x3cce3028	0.025169447
131	0xbd0d60e0	-0.034516215
132	0xbcb1df5b	-0.02171295
133	0x3b15b823	0.002284535
134	0x3baecf44	0.0053347666
135	0xbc3d2e70	-0.011546716
136	0xbd8377e0	-0.06419349
137	0xbcc79a6f	-0.024365632
138	0xbc1b5bb4	-0.009482313
139	0xbc9d38e6	-0.01919217
140	0xbd12cc9c	-0.035839662
141	0xbdd324d2	-0.10309757
142	0xbc99d512	-0.018778358
143	0x3d5db4b3	0.054127406
144	0x3d834f49	0.06411607
145	0xbd0a8dbf	-0.033826586
146	0xbdaec8a0	-0.0853436
147	0xbda52752	-0.080641404
148	0xbcda437f	-0.026643513
149	0xbc4256b4	-0.011861492
150	0x3cefee5e	0.029288467
151	0x3be90bd1	0.0071120043
152	0xbc69b615	-0.014264603
153	0xbd199a14	-0.037500456
154	0x3d309d9d	0.04311906
155	0x3c094a56	0.0083795395
156	0x3ca0e331	0.019639583
157	0xba51106a	-0.0007975163
158	0x3c748767	0.014924861
159	0x3d07c8bf	0.03315043
160	0x3cad9627	0.021189762
161	0xbd7a3b5e	-0.061091773
162	0x3d08a864	0.033363715
163	0x3d83757c	0.06418893
164	0xbd1e26a2	-0.038611062
165	0xbd41dc6d	-0.047329355
166	0x3b7e357e	0.0038789208
167	0x3d2d4927	0.04230609
168	0xbbe9341b	-0.007116807
169	0xbc84060b	-0.016116163
170	0xba141569	-0.00056489423
171	0x3da03ae6	0.07823734
172	0x3ca3e5cf	0.020007042
173	0xbc909a49	-0.017651694
174	0xbd33b0d5	-0.043869812
175	0xbd35fd24	-0.044430867
176	0xbd0dddf9	-0.034635518
177	0x3c46c847	0.012132711
178	0x3d2ba671	0.041906778
179	0x3c96cacd	0.01840725
180	0xbc81936f	-0.015817372
181	0xbc5c12c4	-0.013432208
182	0x3c45d5c9	0.012074896
183	0x3d083bf4	0.0332603
184	0xbcfa89bb	-0.030583253
185	0x3c04fcb2	0.008116888
186	0x3c0b290b	0.008493672
187	0x3cabd8a3	0.020977324
188	0x3c98592e	0.018597212
189	0x3cba7d63	0.022764867
190	0xbd250f4f	-0.040297803
191	0x3b8328ca	0.004002665
192	0x3b27dc4e	0.002561349
193	0xbc908d20	-0.017645419
194	0x3d0bce3e	0.034132235
195	0x3cb80b29	0.02246626
196	0x3d2ae78c	0.041724727
197	0x3d98560f	0.074382894
198	0xbc135735	-0.00899296
199	0xbdaf4a09	-0.08559043
200	0x3d931baf	0.071830146
201	0x3c862a81	0.01637769
202	0xbda27023	-0.07931545
203	0xbc8dc641	-0.017306449
204	0x3d159de8	0.036527544
205	0x3d0d7ecc	0.03454475
206	0x3cbbb0a9	0.022911387
207	0x3d097573	0.033559274
208	0xbd357cd1	-0.044308487
209	0xbbfe5eec	-0.0077627804
210	0xbd0a0b73	-0.033702325
211	0xbd741144	-0.05958678
212	0xbc73e721	-0.014886648
213	0x3cdb2221	0.026749672
214	0x3d0aedcc	0.033918187
215	0x3d899377	0.0671758
216	0xbc4507e9	-0.012025812
217	0xbca6b4dd	-0.020349914
218	0x3c59a173	0.013283121
219	0xbc803101	-0.015648367
220	0xbc82b105	-0.01595355
221	0x3cd28142	0.0256964
222	0x3d86f91d	0.06590483
223	0x3d8559a3	0.065112375
224	0xbc84a83f	-0.016193507
225	0xbbe82055	-0.0070839324
226	0xbd402a03	-0.046915065
227	0x3d7d6d82	0.061872013
228	0xbad0485c	-0.0015890705
229	0x3d8633a9	0.06552822
230	0x3c74be59	0.014937961
231	0xbd3d545e	-0.046223037
232	0xbd725d2e	-0.059170894
233	0xbd0b3256	-0.03398355
234	0xbd4f0290	-0.050539553
235	0xbd16e553	-0.036839794
236	0xbd00b26f	-0.031420168
237	0xbc862411	-0.01637462
238	0xbd388032	-0.04504413
239	0x3af1d24c	0.0018449514
240	0xbcb062d3	-0.021531498
241	0xbd243c1d	-0.04009639
242	0xbcd24bd3	-0.025670921
243	0x3da409c1	0.08009673
244	0x3ca818b0	0.020519584
245	0x3c8c2bb8	0.01711069
246	0xbc2969b1	-0.01034014
247	0x3dab1d81	0.08355237
248	0xbc12f6fd	-0.008970019
249	0xbd68bda0	-0.056821465
250	0xbc1f85b9	-0.009736472
251	0xbbc47ee9	-0.005996574
252	0x3d91d5c8	0.07120854
253	0x3c32ccff	0.010913133
254	0xbd08e3fc	-0.033420548
255	0x3ac43356	0.0014968913
