data/videos/.working/embeddings/W4JfDtfwOug.npy (npy, 98432 bytes, 1 tensors)

array f4 [32, 768]
00000000: ec94 19bd 0f00 433c a0a1 49bc 51d3 043b
00000010: e8eb 0fbd 23d8 ccb9 0cfb 0ebd ff19 e6bb
00000020: 0d06 383c 8175 59bb b8ee 17bc 48c2 31bb
00000030: 2f40 393c 1c2d 93bc 991d 87bd e82f 14bd
00000040: 8428 5fbb 300f df3d 7883 2a3c dd8e 2d3c
00000050: cdda 70bc fe74 1dbc ffea 713d 9471 53bd
00000060: 8989 91bb 78de db3a 15a3 cc3c c526 0ebb
00000070: 9225 c8bc bcc0 db3b 25bd f73c 4a91 a1bc
00000080: 2908 c03d a19e e73c 7907 973d 768a b4bc
00000090: a43e 26bc 1d88 ff3a 2365 08bd 7672 dfbb
000000a0: dd83 06bd 2244 b53c 67ec 7c3c d5cd c0bc
000000b0: 7af0 5dbb bc78 43bc c813 b5bb f0f8 1ebd
000000c0: f51a 9e3c d6c4 c5bc ba5c c43c 90e6 dcbb
000000d0: e9b0 05bd b411 ca3c 463a 07bc 1a3a 8bba
000000e0: fdaa 0f3d eb5f 84bc 2aa0 583b d9aa eabc
000000f0: 5706 e9bc 3f7c 95bc 402f c7bc def1 653d
00000100: 8583 ae3d 45b5 ff3c 2fe7 913d 8254 1fbd
00000110: aac6 8c3c dd30 653d 2a4b 2ebc ca59 0b3c
00000120: ffff 45bd 2035 3bbc 408c ff3d bdda 7cbd
00000130: d40c 7cbd 9d92 9e3b 5d69 12bc 790e f5bc
00000140: 012b cfbc 55e9 f13c f6fd 20bd 1073 6bbd
00000150: 9c6e 773c a1d8 2a3b 97ef 2cbc 71fa 19bd
00000160: 3eb6 fa3d d99e 82bd 5000 a83d 3328 4ebd
00000170: 9e0d dc3c df64 a33d 3be5 16ba 669b 31bd
00000180: 5c83 43bd b381 563d a1f5 ec3b b33b 803d
00000190: 7a31 ce3d 5b53 0d3d e79e 853d 4631 7f3d
000001a0: 9b22 24bc ff58 a83c d048 2cbd 87ef b1bb
000001b0: 05d6 1bbd 5373 26bb 1aab 7b3c 0062 763c
000001c0: 41b4 f0bc 901b 63bc e7bd 28bd c980 6bbd
000001d0: 71fe c3bc 9685 6a3d 7fcd bdbc 15a0 ab3a
000001e0: ebad b13b 8d19 1e3b 01e2 6c3c b673 1dbc
000001f0: 6d82 ca3b b47c 7b3d d351 053c 94c0 d3bb
00000200: e495 a13d c205 b4bc 538b a43b 65a3 c4bc
00000210: 92f0 283d 0ff8 e0bc 853f 4e3c e098 7f3c
00000220: fc23 9cbb 192f 403c ee31 60bd a57c 1a3d
00000230: ae56 5a3a da7e e7bd d8f4 a03c b357 6d3d
00000240: 5406 553c ba63 223d 0da6 23bd 44b3 eebc
00000250: 4876 97bc cdf2 c3bc de07 4b3d e5be cb3c
00000260: 446c 3b3d 2b28 00bc 2ac0 dabc 6f17 583d
00000270: 6640 ca3c 0841 99ba b231 7f3b 77bc 923c
00000280: 0a66 403c eff8 33bb 686f 30bd 07c7 6b3c
00000290: 7f6a 073d 66c0 7a3c f37c f93a 9e20 2a3d
000002a0: fa4b 833c 3a39 673d 0151 17bd 1601 093d
000002b0: 80fd 2ebc 5274 86bd 941d 3bbd dea1 b4bc
000002c0: 2860 a0bc a3bb e2bb f5df 3b3d 74f0 443c
000002d0: 8991 bb3c 1865 1a3c 3b80 f2bc 2506 cd3c
000002e0: 63a7 71bd beba 14bd 62ce 0c3d 63d0 863b
000002f0: 6ffb adbb 0ae8 213b f6ec fb3c 07f5 9b3d
00000300: df79 173d 18d2 003d 5a9b a83d 0d88 a93d
00000310: 26d7 8e3d 9613 153d c921 543d 82da 3ebd
00000320: 2de2 943d 6107 3d3c e2e6 18bd 6a11 713a
00000330: da3e 853d f61e 1fbb b246 4dbd 2a6e 6d3c
00000340: 6dd9 6fbc 5ee6 e4bc e90b c8bb e010 56bc
00000350: 5307 123b 4a5d 91bc dd29 6b3c 9611 0f3c
00000360: 715f fa3b f641 ee3c 458e 17bd e6f9 70bd
00000370: d299 103b 19d4 203c 7309 9d3c 7abe 43bd
00000380: 99cc 9ebd 3f2b 293c 5c03 a6bd 9d98 11bc
00000390: 93cd 6bbd a2ad e73b 96cd ebbc 27d4 133d
000003a0: 2f3d 363c 8068 3fbc 8c2a 01bd 1246 edbc
000003b0: 9768 23bd 50ca d6bc 2bff c03c 18eb 30bd
000003c0: f811 443b a309 ccbc 272a c8bc e957 c83d
000003d0: 7934 833d 7bc7 aebd 02a0 7a3d b09b 1a3d
000003e0: 713c 6fbc ed99 dfba 391b f4bc a7ae c73c
000003f0: 8093 edbc 5fbd 18bd 775f 05bc ff86 aabb
-0.03749554 0.011901869 -0.012306601 0.0020267556 -0.035137087 -0.00039070947 -0.034907386 -0.007022142
0.011231911 -0.003318161 -0.009273224 -0.0027123857 0.0113068065 -0.017965846 -0.06597442 -0.0361785
-0.0034051249 0.10891569 0.010407321 0.010593143 -0.014700604 -0.009610413 0.059062 -0.05162199
-0.0044414443 0.0016774675 0.024980107 -0.002169059 -0.024431977 0.0067063253 0.030241558 -0.0197226
0.093765564 0.028273882 0.07374472 -0.02203868 -0.010146771 0.0019495521 -0.033299576 -0.0068190647
-0.0328406 0.022127215 0.015437222 -0.023535648 -0.003386526 -0.011930641 -0.0055260397 -0.038811624
0.019299963 -0.02414171 0.023969997 -0.0067413524 -0.032639418 0.024666645 -0.00825364 -0.0010622174
0.035075177 -0.016159019 0.003305445 -0.02864592 -0.028445406 -0.018247722 -0.024314523 0.056138866
0.08521179 0.031214366 0.07124173 -0.038898952 0.017184574 0.055954803 -0.010638038 0.008505294
-0.04833984 -0.01142624 0.124779224 -0.061732043 -0.06153567 0.004839255 -0.008936253 -0.029914128
-0.02528906 0.029530207 -0.039304696 -0.05748278 0.015102055 0.0026069062 -0.01055517 -0.037592355
0.12241791 -0.06377954 0.082031846 -0.050331306 0.026861962 0.07978224 -0.0005756204 -0.04336109
-0.047732696 0.052369785 0.0072314297 0.06261387 0.10068031 0.034503322 0.06524449 0.06230285
-0.010018016 0.02055025 -0.042061627 -0.005430165 -0.0380459 -0.0025398328 0.015360618 0.015038013
-0.029382827 -0.013861552 -0.04119673 -0.057495866 -0.023925038 0.057256304 -0.023169277 0.0013093973
0.005422344 0.0024124116 0.01445818 -0.009610107 0.0061800987 0.061398223 0.008137184 -0.006462166
0.078899175 -0.021975402 0.0050214916 -0.024003694 0.04124505 -0.027462034 0.012588386 0.015600413
-0.004765032 0.011729979 -0.054735117 0.037716527 0.00083289563 -0.11303492 0.019648 0.057944965
0.013001997 0.039645888 -0.03995328 -0.029138215 -0.018489018 -0.023919487 0.04956805 0.024871299
0.045757547 -0.007822077 -0.02670296 0.052756723 0.02468891 -0.0011692354 0.0038939533 0.017912133
0.011743078 -0.0027461608 -0.043074995 0.014390714 0.033060547 0.01530466 0.001903443 0.041535012
0.01602744 0.05645106 -0.036942486 0.0334483 -0.010680556 -0.06565155 -0.045682505 -0.02204984
-0.0195771 -0.0069193407 0.04586788 0.012020219 0.022896545 0.009423517 -0.02960216 0.025027344
-0.058997523 -0.036310904 0.03437651 0.004114197 -0.0053095142 0.0024704956 0.03075264 0.07615095
0.03698146 0.03145036 0.08232756 0.08277903 0.0697463 0.03639563 0.051790033 -0.046595104
0.07269702 0.011537404 -0.037329562 0.00091960153 0.065061286 -0.0024279929 -0.05011625 0.014491597
-0.014639241 -0.027941879 -0.0061049354 -0.013065547 0.0022282198 -0.017744679 0.014353243 0.00873222
0.007640772 0.029084187 -0.037000913 -0.05883207 0.002206434 0.009816193 0.019169545 -0.047789074
-0.07753868 0.010325252 -0.081061095 -0.0088864835 -0.057569098 0.007070259 -0.028784554 0.036090996
0.011122986 -0.01168263 -0.031534716 -0.028964076 -0.039894667 -0.026219517 0.023559174 -0.043192953
0.0029917937 -0.024906939 -0.024434162 0.097823925 0.06406493 -0.08534142 0.06118775 0.03774613
-0.014601813 -0.0017059423 -0.029798137 0.024375273 -0.029000998 -0.037289973 -0.008140436 -0.005204081
