data/videos/.working/embeddings/w56Vuf9tHfA.npy (npy, 83072 bytes, 1 tensors)

array f4 [27, 768]
000000 ef c7 9a bb 2d cc c2 bb 75 12 00 bc 82 f3 ac bc
       -0.004723541 -0.00594475 -0.0078169005 -0.021112207
000010 6c 5a 3f bc a9 d9 ba bc 43 b0 92 bc 01 d8 f7 ba
       -0.011679273 -0.022808867 -0.017906314 -0.0018908979
000020 37 e1 94 3c 19 f2 ce bb 17 81 ab bb 1b 44 51 3c
       0.018173797 -0.0063154814 -0.0052338946 0.012772585
000030 25 75 60 b9 55 0a 3d bd 2c d2 38 bd 05 36 65 3d
       -0.00021405944 -0.04615243 -0.04512231 0.05595972
000040 01 19 fd 3c 40 6e 54 3d 68 cc 82 bd c2 17 f7 3c
       0.030895712 0.051862955 -0.06386644 0.030162696
000050 0b 1b 08 3d 5f 18 68 3d 11 61 81 3d 3d 94 56 bd
       0.033228915 0.056663867 0.06317342 -0.052387465
000060 24 40 0d bc 21 3f aa bc f3 dc 15 3d 59 03 78 3d
       -0.008621249 -0.020782055 0.036587667 0.060550068
000070 78 75 e8 bc ec 04 c9 3c 5a 72 c5 3c 70 5d 14 3b
       -0.028376326 0.02453848 0.024102379 0.00226387
000080 e1 44 44 3d c4 91 d5 39 50 9a 85 bc 9b 1a 08 3d
       0.04791725 0.0004073513 -0.016308933 0.033228498
000090 0b e7 ad bc d2 24 84 bd d6 f3 18 bd 64 d7 1d bd
       -0.021228334 -0.064523354 -0.037341915 -0.03853549
0000a0 e2 01 96 bc 77 6e 93 3d 78 39 5d bd 75 da c7 3b
       -0.018311445 0.07198804 -0.054009885 0.00609904
0000b0 25 ee d3 3b 98 0f ae bb 7d c9 60 bd ee 20 54 bb
       0.006467598 -0.0053119175 -0.054879654 -0.003236826
0000c0 a0 30 22 bd 35 0c 0e 3d 15 e3 94 3c 3f 58 99 3c
       -0.039597154 0.03467961 0.018174687 0.018718837
0000d0 a4 6c 64 bd 88 c5 08 3d 55 f4 fd bc 17 47 9f bc
       -0.05576767 0.033391505 -0.031000296 -0.019443078
0000e0 57 e7 80 bd d7 87 39 3d 18 c7 c3 bc e7 71 bc 3c
       -0.062941246 0.045295563 -0.023898646 0.023003532
0000f0 9d d4 2f bd 1c 7c 89 bd d2 f0 c9 bb a4 f7 39 bc
       -0.042927373 -0.06713125 -0.006162741 -0.011350546
000100 eb 3b be 3b 53 8f 02 bd b9 6a fd bc b2 1a 01 bc
       0.0058054826 -0.031874966 -0.030934678 -0.0078799
000110 fa 8d 35 bc f1 3d 7b 3d 19 49 a4 bc 42 bb d5 bc
       -0.011081213 0.06133837 -0.020054387 -0.026090268
000120 9a 21 3a bb 53 ce a8 bc 95 4c 58 3d bf b7 b3 bb
       -0.0028401376 -0.020606196 0.05280741 -0.0054845507
000130 3d 54 81 3c 55 fd 69 bc 24 ab c6 3b a4 a5 d6 bc
       0.015787238 -0.0142815905 0.006062882 -0.02620203
000140 44 bb 12 3d 44 21 4d 3c f5 94 e4 3c ea 23 6e bc
       0.03582312 0.012520138 0.02790306 -0.01453493
000150 a4 ae e9 3a 9b cf 3d 3d 5f fd 2f bc 59 4f e2 b9
       0.0017828536 0.046340566 -0.010741561 -0.00043165198
000160 82 46 72 3b 17 61 f1 bd 16 66 91 3d f8 49 36 bc
       0.0036968295 -0.117860965 0.070995495 -0.011126034
000170 21 f8 09 bd 0a c0 bc bc 03 5e 10 3d c9 64 69 3d
       -0.0336839 -0.02304079 0.035245907 0.05698088
000180 4a f2 70 bd 5c 90 cd 3d 02 88 9f 3c ef 98 3e bc
       -0.058824815 0.100373 0.019474033 -0.011633142
000190 a8 05 ad 3b 19 f3 6d 3c cd 92 2c 3d b4 69 a1 3d
       0.0052802153 0.014523291 0.042132188 0.078814894
0001a0 ac ac 07 bd 37 9f 0d 3d 04 1a 29 3c 7d 6f 9b bc
       -0.033123657 0.034575667 0.010321144 -0.01897406
0001b0 87 ef 02 bc 26 e8 0e 3d 32 f4 fb 3c 49 e0 e5 3c
       -0.007991678 0.034889363 0.03075609 0.028061049
0001c0 16 81 f2 bd 12 5a dd 3b 1e 4a af 3b 36 cc 91 bc
       -0.118410274 0.006755122 0.0053494116 -0.01779757
0001d0 6a 47 2d bc c4 81 18 bc 69 ff fa 3c e1 3a 79 bd
       -0.0105761085 -0.009308282 0.030639367 -0.060847167
0001e0 1d fe 1c 3d 25 c6 01 bc bc 14 c7 bc 9e de 88 bd
       0.03832828 -0.0079207765 -0.02430188 -0.06683086
0001f0 c6 37 a3 bc 02 ae 8a bc 37 52 40 bc 7a d5 8e bd
       -0.019924056 -0.016928677 -0.011738352 -0.06974311
000200 29 ae 3b 3d cc 16 d8 bc 5e 1c ad 3d ca 50 78 bd
       0.04582039 -0.026378058 0.08452676 -0.06062392
000210 1a fd 28 3c 47 fe a8 3c 49 0d eb 3a ff a6 10 3d
       0.01031425 0.020629061 0.0017933036 0.03531551
000220 2f db cd bb 93 13 8a bd e7 d5 15 3b 4f 04 66 bb
       -0.0062822322 -0.06742015 0.0022863091 -0.0035097783
000230 e2 9b 9c bc ae 45 0d be 48 d9 19 bb 3d c1 28 3d
       -0.0191173 -0.13796112 -0.0023475457 0.04119991
000240 96 c0 43 3d 38 7a 7e bc dc 8f 35 bd 8a 39 b1 3c
       0.047791086 -0.015532069 -0.044326648 0.021633882
000250 e0 ad 25 bd 07 2e e7 3c 32 bf 6d 3d d9 da 4d bd
       -0.040449023 0.02822019 0.058043666 -0.050257538
000260 b9 ee 7c bc c3 dd 92 3c 00 3e ee ba a9 2d 30 3d
       -0.015437775 0.01792801 -0.0018176436 0.043012295
000270 1d 4a 01 3c 9f 88 84 3d a1 9a 9c bb 20 92 d9 bc
       0.007891205 0.06471371 -0.0047791754 -0.026558936
000280 b5 3a dc 3b bf 0a d8 3b ed 22 1b bd 76 57 a4 3c
       0.0067208656 0.006593078 -0.037875105 0.020061236
000290 6a 9e 88 bc ba 36 20 3d d5 05 7d bd 35 41 38 bc
       -0.0166771 0.03911469 -0.06177314 -0.011246015
0002a0 0c d1 84 bb b6 63 3b bc 02 b0 9a bb c2 2b d4 3c
       -0.0040532406 -0.011437347 -0.004720689 0.025899772
0002b0 39 66 11 bc 9c 37 60 3d b2 81 ef bc ae 52 6c bd
       -0.008874469 0.054740533 -0.029236648 -0.057696037
0002c0 5d 00 07 3d 95 57 3e 3d 7c 92 19 3d 70 8b 8b 3c
       0.03295933 0.046470243 0.037493214 0.017034262
0002d0 00 22 39 3c 92 84 89 3c 82 2f 13 bc ee 6a a0 3c
       0.01129961 0.016786847 -0.008983495 0.019582238
0002e0 f4 2e 65 bc 88 60 32 bb b1 a0 1a bc 71 cc 88 3c
       -0.013988245 -0.0027218182 -0.009437726 0.016699048
0002f0 e4 ca 69 3d 58 0e 1d 3d b7 2a 95 3d 3e c3 9f 3c
       0.057078257 0.038343757 0.07283538 0.019502278
000300 4a 9e f3 3a 54 90 ee ba a0 27 91 3d 20 8d 26 3d
       0.0018586603 -0.0018200972 0.07087636 0.04066193
000310 95 f3 de 3c 88 07 27 3d 10 b4 de bc cd 76 27 3b
       0.027215758 0.040778667 -0.02718547 0.0025552989
000320 ad 1d c0 bb 98 64 5a 3c b1 e7 2a bd 97 2e 65 bd
       -0.0058629126 0.0133296475 -0.041724864 -0.055952635
000330 49 8e d6 3c 10 0b 19 3c 54 a7 a6 bc 18 ab f9 3c
       0.026190894 0.009341016 -0.02034346 0.030477092
000340 cb 24 ef bb b3 c9 19 3c c8 12 dc 3c 56 b5 8c bc
       -0.0072980872 0.009386468 0.026864424 -0.017176311
000350 d5 f2 35 bc 38 06 40 3d ab 63 44 3d b3 8d 31 bc
       -0.011105259 0.04688093 0.047946613 -0.010837006
000360 43 2d d5 3c 0a 40 96 3c da 5a 55 3d 4f c7 5b 3d
       0.026022559 0.018341083 0.052088596 0.053656872
000370 05 b3 7c 3c 34 cf c2 3b 94 4a 3c bc dd 65 e0 bb
       0.015423541 0.0059451107 -0.01149239 -0.0068480805
000380 e4 bd 1c bd 50 1f fe 3c c1 a6 a5 bd f7 4c e5 3c
       -0.03826703 0.03102079 -0.080884464 0.027990801
000390 6f 5f b4 b9 74 11 67 bd a5 5c 98 3d 15 ae 4d bc
       -0.0003440338 -0.05641313 0.074395455 -0.012553711
0003a0 50 2f ff bc 2a 67 13 bd 95 fc 33 3c 24 21 1a bb
       -0.03115049 -0.035987057 0.010985513 -0.0023518289
0003b0 c1 7e e8 bb 2d 83 3f 3c cb 86 a1 bd d0 81 ba bb
       -0.0070951884 0.01168899 -0.07887038 -0.0056917444
0003c0 05 5e 9f 3c 07 dd 8c bc 1a b6 2a bd db 97 05 3e
       0.019454012 -0.017195238 -0.04167757 0.1304621
0003d0 6a 98 10 3d c4 2e 9f 3c 49 0c ad 3c 4e 2d 59 3c
       0.035301603 0.01943148 0.021124022 0.01325543
0003e0 55 41 af 3c 1e 48 ea bc ae be 9e bd b0 a1 93 3c
       0.021393457 -0.028598841 -0.07751213 0.018021435
0003f0 48 31 6e 3b 65 34 1b bd a2 bb 92 bb 64 be 40 b9
       0.0036345292 -0.037891764 -0.004477934 -0.00018381473
