data/videos/.working/embeddings/W6cabLzQyeU.npy (npy, 3200 bytes, 1 tensors)

array f4 [1, 768]
0	0x3c726aff	0.014796018
1	0x3c96c2c4	0.018403418
2	0xbcf35e94	-0.029708184
3	0x3bbc50b3	0.005746925
4	0xbce74fa9	-0.028236227
5	0x3d13d119	0.036088083
6	0xbd633218	-0.055467695
7	0x3d2dbbed	0.042415548
8	0xbc8a6b3e	-0.01689684
9	0xbc7ad1fa	-0.015308851
10	0x3d1c179e	0.03810846
11	0xbb33872e	-0.0027393806
12	0x3c4ca38b	0.012490164
13	0xbc209a40	-0.009802401
14	0xbd6362ce	-0.05551415
15	0x3d96ea46	0.07368903
16	0x3cfdf0bc	0.03099858
17	0x3d3a54ec	0.045491144
18	0xbc1314ec	-0.008977156
19	0xbb917afb	-0.0044397092
20	0xbd612f4d	-0.05497675
21	0xbd1073ee	-0.03526681
22	0xbb56c923	-0.0032773695
23	0xbcfde370	-0.03099224
24	0xbc676ebf	-0.014125525
25	0x3d0fa62a	0.035070576
26	0xbae7cc2f	-0.0017684753
27	0xbb3bba0c	-0.0028644828
28	0xbd8836ca	-0.06651075
29	0x3d592358	0.053012222
30	0x3d2a4a5d	0.041574825
31	0xbba45b36	-0.005015756
32	0x3c9ecf86	0.019386064
33	0xbd242290	-0.040072024
34	0x3ca38202	0.019959453
35	0xbc9100c4	-0.01770056
36	0xbd27f7f2	-0.041007943
37	0x3bc6389f	0.00604923
38	0xbd962ffd	-0.07333372
39	0x3bf081e9	0.0073397052
40	0xbd256b7a	-0.0403857
41	0x3cefe5fd	0.029284472
42	0xbd6bf6a7	-0.057608273
43	0x3d60a204	0.05484201
44	0xbb56d5db	-0.0032781276
45	0x3d2d9dd9	0.042386863
46	0xbda0bc5d	-0.078484274
47	0xbd237c45	-0.039913435
48	0x3bddb166	0.0067655323
49	0xbba8e27c	-0.005153952
50	0xbd15b796	-0.036552034
51	0x3c903066	0.017601203
52	0x3c8bb6c7	0.017054928
53	0x3d8d5e60	0.06902766
54	0xbb51526b	-0.0031939994
55	0x3ca57d67	0.020201398
56	0xbbd2d07f	-0.006433546
57	0xbc0298b8	-0.007970981
58	0xbd962b9b	-0.07332536
59	0x3d4ef731	0.05052871
60	0xbd63c9bd	-0.055612314
61	0xbd9cdec4	-0.07659677
62	0xbbb246e5	-0.00544058
63	0x3cea0e9d	0.028571421
64	0x3a5c5e53	0.00084063894
65	0x3c9e4bc2	0.019323234
66	0xbc915689	-0.017741458
67	0x3cf927c1	0.030414464
68	0x3d53096a	0.05152265
69	0x3dedd6b1	0.11613215
70	0xbb7bed19	-0.0038440882
71	0xbd8330a4	-0.06405762
72	0xbd3b8982	-0.045785435
73	0xbb11192f	-0.0022140255
74	0x3d99b8b0	0.075059295
75	0xbd211b28	-0.03933254
76	0xbd4d9424	-0.050190106
77	0x3cbd6b43	0.023122435
78	0x39e5db94	0.00043841882
79	0xbcbb5505	-0.022867689
80	0x3cb57c4f	0.022154002
81	0x3ce9058e	0.028445031
82	0xbd0476cc	-0.032339856
83	0x3c163558	0.009167992
84	0x3d583cd8	0.0527924
85	0x3d461cfb	0.04836748
86	0xbcf931cb	-0.030419251
87	0x3d321736	0.043479167
88	0x3d8f9186	0.07010178
89	0xbd658bd6	-0.05604156
90	0x3c7f826a	0.015595058
91	0xbca71ff5	-0.02040098
92	0x3b539910	0.0032287277
93	0xbd648a78	-0.055796117
94	0xbba9016d	-0.0051576407
95	0xbd0e797e	-0.034783833
96	0xbd05a42c	-0.03262727
97	0x3dd49f8b	0.10381993
98	0x3d3c1b2f	0.04592436
99	0xbcb74a6f	-0.02237436
100	0x3d50648b	0.050877135
101	0xbda551ee	-0.080722675
102	0xbc8b69a1	-0.017018141
103	0x3dc84deb	0.09780487
104	0xbd441550	-0.047871888
105	0x3c62ca26	0.013842141
106	0xbd61db74	-0.055140927
107	0x3d5865b6	0.052831374
108	0xbc9552ce	-0.01822796
109	0x3ce3232d	0.027726734
110	0x3ba8fd9e	0.0051571866
111	0xb805c456	-3.1892523e-05
112	0xbd3299e3	-0.04360379
113	0x3cc01a6a	0.023450095
114	0xbd7c5dc1	-0.06161285
115	0x3a9f5528	0.0012156116
116	0xbd69d652	-0.057089157
117	0xbc14f73b	-0.009092147
118	0x3c9a58de	0.018841203
119	0xbdbbbba1	-0.09166647
120	0x3d3009ff	0.042978283
121	0xbd11ed78	-0.03562686
122	0xbc6a6d49	-0.014308282
123	0xbc145bd4	-0.009055097
124	0xbd25aa91	-0.040445868
125	0xbd82ba44	-0.063831836
126	0xbd89241d	-0.06696341
127	0xbd956285	-0.07294182
128	0x3b65be15	0.0035055925
129	0x3d008d26	0.03138461
130	0x3d071173	0.032975625
131	0x3cdc3eb4	0.026885368
132	0xbc43a2fb	-0.011940713
133	0x3c823c4d	0.015897894
134	0xbd171706	-0.03688719
135	0xbb39b49b	-0.002833641
136	0xbb829704	-0.0039852876
137	0x3c1bda6b	0.009512524
138	0x3ca0b758	0.019618675
139	0x3ccd85f8	0.025088295
140	0xbd01b2d4	-0.031664684
141	0xbda0ad78	-0.078455865
142	0x3d1da870	0.038490713
143	0xbb9bdc02	-0.0047564516
144	0x3cad6974	0.021168448
145	0x3c2719c8	0.010199018
146	0xbd3af286	-0.045641445
147	0xbc40404f	-0.011734082
148	0xbc18ddec	-0.009330254
149	0x3ccc5b82	0.024945978
150	0xbc9568b1	-0.018238397
151	0xbc1d8adc	-0.009615626
152	0x3d73b615	0.05949982
153	0xbc9f2235	-0.01942549
154	0x3cb08d50	0.021551758
155	0xbc0e07b2	-0.008668827
156	0xbc77303a	-0.015087182
157	0xbbc326e9	-0.005955566
158	0xbc4d9b02	-0.012549164
159	0x3d46ca57	0.04853281
160	0xbca308d9	-0.01990168
161	0xbc7d8b9d	-0.015475181
162	0xbd055f9d	-0.032561887
163	0x3d37a301	0.044833187
164	0x3c82133a	0.015878309
165	0x3d2d576d	0.042319704
166	0x3c7daa26	0.015482461
167	0x3cc95826	0.024578165
168	0x3cd0f64c	0.025508069
169	0xba30f6dc	-0.0006750652
170	0xbd569148	-0.052384645
171	0xbc7ce296	-0.015434882
172	0xbcbe30d0	-0.023216635
173	0x3cfd2fe4	0.030906625
174	0xbd03c86d	-0.032173563
175	0xbca32954	-0.019917168
176	0xbc3e8051	-0.011627273
177	0x3d0f7ca3	0.035030972
178	0x3ce440e8	0.027862981
179	0x3d3d5916	0.046227537
180	0xbd00c53a	-0.03143809
181	0x3c5cf185	0.013485317
182	0xbcbedb5a	-0.023297954
183	0x3d4c7565	0.049916644
184	0xbd3360ad	-0.04379337
185	0x3cdaba5a	0.026700187
186	0x3c77aafa	0.015116448
187	0xbd506351	-0.050875966
188	0xbc9a27b8	-0.018817768
189	0x3cb97786	0.022640001
190	0x3d22eefd	0.0397787
191	0xbc0e3431	-0.008679436
192	0xbd67bcc8	-0.05657652
193	0x3cd3071b	0.025760224
194	0x3bf496ab	0.00746425
195	0x3d0dc942	0.034615763
196	0x3d228450	0.039676964
197	0x3bf59456	0.0074944897
198	0xbd456c0f	-0.048198756
199	0x3d452a2f	0.048135933
200	0x3bc93267	0.0061400416
201	0xbc430be4	-0.01190469
202	0xbcb40ef1	-0.02197978
203	0xbc8f7b07	-0.017514719
204	0x3d5f8d50	0.054578125
205	0x3cff9e7a	0.031203497
206	0xbd3e4eaa	-0.04646174
207	0x3defa73a	0.11701818
208	0x3c10cbd1	0.008837656
209	0xbc0ade0b	-0.008475791
210	0x3d5cf68b	0.05394606
211	0xbba8f7c6	-0.00515649
212	0xbd193bb3	-0.03741045
213	0x3bca5317	0.006174456
214	0x3d4543da	0.04816041
215	0x3bfdacb1	0.0077415337
216	0xbdb08a1d	-0.08620093
217	0xbaed0c19	-0.001808527
218	0xbc9d4a2a	-0.019200403
219	0xbc820c69	-0.015875058
220	0x3cd13470	0.0255377
221	0xbb93c07b	-0.0045090294
222	0x3d0e53ae	0.034747772
223	0xbcbd2265	-0.02308769
224	0x3cd47d46	0.025938641
225	0x3d9639b8	0.07335228
226	0x3c206e3a	0.009791905
227	0xbd2816b8	-0.04103729
228	0xbb8ee03e	-0.004360228
229	0xbcc4df08	-0.02403213
230	0x3b7cd408	0.003857853
231	0xbcdd1124	-0.026985712
232	0x3c2f27bc	0.010690626
233	0xbd096112	-0.03353984
234	0x3c9f03c7	0.01941098
235	0x3b2468ff	0.0025086997
236	0xbbdebbae	-0.0067972755
237	0xbc8df907	-0.01733066
238	0xbc80bcdf	-0.01571506
239	0x3c9b94de	0.018991884
240	0xbce44194	-0.027863301
241	0xbbf3b1d2	-0.0074369693
242	0x3d999762	0.07499577
243	0x3dc73c7e	0.09728335
244	0x3bdf42a7	0.0068133655
245	0x3ca449c8	0.020054713
246	0x3c080b58	0.008303486
247	0x3bf05cbd	0.007335274
248	0x3bf6a96a	0.00752752
249	0xbb3619cc	-0.0027786372
250	0xbcff0873	-0.031131959
251	0x3d3e989b	0.046532255
252	0x3bd3df7c	0.0064658504
253	0xbd62e9e6	-0.055398844
254	0x3d573a72	0.052545972
255	0x3cb7479e	0.022373017
