data/videos/.working/embeddings/W7H-VcaSSu8.npy (npy, 30848 bytes, 1 tensors)

array f4 [10, 768]
0	0xbc0b759a	-0.008511925
1	0xbcf1e9ba	-0.029530395
2	0x3d24a7b5	0.040199
3	0x3d82eae5	0.06392459
4	0xbda91087	-0.082551055
5	0x3da1a9aa	0.07893689
6	0xbb346bc3	-0.0027530051
7	0x3c435d6a	0.011924127
8	0xbd0e6c30	-0.034771144
9	0xbb6fd108	-0.0036593098
10	0x3b82d060	0.0039921254
11	0xbb98469e	-0.00464709
12	0x3c031284	0.00800002
13	0xbd66baec	-0.056330606
14	0xbde25946	-0.11052184
15	0x3ce2deec	0.027694188
16	0x3d6ef30a	0.05833725
17	0x3d08546f	0.033283647
18	0xbd6ae74f	-0.0573495
19	0xbc44e696	-0.012017867
20	0xbc7fff40	-0.015624821
21	0xbc834998	-0.016026303
22	0x3ce51be8	0.027967408
23	0xbd84f35a	-0.06491728
24	0x3bcb2f69	0.00620072
25	0xbc1f331d	-0.009716776
26	0xbc2f0788	-0.010682948
27	0x3d6168f7	0.055031743
28	0xbd2e7966	-0.042596243
29	0x3d81bd64	0.063349515
30	0x3cac605c	0.021042041
31	0xbd252681	-0.040319923
32	0x3cfd5433	0.030923938
33	0x3ca88540	0.020571351
34	0xbc38805e	-0.011261074
35	0xbab24a0f	-0.0013602393
36	0x3aed0bec	0.0018085218
37	0xbbdca55c	-0.0067335796
38	0xbcf5c280	-0.029999971
39	0xbc304712	-0.010759132
40	0xbcad69f0	-0.021168679
41	0x3cdebf48	0.02719082
42	0xbd432449	-0.047642026
43	0x3c9fb08d	0.019493366
44	0xbbb77fd1	-0.0055999537
45	0xbceebfd5	-0.029144207
46	0xbd05c3b9	-0.03265736
47	0xbd38ddd9	-0.045133445
48	0x3d153252	0.036424942
49	0x3d378030	0.044799984
50	0x3b8cf124	0.004301207
51	0x3d0e835b	0.03479324
52	0xbd8b66fe	-0.068067536
53	0x3c937127	0.017998291
54	0x3c019646	0.007909363
55	0x3d55c0c2	0.05218578
56	0xbd2aa78c	-0.04166369
57	0xbc89a14c	-0.016800545
58	0xbdccecdc	-0.10006115
59	0x3d50dde4	0.05099286
60	0xbd71cd6a	-0.05903379
61	0xbd6e1aa9	-0.058130894
62	0xbb22d6a6	-0.0024847179
63	0xbcea9449	-0.028635161
64	0x3d22edd5	0.039777596
65	0xbced325e	-0.028954681
66	0x3d07bf7b	0.033141594
67	0x3b6b48b0	0.003590148
68	0x3d0d88ac	0.03455417
69	0x3dc52678	0.09626478
70	0xbc1b1a29	-0.009466686
71	0xbb4072b4	-0.0029365243
72	0xbca7a87e	-0.020466086
73	0xbba2db35	-0.004969979
74	0x3d5f9463	0.054584872
75	0xbca11231	-0.019661995
76	0xbc355820	-0.011068374
77	0xbc3310c9	-0.010929295
78	0xbc236d8c	-0.0099748485
79	0xbc9e12a5	-0.019296
80	0x3d071472	0.032978483
81	0xbbf245e9	-0.007393588
82	0xbbf32521	-0.0074201976
83	0x3c2dff52	0.010619955
84	0x3daf38ef	0.08555781
85	0x3d811471	0.06302727
86	0xbd118450	-0.035526574
87	0xbca23b95	-0.019803802
88	0x3ca12981	0.01967311
89	0xbda94b92	-0.08266367
90	0x3c12b2f6	0.0089538
91	0xbcaeae8c	-0.021323465
92	0x3ccf7b48	0.02532734
93	0x3d295fc1	0.041351084
94	0x3c81d92f	0.015850632
95	0x3c7abb5e	0.015303461
96	0xbd007d2f	-0.031369384
97	0x3d43492b	0.0476772
98	0x3d0a2d73	0.03373475
99	0x3ca9e05f	0.020736871
100	0x3d0b783a	0.034050204
101	0xbcaf2d9a	-0.02138405
102	0x3d936e62	0.07198788
103	0x3dc7b1d2	0.097507134
104	0xbc4ee1cb	-0.012627075
105	0xbcc9959d	-0.024607474
106	0xbd70da47	-0.058801915
107	0xbce1d38a	-0.02756669
108	0x3d370bf7	0.044689145
109	0x3d652b2e	0.055949382
110	0xbc0bc50a	-0.0085308645
111	0xbcbbee32	-0.022940729
112	0xbd249919	-0.040185068
113	0x3d3ffe77	0.046873536
114	0xbd350c82	-0.04420138
115	0xbd1b15f9	-0.03786275
116	0xbbb46420	-0.0055051
117	0x3c841aa5	0.016125986
118	0x3cc56292	0.024094854
119	0x3cdd98b0	0.027050346
120	0x3d1de0d8	0.038544506
121	0xbccce735	-0.025012592
122	0x3c4e85c8	0.012605138
123	0xbd77b9ad	-0.06047981
124	0xbd2ae1f6	-0.0417194
125	0xbbe317c0	-0.0069303215
126	0xbce360e1	-0.027756156
127	0xbc950079	-0.018188702
128	0xb9f4147e	-0.00046554575
129	0x3ccab657	0.02474515
130	0xbc07af40	-0.008281529
131	0x3b8d14f7	0.0043054777
132	0x3b25e7d4	0.0025315182
133	0xbc9877c8	-0.018611804
134	0xbcf54bff	-0.029943464
135	0x3d0a6774	0.033790067
136	0x3bc3e924	0.0059787203
137	0x3c1449dd	0.0090508135
138	0xbbdc6f8c	-0.0067271646
139	0xbd204efa	-0.039137818
140	0xbccb1c1d	-0.024793679
141	0xbe033e71	-0.12816788
142	0x37752d93	1.4613749e-05
143	0x3cccae24	0.02498538
144	0x3d809d27	0.062799744
145	0x3c77252e	0.015084548
146	0xbd9e2c67	-0.07723313
147	0x3d460442	0.048343904
148	0xbd33cfb6	-0.04389926
149	0x3cfec92e	0.03110179
150	0x3d6f35a7	0.058400776
151	0xbc97e33a	-0.018540967
152	0x3d4be2b6	0.049776755
153	0xbd1855cc	-0.037191197
154	0xbc15ce6d	-0.009143454
155	0x3d46c83c	0.048530802
156	0xbd247dae	-0.04015892
157	0x3ba78310	0.0051120594
158	0xbceef12c	-0.029167734
159	0x3cb67961	0.022274675
160	0xbb2481b6	-0.0025101728
161	0xbcc1609f	-0.023605643
162	0xbce350d4	-0.027748503
163	0x3d734f84	0.059402004
164	0x3c989c1a	0.018629123
165	0xbb5da183	-0.0033818192
166	0xbd22536a	-0.03963033
167	0x3cc655bf	0.024210809
168	0x3d74c2e8	0.05975619
169	0xbc1e018c	-0.0096439235
170	0xbb5cb8bb	-0.0033679444
171	0xbd18c08f	-0.037293013
172	0xbcb820be	-0.02247655
173	0x3c75524b	0.014973233
174	0xbc95dfd8	-0.018295214
175	0xbc55cf48	-0.013049908
176	0xbd28b341	-0.041186575
177	0x3d0f1fc5	0.034942407
178	0xbd1a7cd8	-0.037716717
179	0xbb56bb48	-0.0032765437
180	0xbc3ebfce	-0.0116424095
181	0x3d0aaa1a	0.033853628
182	0x3d07fbbb	0.033199053
183	0xbbe4b6cf	-0.0069798003
184	0x395a1e89	0.00020801475
185	0x3c6b2be6	0.014353728
186	0x3d6db848	0.058037072
187	0xbcefe11d	-0.029282147
188	0x3bb9a399	0.0056652543
189	0xbcd1bddd	-0.02560323
190	0x3ce4c95c	0.027928047
191	0x3c21c245	0.009872978
192	0xbd391966	-0.045190237
193	0xbcbe5605	-0.023234377
194	0x3d5fa102	0.05459691
195	0x3cc8c7aa	0.02450927
196	0x3cd85a8f	0.02641037
197	0xbcc0f522	-0.023554388
198	0xbd84efd9	-0.0649106
199	0xbd66eef8	-0.056380242
200	0x3acdd789	0.0015704493
201	0xbc8a3b3a	-0.016873945
202	0xbd85db94	-0.06536022
203	0xbd791b19	-0.060816858
204	0x3d81d1c8	0.06338841
205	0xbc67c838	-0.014146857
206	0xbd30bb69	-0.04314748
207	0x3d5edd3d	0.054410208
208	0x3d1b712c	0.037949726
209	0xbcf421ad	-0.029801214
210	0x3bd88c01	0.0066084866
211	0xbca5097b	-0.020146122
212	0xbb7324fb	-0.00371009
213	0xbcef45da	-0.029208113
214	0x3d5bd40c	0.05366902
215	0xbcabd999	-0.020977782
216	0xbd223a4c	-0.039606377
217	0x3b5c4a13	0.0033613488
218	0xbd1c749e	-0.038197152
219	0xbd7ff371	-0.062488023
220	0x3cd08bc0	0.025457263
221	0x3c561c16	0.01306822
222	0x3c9f2683	0.019427544
223	0x3b8244aa	0.0039754706
224	0x3c93a083	0.018020874
225	0x3d1ad363	0.03779925
226	0x3be8ef14	0.0071085785
227	0xbc9d3caf	-0.019193975
228	0xbc32898f	-0.010897054
229	0xbca2c593	-0.019869601
230	0xbc90d0f7	-0.017677767
231	0xbc89044d	-0.016725684
232	0xbc42c5cc	-0.011887979
233	0xbbe8cfe9	-0.007104863
234	0x3c5cc255	0.013474067
235	0x3c370cc2	0.011172475
236	0xbd8b030e	-0.06787692
237	0xbb77a7e6	-0.0037789284
238	0xbc376e10	-0.011195675
239	0xbd11716a	-0.03550855
240	0x3b0b9c53	0.0021302893
241	0xbcfda5c0	-0.030962825
242	0xbc284f46	-0.0102728065
243	0x3dbace3a	0.09121366
244	0x3cae27b3	0.021259164
245	0x3b42bd8f	0.0029715037
246	0x3d1ff79d	0.0390545
247	0x3d45cc16	0.048290335
248	0xbc0fd1db	-0.008778061
249	0xbd6fe7cd	-0.05857067
250	0xbd1b53f2	-0.037921853
251	0x3d46c517	0.048527803
252	0xbcfa5ed1	-0.03056279
253	0xbd087233	-0.033312034
254	0x3cc7372e	0.024318304
255	0x3c7d0942	0.015444102
