data/videos/.working/embeddings/W84lObmOp8M.npy (npy, 70784 bytes, 1 tensors)

array f4 [23, 768]
00000000: f44b 6b3c 1f8f bb3c 9a76 433b 345e bb3c
00000010: 14cb aebc 26e6 213d 3e28 f4bc 436b a93c
00000020: 8f58 0a3d 05b6 25bc a032 c83c a23e 1f3d
00000030: 8ee6 c2bb c07c d8bc 4b38 24bd 3d1d 1f3d
00000040: 77de 643c c586 803d e588 89bd 2e68 1b3d
00000050: fc62 f7bc 62cb a23b 760d 723d e6d7 94bd
00000060: 7405 62ba 78f8 923c 1529 11ba 3472 373a
00000070: 6558 c4bb 3bb4 d63c 5503 cd3c 6d00 d03c
00000080: 0ee6 7f3b a75c 78bd 7b8e f93c 542e 24bd
00000090: 08a1 a5bc 5f18 93bc d66b 36bd f944 3f3c
000000a0: aec5 32bd 64ba 883c 7c2a b3bd 1989 903d
000000b0: 555c 55bc 6c7f e6bc eff9 fdb9 0cae 4abd
000000c0: 6e11 0c3c 11ad 393d 0ab2 243d be65 fdbc
000000d0: bfe4 07bd 7911 77bb 5de3 6abd cd3d 18bc
000000e0: 10a1 10bd 3aa9 24bd 0c67 27bd ab43 453c
000000f0: b5b5 90bd c669 8f3c cf21 8f3c 07a2 e6bc
00000100: 2f73 aebc cd92 87bc c036 66ba cf00 daba
00000110: 350f 1e3c de13 e03d 9208 8bbc 7628 d1bc
00000120: 727a 4abd 0369 863c 6c79 6e3d 22ab a43c
00000130: 9eb8 1fbd 063b e93c ab66 483c 6d98 99bc
00000140: 00ad febb ac89 cd3b 7083 0b3b 768b 343c
00000150: 0630 4d3d be7c a43d ac8b 50bd b8c8 d03c
00000160: 4eea 8d3d 10d3 d9bd 44e8 753d 6f60 15bc
00000170: 7368 013c cd92 643c 2e6c ba3c 7a96 063d
00000180: 1ca3 9fbc b1e6 ab3d 6c75 d5ba 0fb5 933c
00000190: 08ce 813b c347 4ebc ce9c 713d cfcc 8a3d
000001a0: c6fd 7abc 3d92 ae3c 6195 6dbd 91a6 93bd
000001b0: c237 083d c3c9 d53d 30b0 4639 0219 7abc
000001c0: 79f4 0bbd f2a2 d8bc 4b4a 7fbc fe62 bd3c
000001d0: d33d 27bd 807a 9ab9 d87a 44bc 4b03 6b3c
000001e0: c7cb 773c 1bb6 3fbd c74c 103c 9483 58bd
000001f0: 3a20 a6bc 5abe 5abd f648 6abd cc27 6bbd
00000200: 2a90 b53b ed06 64bc 4182 ca3b 98fb 50bd
00000210: ff17 17bd 9cf4 20bc 328b d2bb 6027 84bc
00000220: 2ca5 bbbc 8e75 903c 9a7a fd3c 6052 0c3d
00000230: 856a 633a d548 06be 1ded a23c fabf 003d
00000240: 4159 113d a95b 4dbc 496c 32bd 0111 e73b
00000250: 1a16 ecbc 5359 b13d 1a0a 103d 8de5 0dbd
00000260: 7f15 a7bb 449f dcbc 42c7 17bd 3d4a 69bb
00000270: fd60 00bd 75da bd3c d901 97bb 6630 003d
00000280: a1d2 a9bc 8013 a33b 9a7d 463c 0467 413d
00000290: c0d5 2cbd ba1f 583c a863 793b b0d0 3ebd
000002a0: a163 0e3d 9486 0b3d b467 b8bc 1d76 d53c
000002b0: 5b9a 7ebb 469d 583d 2143 00bd 5a8e 12bc
000002c0: 2345 1bbc 522f 853c 84b9 213d 41f0 633d
000002d0: 00ef 2bbd e5f1 9a3b 26f4 a3bb 90b3 493d
000002e0: 8b55 423b d0af 4f3c 06de 38bd 7e89 07bc
000002f0: 923c 2f3d 611c 5fbc 63a8 4d3d d7bb 0e3c
00000300: b129 abbd af03 a3ba 73b7 593d 393b 893d
00000310: e6c2 9f3c 0c68 0f3d 85c3 0fbd ff74 beba
00000320: 966b ba3b f744 a1bb 054f 22bd 5ed9 a9bb
00000330: c874 213d 83fb 153d 5e84 25bd 119f d93d
00000340: 3db1 4bbd c7f7 393c 6a73 8fbc 291a 93bd
00000350: 07bd f9bc 2faf d23c 874f 863d a027 debc
00000360: 7b3b 44bd 6d99 103c 3f94 50bd 9390 153d
00000370: 2c88 9dbc efa4 063d 4338 2abc 02fa f2bb
00000380: 00f6 e93b 5a34 b5bc bc57 70bd 666e 843b
00000390: 5fe4 93bc bef8 343c fb0d 9dbc 6295 bdbc
000003a0: 7b0f c23b cbdb babd 06cf b53c d4ab 9abc
000003b0: 3a67 36bd 817a 69bd 5f3b 8cbc 8a26 48bd
000003c0: 62c6 11bd 28ee 193c 9db7 d73c 8edf b63d
000003d0: 26fd e73b fa64 eb3c ac82 383d bee7 1a3c
000003e0: 21df e33c 8bff 933c a086 923c 613d 813b
000003f0: 4264 943c 4436 d8bc 6653 673d 3d76 883c
0.01436137 0.022895394 0.002982533 0.022872068 -0.02133707 0.039526127 -0.029804345 0.02068103
0.033775862 -0.010114198 0.024438202 0.03887809 -0.0059478944 -0.026426673 -0.040092748 0.038846243
0.013969055 0.06275705 -0.06715564 0.03794115 -0.030198567 0.004968093 0.05909487 -0.07267742
-0.00086220284 0.017940745 -0.0005537433 0.00069979136 -0.0059919828 0.026208987 0.025026003 0.025390828
0.0039047035 -0.060635235 0.030463448 -0.040083244 -0.020218387 -0.017955957 -0.044536434 0.011674159
-0.043645553 0.01669044 -0.087483376 0.07057399 -0.013022502 -0.028136931 -0.00048442135 -0.04948239
0.008549077 0.045331065 0.040208854 -0.030932304 -0.033177134 -0.0037699623 -0.057345737 -0.009292078
-0.03530985 -0.04020045 -0.040869758 0.012040059 -0.07065908 0.017506491 0.017472176 -0.028153433
-0.021295158 -0.016549492 -0.0008781962 -0.0016632321 0.00964718 0.10941289 -0.01697186 -0.025531989
-0.04943318 0.016407495 0.058221266 0.020101134 -0.038994424 0.028470527 0.012231509 -0.01874944
-0.007772088 0.0062725153 0.002128806 0.011019578 0.050094627 0.08031605 -0.05091445 0.025486335
0.06929456 -0.1063596 0.06003596 -0.00911723 0.007898438 0.013951016 0.022756662 0.03285835
-0.019486956 0.0839361 -0.0016285605 0.018030671 0.0039613284 -0.0125903515 0.05898743 0.067773454
-0.015319293 0.021309966 -0.058003787 -0.072095044 0.0332563 0.104388736 0.00018948386 -0.015264751
-0.034168694 -0.026444886 -0.015581678 0.023118492 -0.040830445 -0.0002946444 -0.011992179 0.014344047
0.015124268 -0.04680453 0.008807368 -0.052859858 -0.020279039 -0.05340419 -0.057198487 -0.057411
0.0055408673 -0.013917667 0.0061800783 -0.05102119 -0.03688812 -0.009823944 -0.006425285 -0.016132057
-0.022905909 0.01763418 0.03094225 0.034258246 0.00086752354 -0.1311372 0.019888455 0.031433083
0.03548551 -0.0125340605 -0.0435603 0.0070515876 -0.028819133 0.08659615 0.035165884 -0.034642745
-0.005098998 -0.026931413 -0.03705526 -0.0035597228 -0.031342495 0.023175457 -0.0046083746 0.031296156
-0.020730319 0.00497669 0.012114907 0.047217384 -0.042196035 0.013191158 0.0038053785 -0.04658574
0.034762982 0.03406389 -0.022510387 0.026057297 -0.0038849327 0.052884363 -0.03131402 -0.008945072
-0.009476933 0.016257916 0.039483562 0.055649046 -0.041975975 0.004728543 -0.00500347 0.04924351
0.0029653038 0.012676194 -0.045133613 -0.008272527 0.042782374 -0.013617606 0.050209414 0.008711777
-0.083575614 -0.0012437011 0.053153466 0.06700749 0.019502115 0.035011336 -0.03509857 -0.0014530717
0.005689095 -0.0049215513 -0.03962614 -0.005183383 0.039418012 0.036616813 -0.04040944 0.10626043
-0.049729574 0.011350579 -0.017511088 -0.07182724 -0.030485643 0.0257183 0.065581374 -0.027118504
-0.047908287 0.008825642 -0.05092263 0.03651483 -0.01922997 0.032872137 -0.01038939 -0.007415057
0.007139921 -0.02211969 -0.05867742 0.004041481 -0.018053232 0.011045633 -0.019171705 -0.02314252
0.0059222556 -0.091239534 0.022193443 -0.018880762 -0.04453204 -0.057001594 -0.017118154 -0.04886488
-0.035589583 0.00939516 0.02633267 0.089293584 0.007079738 0.028734673 0.045046493 0.009454666
0.027816357 0.018066188 0.01788646 0.0039440845 0.018114213 -0.026393063 0.05647602 0.016657943
