data/videos/.working/embeddings/w8wR836X1q4.npy (npy, 3200 bytes, 1 tensors)

array f4 [1, 768]
-0.05429535 -0.007217723 -0.009909391 -0.0029032934 -0.014333698 -0.005417498 -0.04374893 -0.06150215
0.050058797 0.041170005 -0.033783767 0.04651916 0.05461088 -0.021175029 -0.08240286 -0.004428277
-0.012864586 0.007120529 -0.026850788 -0.056183364 -0.011896578 0.0114860935 0.068072006 -0.016131261
0.0022292093 0.024452705 0.0050740857 -0.025251217 -0.019319078 -0.0116238175 0.062058028 0.004542036
0.06803501 -0.054767396 -0.041299585 0.03705273 -0.018587617 0.0010265035 0.048242025 -0.012121402
-0.0062213466 0.03738503 -0.041250043 0.032578047 0.01619619 -0.035407208 -0.06362553 -0.060031258
0.005091357 0.015885504 -0.057265885 -0.033478227 -0.020730121 0.021902254 0.019344255 0.004926295
0.030814469 0.06419764 0.036030404 0.020791296 -0.025355414 -0.006000236 0.0025388347 0.020592945
0.028291555 0.050434504 -0.039268736 0.02172917 0.032723054 0.09356432 -0.031657904 0.009025609
-0.052334607 -0.034837816 0.039347805 -0.0015036875 0.022721266 0.04170787 0.0047384216 0.070223786
-0.041789386 -0.027023965 0.009230405 -0.04688354 0.085189365 0.029410318 0.031743784 0.053164843
0.041171204 -0.07500899 0.036549885 -0.027644832 -0.0058895657 0.045181923 -0.0038802256 -0.053520545
0.032015935 -0.016966207 0.10792037 0.009187979 0.049131487 -0.0178139 0.09861959 0.099292964
-0.007476707 0.032567646 -0.012393828 0.010358189 -0.039588064 -0.00012722734 -0.025968656 0.039919626
0.030855743 -0.045463648 0.010050907 -0.035007074 -0.07491267 0.05605434 -0.035831925 -0.01976425
0.024700593 0.048686948 -0.0034936643 0.008898982 0.037451584 0.003261244 -0.017597841 -0.038136438
0.04993036 0.004269074 0.039523885 -0.044641677 -0.031944036 -0.042052917 0.0010536924 -0.07645707
-0.07038837 0.01506471 -0.011240537 0.027419837 -0.0035361124 -0.12011971 -0.05554341 0.01603257
0.044323243 0.05325291 -0.13140169 0.043728314 -0.013429347 -0.0042544166 0.0051494422 0.018261751
0.0034750088 -0.050990626 0.011388526 -0.002606601 0.019498918 0.04465491 -0.0074581364 -0.022935757
0.025480967 -0.034650523 -0.012608418 0.036289185 0.018571246 -0.055446617 0.028650463 -0.016324343
-0.04244375 0.06233845 -0.033679932 -0.0014917523 -0.049035642 -0.030761069 0.0407269 0.02601103
-0.014146954 -0.0054924963 0.011271255 0.029588271 -0.054991193 -0.0061560236 0.07588419 0.03056325
0.004726137 -0.012068913 -0.001134154 0.025072785 -0.048750017 -0.014033896 -0.03488379 -0.060708366
-0.012250773 -0.04515124 0.023043903 0.024204599 0.05062921 -0.023802347 0.037335806 -0.016798927
0.019475676 0.010282283 -0.049425803 0.007978626 0.053424336 0.07672069 0.016282305 -0.014524181
-0.022724597 0.0010727938 -0.017166298 -0.03205825 -0.08764773 0.013147986 0.007579335 -0.059575673
-0.031349596 -0.025837895 0.02893364 0.04314529 -0.023956617 0.100901835 0.016254082 -0.058497015
-0.035325922 0.06414809 -0.041537322 0.013587136 0.010781664 0.019006284 0.010927322 0.021267317
-0.015399768 -0.05367939 0.0026980904 -0.009133426 -0.006242169 0.046656344 -0.021238433 0.013740489
0.016936552 -0.00703908 0.023185587 0.004468099 0.019835154 0.018319024 0.011447817 0.03217514
0.044115786 -0.023858536 0.0064303456 0.0011355589 0.029795459 -0.028886547 0.043488905 0.023741096
00000000: cd64 5ebd a682 ecbb 005b 22bc 2e45 3ebb
00000010: e3d7 6abc 4485 b1bb 1432 33bd aee9 7bbd
00000020: 740a 4d3d e1a1 283d d960 0abd e08a 3e3d
00000030: a8af 5f3d 4177 adbc d5c2 a8bd 141b 91bb
00000040: fcc5 52bc 5453 e93b 2ff6 dbbc 8720 66bd
00000050: dde9 42bc 2b30 3c3c 5669 8b3d b525 84bc
00000060: ed17 123b 0a51 c83c 8444 a63b a4db cebc
00000070: 0b43 9ebc d371 3ebc 8f30 7e3d 5cd5 943b
00000080: f055 8b3d c753 60bd c129 29bd 9ac4 173d
00000090: 0f45 98bc be8b 863a 6e99 453d d898 46bc
000000a0: 70dc cbbb 0c21 193d cef5 28bd 8f70 053d
000000b0: dfad 843c 2607 11bd 1a4e 82bd 56e3 75bd
000000c0: 66d5 a63b 5122 823c a28f 6abd 7720 09bd
000000d0: 37d2 a9bc 5b6c b33c d877 9e3c c26c a13b
000000e0: a06e fc3c 0d7a 833d 9e94 133d 8252 aa3c
000000f0: 28b6 cfbc a19d c4bb 9462 263b 89b2 a83c
00000100: b1c3 e73c 6994 4e3d 41d8 20bd 5f01 b23c
00000110: 9c08 063d a69e bf3d b8ab 01bd 26e0 133c
00000120: d05c 56bd 19b2 0ebd 2a2b 213d 6117 c5ba
00000130: f321 ba3c dfd5 2a3d c344 9b3b 7dd1 8f3d
00000140: 592b 2bbd 5d61 ddbc 203b 173c f408 40bd
00000150: c377 ae3d e8ed f03c c505 023d 61c3 593d
00000160: 23a3 283d 509e 99bd 55b5 153d 6a77 e2bc
00000170: 42fd c0bb ae10 393d 624b 7ebb 5c38 5bbd
00000180: 2423 033d b7fc 8abc 5b05 dd3d 2d89 163c
00000190: 193e 493d 75ee 91bc 11f9 c93d 1c5a cb3d
000001a0: 2aff f4bb a765 053d 7b0f 4bbc 65b5 293c
000001b0: 1827 22bd 5468 05b9 38bc d4bc c382 233d
000001c0: 2fc5 fc3c 1738 3abd 8fac 243c 9463 0fbd
000001d0: d06b 99bd 3c99 653d 7fc4 12bd a3e8 a1bc
000001e0: e658 ca3c f76b 473d f6f5 64bb 09cd 113c
000001f0: d566 193d 98ba 553b 5929 90bc f434 1cbd
00000200: c783 4c3d 97e3 8b3b cce3 213d 31da 36bd
00000210: c0d7 02bd ae3f 2cbd 0d1c 8a3a 8695 9cbd
00000220: c727 90bd f9d1 763c 3b2a 38bc 919f e03c
00000230: 1fbe 67bb 5301 f6bd 7d81 63bd bc56 833c
00000240: 4a8c 353d b91f 5a3d 2a8e 06be 761c 333d
00000250: c406 5cbc a268 8bbb a7bc a83b ab99 953c
00000260: f9bc 633b 8cdb 50bd f196 3a3c 82d3 2abb
00000270: 32bc 9f3c 11e8 363d 6263 f4bb c5e3 bbbc
00000280: 76bd d03c b5ed 0dbd 8a93 4ebc f8a3 143d
00000290: ba22 983c fe1b 63bd 60b4 ea3c a1ba 85bc
000002a0: 7fd9 2dbd 9a56 7f3d f8f3 09bd e786 c3ba
000002b0: 99d9 48bd a3fe fbbc 40d1 263d 1515 d53c
000002c0: a0c8 67bc 66fa b3bb 12ab 383c 1a63 f23c
000002d0: 723e 61bd 78b8 c9bb 2c69 9b3d c85f fa3c
000002e0: b6dd 9a3b b1bc 45bc e5a7 94ba 7165 cd3c
000002f0: 19ae 47bd 6dee 65bc 4ee2 0ebd 56a9 78bd
00000300: 77b7 48bc 82f0 38bd 91c6 bc3c b948 c63c
00000310: 9360 4f3d 24fd c2bc 6eed 183d e79d 89bc
00000320: 748b 9f3c 0577 283c b672 4abd c8b8 023c
00000330: 7ad3 5a3d bd1f 9d3d 7862 853c d5f6 6dbc
00000340: ef28 babc fd9c 8c3a 56a0 8cbc 834f 03bd
00000350: a780 b3bd a66a 573c 125c f83b 9f05 74bd
00000360: 6f68 00bd fea9 d3bc 3e06 ed3c 1eb9 303d
00000370: ab40 c4bc 9fa5 ce3d 4827 853c 919a 6fbd
00000380: eab1 10bd 1360 833d 0a23 2abd 949c 5e3c
00000390: 94a5 303c 11b3 9b3c 8308 333c cc38 ae3c
000003a0: 4f4f 7cbc ecde 5bbd 72d2 303b 5da4 15bc
000003b0: 1c8b ccbb b91a 3f3d 39fc adbc ca1f 613c
000003c0: 86be 8a3c 15a8 e6bb b3ef bd3c 2269 923b
000003d0: 557d a23c c711 963c a08f 3b3c 14ca 033d
000003e0: c1b2 343d fa72 c3bc a6b5 d23b 09d7 943a
000003f0: 9b15 f43c 7ba3 ecbc 6c21 323d b07c c23c
